project1-navigation/checkpoint.pth (torch_old, 173650 bytes, 6 tensors)

fc1.weight f4 [256, 37]
0	0x3de363e0	0.11103034
1	0xbd28df7a	-0.04122875
2	0xbd8907eb	-0.06690963
3	0xbe7b87bd	-0.24563499
4	0xbf5ed5b0	-0.8704481
5	0xbc1cdeec	-0.009574633
6	0xbe5ca645	-0.21547802
7	0x3e819832	0.25311428
8	0x3ca275f6	0.019831639
9	0xbf314e80	-0.69260406
10	0xbe028bdb	-0.12748663
11	0x3d5b390a	0.053521194
12	0xbd7fc12d	-0.062440086
13	0x3e159ac1	0.14609815
14	0xbe7afce2	-0.2451053
15	0xbd1fcd3a	-0.03901408
16	0x3e4b45bc	0.1985082
17	0xbe2878c6	-0.16452321
18	0x3c3c67dc	0.011499371
19	0xbcf2587d	-0.02958321
20	0x3e07e7b0	0.13271976
21	0xbdba9c32	-0.09111823
22	0xbee01bfd	-0.43771353
23	0xbea254e0	-0.3170538
24	0xbdc2a997	-0.09505003
25	0xbcd6a681	-0.026202442
26	0x3da8f002	0.08248903
27	0x3de6584b	0.11247309
28	0xbf0b5aff	-0.54435724
29	0x3f2aa3c9	0.66656166
30	0xbe41abc1	-0.18913175
31	0x3e9a2b99	0.30111387
32	0xbc54bc7f	-0.012984394
33	0xbd8929a4	-0.066973954
34	0xbe2c2de0	-0.16814375
35	0xbd26bee0	-0.040709376
36	0x3d14adb1	0.036298458
37	0x3e79c760	0.24392462
38	0x3e1d6df0	0.15373969
39	0x3de8222a	0.11334641
40	0x3e917eaf	0.28416964
41	0xbd046eca	-0.03233222
42	0x3ec90cd2	0.39267594
43	0x3e694c55	0.22783025
44	0x3db87dde	0.09008382
45	0x3dac7769	0.08421213
46	0xbee58408	-0.44827294
47	0x3e6e46e5	0.23269232
48	0x3e1c9753	0.152921
49	0x3e19c06d	0.15014811
50	0xbd59b1fa	-0.053148247
51	0x3c1db215	0.009624978
52	0x3e8924dc	0.26785934
53	0x3e3b8da5	0.18315752
54	0x3eb0af43	0.34508714
55	0x3e946200	0.28981018
56	0x3d6edc31	0.05831546
57	0x3c445df6	0.011985293
58	0x3ea9d8c3	0.3317319
59	0x3e9c4724	0.30523026
60	0x3c18c118	0.009323381
61	0x3e9769b2	0.29572827
62	0x3e850e7a	0.25987607
63	0x3ef38ec3	0.47569856
64	0x3da8c340	0.08240366
65	0x3db5eff2	0.088836566
66	0xbccd7d80	-0.025084257
67	0x3e537d9c	0.20653385
68	0x3e029c98	0.12755048
69	0x3e1acf33	0.15118103
70	0x3dced7c7	0.1009975
71	0x3d48c047	0.049011495
72	0xbc1153a4	-0.008870039
73	0x3c1bd862	0.009512039
74	0x3ceb69de	0.028737005
75	0xbe9d6bb3	-0.3074623
76	0x3e37481d	0.17898603
77	0x3ddd5892	0.10807909
78	0xbecdf14f	-0.40223166
79	0x3d821a0a	0.06352623
80	0xbdd18f0a	-0.10232361
81	0xbd88564e	-0.06657086
82	0xbe193989	-0.14963354
83	0xbe48e3c5	-0.19618137
84	0x3e0e577d	0.13900562
85	0xbe2ce75f	-0.16885136
86	0xbd9aef96	-0.07565229
87	0x3c8676de	0.016414102
88	0xbf308146	-0.68947256
89	0x3dc58a50	0.09645522
90	0xbd7a66fb	-0.061133366
91	0x3de5fffc	0.11230466
92	0xbea61a37	-0.32441875
93	0x3d49f8d5	0.04930957
94	0xbe804eda	-0.2506016
95	0xbe45fcf2	-0.19334772
96	0x3e6a87c1	0.22903349
97	0xbc28fe33	-0.010314512
98	0xbc9d1664	-0.019175716
99	0xbbd5a929	-0.0065204096
100	0x3e5e6d21	0.21721317
101	0xbf0d7c68	-0.55267954
102	0x3e866132	0.2624603
103	0x3e4fb48e	0.2028372
104	0x3e21ac74	0.15788442
105	0xbeabb398	-0.33535457
106	0x3d6021d5	0.054719765
107	0xbe29b3b6	-0.1657246
108	0x3eb085c2	0.3447705
109	0x3dba044a	0.09082849
110	0xbcddf27f	-0.02709317
111	0xbd7dfe82	-0.062010296
112	0x3e186c91	0.14885165
113	0x3e7bed9c	0.2460236
114	0x3dab5ddd	0.083675124
115	0xbde5fbbb	-0.112296544
116	0x3eadb1f5	0.33924833
117	0x3e2e625c	0.17029709
118	0xbebced79	-0.36899927
119	0xbf39a817	-0.7252211
120	0xc0033fc9	-2.0507681
121	0xbc3a853b	-0.011384304
122	0x3e4496c2	0.19198135
123	0x3e33eed5	0.17571576
124	0x3cba4d7e	0.02274203
125	0xbce126cc	-0.02748432
126	0xbd066180	-0.032807827
127	0x3dd17f3a	0.10229345
128	0x3e511d49	0.20421328
129	0x3b7b5ea3	0.0038355968
130	0xbdff3358	-0.12460965
131	0x3d99f3e0	0.075172186
132	0x3e7b2d41	0.24528982
133	0x3e3085ad	0.17238493
134	0x3e26a4de	0.1627383
135	0x3e2717de	0.16317698
136	0xbda1cf78	-0.079009
137	0x3de191f4	0.110141665
138	0x3e745eca	0.23864284
139	0x3e21e8ba	0.15811434
140	0x3d9f5cf2	0.077814
141	0xbcf85204	-0.030312546
142	0x3d8304f7	0.06397431
143	0x3e838459	0.2568691
144	0xbbaa0311	-0.005188354
145	0x3dbde114	0.09271446
146	0xbb9c095d	-0.0047618584
147	0xbd81afd2	-0.06332363
148	0xbdce9946	-0.10087828
149	0x3d87cb86	0.06630616
150	0xbe08a4c9	-0.1334411
151	0xbe55e3dd	-0.20887704
152	0x3e104616	0.14089236
153	0x3e6172c2	0.22016433
154	0xbeb88119	-0.36035994
155	0xbf07aa29	-0.5299402
156	0xbeed44c3	-0.46341524
157	0x3ed1f0d7	0.4100406
158	0x3e363473	0.17793445
159	0xbd330629	-0.043707047
160	0xbf6b4698	-0.9190459
161	0x3cd64670	0.026156634
162	0xbee1fed8	-0.44139743
163	0x3e636ab3	0.22208671
164	0xbedc3b34	-0.43013918
165	0xbd6d9ac4	-0.058008924
166	0xbee0f3f7	-0.4393613
167	0x3e637a83	0.22214703
168	0xbf33d2bc	-0.7024343
169	0x3d9fc050	0.078003526
170	0xbe8badfa	-0.2728117
171	0x3de3c44e	0.111214265
172	0x3c5fa3e6	0.013649916
173	0xbea531a7	-0.32264444
174	0xbe2bfd99	-0.16795959
175	0x3ec3aca1	0.38217643
176	0xbf4c3710	-0.7977152
177	0x3af8645a	0.0018950806
178	0xbf7c1151	-0.9846392
179	0x3da7623c	0.081730336
180	0x3e27aa66	0.16373596
181	0xbe93140b	-0.2872623
182	0xbea7980d	-0.32733193
183	0x3d406f0f	0.046980914
184	0xbd896535	-0.06708757
185	0xbd4176f2	-0.047232576
186	0xbe3c07d3	-0.1836236
187	0x3eae3a99	0.3402908
188	0xbefce8f8	-0.4939649
189	0xbecf4de1	-0.40489104
190	0x3bddd991	0.0067703207
191	0xbd40f275	-0.047106225
192	0xbea5b9cd	-0.32368317
193	0x3cd6167c	0.026133768
194	0x3e7916e2	0.24325135
195	0xbe094de1	-0.13408615
196	0x3dd7b3cb	0.1053234
197	0x3e8238c7	0.25433943
198	0xbcdbb0e3	-0.026817745
199	0x3e06f8a0	0.1318078
200	0x3ec819bf	0.39082143
201	0xbdcc6d0e	-0.09981738
202	0xbe48f71b	-0.19625513
203	0xbf06aaa1	-0.5260411
204	0x3e0d3147	0.13788329
205	0xbe1ee79c	-0.1551804
206	0x3c0f7621	0.0087561915
207	0x3e1ad41d	0.15119977
208	0x3d9f262f	0.07770955
209	0x3c13f9d4	0.009031732
210	0xbcf73c6a	-0.030180175
211	0xbddacc7b	-0.10683533
212	0xbd3a36c7	-0.045462396
213	0x3e541c06	0.20713815
214	0xbebade39	-0.36497667
215	0x3de35bea	0.111015156
216	0xbd67ab30	-0.05655974
217	0x3e47ea8d	0.19523068
218	0xbf0cddb3	-0.55025786
219	0x3edaf3bf	0.4276409
220	0xbe058d2b	-0.13042133
221	0xbc12e5fd	-0.008965966
222	0x3d83f20d	0.06442652
223	0xbe8135c5	-0.25236335
224	0xbeee2416	-0.46511906
225	0xbeb38b53	-0.35067233
226	0xbf8dc60e	-1.1076066
227	0x3e85d591	0.261395
228	0xbd884400	-0.06653595
229	0xbe73f76e	-0.23824856
230	0x3c970dfb	0.018439284
231	0xbf15dd8a	-0.58541167
232	0x3ed4687d	0.41485968
233	0xbee0f449	-0.43936375
234	0xbe7b1dca	-0.24523082
235	0xbeee1ffb	-0.46508774
236	0xbf9514fc	-1.1647029
237	0x3e1686de	0.14699885
238	0x3e37fac5	0.17966755
239	0xbf466f2b	-0.7751338
240	0xbec18ec3	-0.3780423
241	0xbf2b2794	-0.66857266
242	0x3e6eee98	0.23333204
243	0xbe828fe0	-0.25500393
244	0xbe70ea7f	-0.23526953
245	0xbd9a9ab7	-0.07549041
246	0xbe81bb8a	-0.25338393
247	0xbeab44c4	-0.33450902
248	0xbba0cbda	-0.0049071135
249	0x3e4025a9	0.18764366
250	0x3dab2717	0.08357065
251	0x3d9a867c	0.07545182
252	0x3d67b219	0.05656633
253	0x3dc17d65	0.09447745
254	0x3d4c4aee	0.049876146
255	0xbeb333be	-0.35000414

fc1.bias f4 [256]
0	0xbd384f83	-0.044997703
1	0x3e6b0a2c	0.22953099
2	0x3d768ec0	0.06019473
3	0x3e219291	0.15778567
4	0xbdddeba3	-0.1083596
5	0xbe01bc24	-0.12669426
6	0x3deebfb2	0.11657657
7	0xbe1ece5f	-0.15508412
8	0xbc0cdbf1	-0.00859736
9	0x3c025a4a	0.007956097
10	0xbdc0875e	-0.09400819
11	0xbe1406f5	-0.14455779
12	0xbe3fd9f1	-0.18735482
13	0xbdb64200	-0.08899307
14	0xbc292dec	-0.01032589
15	0xbd17ff99	-0.03710899
16	0xbe236ebe	-0.15960214
17	0xbd225f65	-0.039641757
18	0x3da39dbb	0.07989069
19	0xbdc67bd9	-0.09691591
20	0xbc8f760c	-0.017512344
21	0xbdd13b7d	-0.102164246
22	0xbab11baa	-0.0013512273
23	0xbe19fb41	-0.15037252
24	0xbdcdf45e	-0.10056375
25	0xbd769933	-0.060204696
26	0xbd17fdcf	-0.037107285
27	0xbe28e40f	-0.16493247
28	0x3d98d5b0	0.07462633
29	0xbd8e27e5	-0.06941203
30	0xbe4dbe2e	-0.20092079
31	0x3df030d7	0.117280655
32	0x3bb815dc	0.00561784
33	0xbe676e6a	-0.22600713
34	0x3c4cc4a7	0.012498057
35	0xbcb51f6e	-0.022109713
36	0xbd09fffc	-0.03369139
37	0xbe431bf6	-0.19053635
38	0xbe4fd0aa	-0.20294443
39	0x3de4a7b7	0.111648016
40	0x3b9f2a28	0.0048573203
41	0xbe883116	-0.2659995
42	0x3d2b229a	0.041781045
43	0xbe29359c	-0.16524357
44	0xbca2e5cb	-0.019884964
45	0x3d742207	0.059602764
46	0x3d7ab022	0.06120313
47	0xbd7a6473	-0.061130952
48	0xbe44f430	-0.19233775
49	0xbdc46ade	-0.09590696
50	0x3e71956a	0.23592153
51	0x3d3ffe83	0.04687358
52	0x3d361c4a	0.044460572
53	0xbdd233b8	-0.10263771
54	0xbb23185e	-0.002488635
55	0x3d5fe72c	0.054663822
56	0xbe204595	-0.15651543
57	0xbdcf0e59	-0.101101585
58	0xbe0ec307	-0.13941585
59	0xbb70afe9	-0.0036725944
60	0x3d2663dd	0.04062258
61	0x3da7d953	0.08195748
62	0xbd8791a1	-0.066195734
63	0x3e488bf2	0.19584635
64	0xba5ab98c	-0.00083436887
65	0xbe483357	-0.19550835
66	0xbc9433c6	-0.018091094
67	0x3ddcc9f3	0.10780706
68	0x3d77489f	0.06037199
69	0xbe0a94f3	-0.13533382
70	0x3d0face6	0.035077
71	0xbd769a25	-0.060205597
72	0x3d281266	0.04103317
73	0x3d696078	0.056976765
74	0xbc82a7b7	-0.015949113
75	0x3d818cec	0.06325707
76	0xbda20785	-0.079115905
77	0x3d391877	0.045189347
78	0x3d060b9e	0.032725923
79	0x3e660b87	0.22465335
80	0xbe0524d9	-0.13002338
81	0x3dbcb15d	0.09213517
82	0x3d8c0f4f	0.068388574
83	0xbe3f2489	-0.18666281
84	0xbe318790	-0.17336869
85	0xbd97fa91	-0.074208386
86	0xbe541060	-0.20709372
87	0xbdb48eea	-0.08816321
88	0xbd09bead	-0.03362911
89	0x3c063250	0.008190706
90	0xbe3dfba7	-0.18553029
91	0xbd3c6dfe	-0.046003334
92	0x3c177340	0.009243786
93	0x3da096a0	0.078412294
94	0x3db601fd	0.08887098
95	0x3da445b3	0.080211066
96	0xbd800b16	-0.062521145
97	0xbe41c14c	-0.18921393
98	0x3d25de63	0.040495288
99	0xbc1eade5	-0.009685014
100	0x3d2d9b10	0.042384207
101	0xbce56607	-0.028002752
102	0xbe5dbade	-0.21653315
103	0xbdad8833	-0.084732436
104	0xbe333818	-0.17501867
105	0x3ccf12e5	0.025277564
106	0x3e094a70	0.13407302
107	0xbbe71224	-0.007051723
108	0x3cc19254	0.023629345
109	0xbdb114e5	-0.086465634
110	0xbda60f75	-0.08108417
111	0xbe22fa59	-0.15915813
112	0x3d5f7ad6	0.054560505
113	0xbc4fa631	-0.0126739
114	0xbe0100ca	-0.12597957
115	0xbdf154b6	-0.117837355
116	0x3daa4553	0.08314004
117	0x3e5fda99	0.21860732
118	0xbd3c0db0	-0.04591149
119	0x3d9b5bc3	0.075858615
120	0x3ce286ae	0.02765211
121	0xbda800f7	-0.08203309
122	0xbd5e5234	-0.054277614
123	0xbcc860ee	-0.024460282
124	0x3e86086a	0.26178294
125	0xbd0dd6db	-0.03462873
126	0xbe514fe4	-0.20440632
127	0x3d0688d0	0.03284532
128	0x3cdf4270	0.02725336
129	0xbe8f6dac	-0.2801336
130	0xbd1a6933	-0.037697982
131	0xbe0e5f2d	-0.13903494
132	0xbd337a7a	-0.043817975
133	0xbe75595f	-0.23959874
134	0xbdb458cb	-0.088059984
135	0xbccbf889	-0.024898784
136	0xbd35f94d	-0.044427205
137	0xbdf139de	-0.117786154
138	0x3eeda9ae	0.46418518
139	0xbca7550b	-0.020426294
140	0xbdcb6bc3	-0.09932663
141	0x3e08337d	0.13300891
142	0x3d9fcd6a	0.078028515
143	0x3dc201cf	0.09473001
144	0x3d1aae2f	0.03776377
145	0x3dd80d5e	0.105494246
146	0x3d58dd01	0.05294514
147	0xbde0f1d3	-0.10983624
148	0xbcd47ad6	-0.025937479
149	0xbe1c4fce	-0.15264818
150	0x3d2039a0	0.039117455
151	0x3d0abc9f	0.03387129
152	0x3d019a00	0.031641006
153	0xbd96b78f	-0.0735923
154	0xbe30459f	-0.17214058
155	0xbdd17ed7	-0.10229271
156	0xbdcab9d4	-0.09898725
157	0xbe742050	-0.23840451
158	0xbd63f850	-0.05565673
159	0x3e039c9c	0.1285271
160	0xbe5994b9	-0.2124814
161	0x3c9a1b4c	0.018811844
162	0xbdefa05c	-0.11700508
163	0xbca73a34	-0.020413496
164	0xbe1e28e0	-0.1544528
165	0xbd70a746	-0.058753274
166	0xbe7fade0	-0.24968672
167	0xbda788eb	-0.08180412
168	0xbd5f3afa	-0.054499604
169	0x3d008879	0.03138015
170	0xbd6f039a	-0.058353044
171	0x3cf392d1	0.029733093
172	0x3dc2c86e	0.09510885
173	0x3df16b66	0.11788063
174	0xbcc5424c	-0.024079464
175	0xbea56432	-0.32303005
176	0x3dc9c1e1	0.098514326
177	0xbd160951	-0.03662998
178	0x3d0545c2	0.03253723
179	0xbe067132	-0.13129118
180	0xbdc658a6	-0.09684877
181	0x3d8df82b	0.069321
182	0xbdc3170a	-0.09525879
183	0xbe90d051	-0.28283933
184	0xbdc16899	-0.094437785
185	0xbd72dcf9	-0.059292767
186	0x3c48c270	0.012253389
187	0xbdaf0a5f	-0.085469
188	0xbe5f75e2	-0.21822312
189	0xbe5e0689	-0.2168218
190	0xbe41e463	-0.18934779
191	0xbe1d9f8b	-0.15392892
192	0xbdf676e1	-0.12034393
193	0xbe6339f9	-0.22190084
194	0xbe218993	-0.15775137
195	0xbdc18af0	-0.09450328
196	0xbe181ee5	-0.14855535
197	0x3ceec650	0.029147297
198	0x3de0db50	0.109793305
199	0x3e427111	0.18988444
200	0xbcfcf273	-0.030877328
201	0x3d98a238	0.07452816
202	0x3d8de3ff	0.069282524
203	0x3eb50c0b	0.3536075
204	0xbc26e104	-0.010185484
205	0xbd448127	-0.04797473
206	0xbd94b19f	-0.07260441
207	0xbd81abeb	-0.06331619
208	0xbd4296e0	-0.047507167
209	0xbca2af59	-0.019859003
210	0x3dcd7601	0.10032273
211	0xbd90b8f2	-0.070665255
212	0xbe006229	-0.12537445
213	0xbdfd84a8	-0.12378818
214	0xbddc853d	-0.10767601
215	0xbdbb4e8c	-0.09145841
216	0xbeabe874	-0.33575785
217	0xbc74e7b1	-0.014947818
218	0x3b649645	0.0034879607
219	0x3dba9475	0.09110347
220	0xbd968619	-0.07349796
221	0xbe239459	-0.15974559
222	0xbc166225	-0.009178673
223	0xbe4f69c7	-0.20255195
224	0x3e7f5c1a	0.24937478
225	0x3dd22c4b	0.102623545
226	0xbe1243b9	-0.14283647
227	0xbe3da1f1	-0.18518807
228	0x3c841a8f	0.016125945
229	0xbd6a166f	-0.0571503
230	0xbdbf859d	-0.093516566
231	0xbe2a8aad	-0.16654463
232	0x3deb268e	0.11481963
233	0xbe5cc30f	-0.21558784
234	0xbe00c999	-0.12576903
235	0xbe365e99	-0.17809524
236	0xbc4124c9	-0.011788555
237	0x3e1a9a19	0.15097846
238	0x3dc20d34	0.094751745
239	0x3e382b78	0.17985332
240	0x3d11a35c	0.035556182
241	0xbcd1516d	-0.025551522
242	0xbca29146	-0.019844662
243	0xbe1e0fed	-0.15435763
244	0xbd8e1d56	-0.06939189
245	0xbe5d6770	-0.2162149
246	0x3e045cfa	0.12926093
247	0xbddc8729	-0.10767967
248	0xbe1466b6	-0.14492306
249	0xbe2aa027	-0.16662656
250	0xbdd7d05f	-0.105377905
251	0xbcc62d8a	-0.024191637
252	0x3df5f92e	0.12010418
253	0xbe58be66	-0.21166381
254	0xbd502232	-0.05081386
255	0xbd36235c	-0.044467315

fc2.weight f4 [128, 256]
0	0xbe32edd8	-0.17473543
1	0xba896c22	-0.0010484497
2	0x3e5f9adc	0.21836418
3	0xbe1cd2bb	-0.15314762
4	0xbe6c0229	-0.23047699
5	0xbe2fe020	-0.1717534
6	0xbe074fc1	-0.13214017
7	0xbf2b2912	-0.66859543
8	0x3c92a46c	0.017900668
9	0x3e4397e8	0.19100916
10	0x3d85525e	0.06509851
11	0x3c657f54	0.014007408
12	0xbe8c49ad	-0.2739996
13	0x3e00724a	0.12543598
14	0xbe6f27bb	-0.23355
15	0xbdeb5056	-0.11489932
16	0xbf014eeb	-0.50511044
17	0xbe0d95e5	-0.13826711
18	0xbec8e296	-0.3923537
19	0x3e127daf	0.14305757
20	0x3e366f45	0.17815883
21	0x3e05381a	0.13009682
22	0xbdc2f83e	-0.09520005
23	0xbe0be7e6	-0.13662681
24	0xbe9cfc32	-0.3066116
25	0xbe27cc1d	-0.16386457
26	0x3e9d1571	0.3068042
27	0x3e872416	0.2639472
28	0xbdcf5a51	-0.10124648
29	0xbde20ce0	-0.11037612
30	0xbe24e06a	-0.16101232
31	0xbe3ae0fc	-0.18249887
32	0x3e26ac51	0.16276671
33	0x3dc0e01b	0.09417745
34	0xbe4486e6	-0.19192085
35	0x3eeecfe9	0.46642998
36	0xbd4c3530	-0.04985541
37	0x3d44dd46	0.048062585
38	0xbe31b725	-0.1735502
39	0xbbbc5bdf	-0.0057482566
40	0x3e1f0e96	0.15532908
41	0xbea002f1	-0.31252244
42	0xbe14468e	-0.1448004
43	0x3d47f6fd	0.04881953
44	0xbe461b2f	-0.19346307
45	0x3e5121a0	0.20422983
46	0x3e66fb77	0.22556864
47	0x3d3904f0	0.045170724
48	0x3cddb953	0.027065909
49	0xbf323367	-0.69609684
50	0x3ead6a03	0.33869943
51	0x3dfee994	0.12446895
52	0x3d665a96	0.056238733
53	0x3e5b2bf9	0.21403493
54	0xbe481663	-0.1953979
55	0xbf1f5ea9	-0.62253815
56	0xbe99d21a	-0.30043107
57	0x3e7ed5ab	0.24886195
58	0xbe550d48	-0.20805848
59	0xbe3293b5	-0.17439158
60	0xbe11b6ab	-0.14229839
61	0xbeaf22c5	-0.34206215
62	0x3e2ef1ab	0.17084377
63	0xbd9a5448	-0.075356066
64	0xbdac3e76	-0.08410351
65	0xbebca5ec	-0.36845338
66	0xbec34226	-0.38136405
67	0xbdd0eb99	-0.10201187
68	0xbe920c90	-0.2852521
69	0x3cbb68de	0.022877153
70	0xbebb4ad0	-0.36580515
71	0xbea21cfc	-0.31662738
72	0xbe8d10ac	-0.27551782
73	0xbe82297a	-0.2542227
74	0x3e038339	0.12843026
75	0x3ca8425d	0.020539457
76	0xbe9827f8	-0.29717994
77	0x3e26117b	0.16217606
78	0xbe2b7a13	-0.16745786
79	0xbf542749	-0.82872444
80	0xbe45deee	-0.19323322
81	0xbd844294	-0.06458011
82	0x3e18e290	0.14930177
83	0xbe82b782	-0.2553063
84	0xbec25a76	-0.3795964
85	0xbea6cee4	-0.3257972
86	0xbf54b7ad	-0.83092767
87	0xbeedbaad	-0.46431485
88	0xbebd1009	-0.36926296
89	0x3e8ee18b	0.2790645
90	0xbe853df6	-0.26023835
91	0xbf1655b6	-0.58724535
92	0x3e2d1715	0.16903336
93	0xbdcdcb2d	-0.10048518
94	0x3d38e0eb	0.045136373
95	0xbecb0603	-0.39653024
96	0x3c5e3259	0.0135618085
97	0xbe578b56	-0.21049246
98	0xbe3845e7	-0.17995416
99	0xbd1003be	-0.03515982
100	0xbe7c38f5	-0.24631102
101	0xbf0b6598	-0.54451895
102	0xbeae552e	-0.34049362
103	0x3e9b9540	0.30387306
104	0x3e20403c	0.15649503
105	0xbf2be83f	-0.67151254
106	0x3d566b84	0.05234863
107	0x3e71bd85	0.23607452
108	0x3ed3d22e	0.41371292
109	0xbd9f64e5	-0.07782916
110	0xbe3bf5bb	-0.18355457
111	0x3c9479de	0.018124517
112	0xbe2b530c	-0.16730899
113	0xbe2b6927	-0.16739331
114	0xbe32ae15	-0.1744922
115	0xbe5b53ab	-0.21418636
116	0xbded3959	-0.11583204
117	0xbde35563	-0.111002706
118	0xbc952019	-0.018203782
119	0xbd8ed6d2	-0.069745675
120	0xbec31e91	-0.38109258
121	0xbe6dd97b	-0.23227493
122	0xbde54c2f	-0.111961715
123	0x3ea1a280	0.3156929
124	0xbcfde00f	-0.030990629
125	0xbd2ef107	-0.04271033
126	0xbe68f1c5	-0.22748478
127	0x3c71ea3a	0.014765317
128	0xbdaa9257	-0.08328693
129	0xbeffc5a5	-0.49955478
130	0x3e179c28	0.14805663
131	0xbd8b2421	-0.067940004
132	0xbf0d0166	-0.5508026
133	0x3d483a78	0.048883885
134	0xbdb43fae	-0.088012084
135	0xbdd11247	-0.10208564
136	0x3e5493f8	0.2075957
137	0xbeb8a2df	-0.3606176
138	0xbd2cbdc7	-0.042173173
139	0xbeb79fba	-0.3586405
140	0xbeed8fe6	-0.46398848
141	0xbe47c506	-0.19508752
142	0xbd585cb8	-0.0528228
143	0x3dd711e1	0.10501457
144	0xbdd031d9	-0.10165758
145	0xbe2eb1d4	-0.17060024
146	0x3e792533	0.24330597
147	0xbeb19a0e	-0.34687847
148	0xbde1fbd9	-0.11034364
149	0x3e251088	0.16119587
150	0xbebe0224	-0.37111008
151	0xbdf2be40	-0.118526936
152	0xbee876ae	-0.45403045
153	0xbe92cc65	-0.28671566
154	0xbdab7331	-0.083715804
155	0x3d39dfa4	0.045379296
156	0xbf1920b7	-0.59815544
157	0xbea10265	-0.3144714
158	0xbd2f9989	-0.042871032
159	0x3dd19fa1	0.10235525
160	0x3daaec8b	0.08345898
161	0x3debe712	0.115186825
162	0xbe458fed	-0.19293185
163	0x3e53c344	0.20679957
164	0xbe34a284	-0.1764012
165	0x3e6d187f	0.23153876
166	0xbed8cf2f	-0.4234557
167	0x3dab520d	0.08365259
168	0xbda2d8b3	-0.07951488
169	0x3d6f3bd3	0.058406662
170	0xbe4f891b	-0.20267145
171	0xbf41d31e	-0.75712764
172	0x3e15eb88	0.1464063
173	0xbdbce65c	-0.09223625
174	0x3e77ea30	0.24210429
175	0xbe887764	-0.26653588
176	0xbebdae3a	-0.37046987
177	0x3e2dcbe0	0.16972303
178	0xbe707a0e	-0.2348406
179	0x3ecb6cf6	0.39731568
180	0x3d78653a	0.060643412
181	0x3d693857	0.056938495
182	0xbe2b3230	-0.16718364
183	0x3e8dc041	0.2768574
184	0xbed1ef71	-0.41002992
185	0xbdbad8a8	-0.09123355
186	0xbdbc84a0	-0.09204984
187	0xbe09589e	-0.13412711
188	0xbdc18c78	-0.094506204
189	0x3e3d26fd	0.18471904
190	0xbe1e502e	-0.15460274
191	0x3e80617d	0.25074378
192	0x3e9205db	0.28520092
193	0xbd4a79d7	-0.0494326
194	0x3ddf1e8a	0.10894497
195	0x3e761491	0.24031283
196	0xbf056a2b	-0.52115124
197	0xbcbbe01f	-0.022934018
198	0xbee2d2ac	-0.44301355
199	0x3ca1574b	0.019694945
200	0xbef87eac	-0.48534143
201	0xbe434d12	-0.19072369
202	0xbe7413e3	-0.23835711
203	0xbd161fe1	-0.036651496
204	0xbde69127	-0.11258154
205	0xbefb0825	-0.4902965
206	0xbe9d34ce	-0.3070435
207	0xbd49a3cf	-0.049228486
208	0xbc2f7b1b	-0.010710503
209	0xbe9648b5	-0.29352346
210	0xbe6cef5b	-0.23138182
211	0xbd7cd620	-0.061727643
212	0xbe5e1863	-0.2168899
213	0xbe510413	-0.2041171
214	0xbf3dd084	-0.74146295
215	0x3d62476b	0.05524389
216	0xbd89878f	-0.06715309
217	0xbeb4b1bf	-0.3529186
218	0xbe1d54bf	-0.1536436
219	0xbea0b360	-0.31386852
220	0xbdbfcba2	-0.09365012
221	0xbf38dd01	-0.72212225
222	0x3c11ee28	0.0089068785
223	0x3e77ebbc	0.2421102
224	0xbcccea07	-0.025013937
225	0xbf060226	-0.5234703
226	0x3e863ff1	0.26220658
227	0x3d1f5b59	0.038905475
228	0x3c88042d	0.016603554
229	0x3d41cf76	0.04731699
230	0xbed8ab2a	-0.42318088
231	0xbe84183a	-0.25799733
232	0xbecfa00e	-0.405518
233	0xbe88d01b	-0.26721272
234	0x3e0e19c7	0.13877021
235	0xbd190e55	-0.037367184
236	0x3db4c096	0.08825795
237	0xbf006419	-0.50152737
238	0xbf66586c	-0.8997867
239	0xbe2a9715	-0.16659196
240	0xbe8acf8f	-0.2711148
241	0xbe5d5902	-0.21615985
242	0x3d8d5015	0.0690004
243	0xbe9bd795	-0.30437914
244	0x3df91be5	0.121635236
245	0xbe923db5	-0.28562704
246	0xbe6e1d00	-0.2325325
247	0xbea48347	-0.32131407
248	0x3d2f5799	0.04280815
249	0xbb40a27d	-0.0029393726
250	0xbed5e0f2	-0.41773182
251	0xbe6a8069	-0.22900547
252	0xbedbc8b1	-0.42926553
253	0xbecc353f	-0.39884374
254	0xbed4e08b	-0.41577563
255	0xbe9c2279	-0.3049505

fc2.bias f4 [128]
0	0x3d578ce4	0.0526246
1	0xbdf1a947	-0.11799865
2	0xbcfffb3e	-0.031247731
3	0x3e0dad82	0.13835719
4	0xbc96ba44	-0.018399365
5	0xbd6195d9	-0.055074546
6	0x3cc93747	0.024562491
7	0xbdb98604	-0.090587646
8	0xbd25580d	-0.040367175
9	0xbdc062fa	-0.09393878
10	0x3c7b629a	0.015343333
11	0xbe43d014	-0.19122344
12	0x3f4dfbc9	0.8046232
13	0x3f0db395	0.55352145
14	0xbb34130d	-0.0027477175
15	0x3cba0b4a	0.022710461
16	0xbc092edd	-0.0083729895
17	0x3d77e626	0.06052222
18	0xbd05d742	-0.03267599
19	0xbd61fce9	-0.055172835
20	0x3f46840a	0.77545226
21	0xbd54c4e7	-0.051945593
22	0x3e57be7a	0.21068755
23	0xbdae9a4f	-0.08525526
24	0xbd445ab3	-0.04793806
25	0x3db17d21	0.086664446
26	0xbd195987	-0.037438896
27	0xbb7eb3a2	-0.0038864394
28	0x3d86fbd6	0.06591003
29	0x3d48c917	0.0490199
30	0xbb7d3f77	-0.0038642564
31	0x3d40f83e	0.047111742
32	0x3e3464e0	0.17616606
33	0xbca7b529	-0.020472126
34	0xbca341e1	-0.019928874
35	0x3e6681f9	0.22510518
36	0x3e36042c	0.17775029
37	0x3a6c5049	0.0009014649
38	0xbd23d4bf	-0.039997812
39	0xbdba53b6	-0.09097998
40	0xbc29affd	-0.0103569
41	0xbb8e5e51	-0.0043447395
42	0xbdb45d12	-0.08806814
43	0xbdc02a56	-0.09383075
44	0x3ddfbcd9	0.10924692
45	0x3e627162	0.22113565
46	0xbd9f15ab	-0.07767805
47	0xbd3d7b11	-0.046259943
48	0x3d9aeb26	0.07564382
49	0x3e865b0e	0.26241344
50	0x3f40fa61	0.7538205
51	0x3d5d65d8	0.054052204
52	0xbc1e34f3	-0.009656179
53	0xbbf7f70e	-0.007567293
54	0x3eacad6f	0.3372607
55	0xbd122d4d	-0.035687733
56	0xbb0a5a78	-0.0021111052
57	0x3e0af49c	0.13569874
58	0xbc8d0d8a	-0.01721837
59	0x3dfec36e	0.12439619
60	0x3d9e5224	0.07730511
61	0xbe83042d	-0.25589123
62	0xbe13c8fa	-0.14432135
63	0x3e26fee6	0.16308174
64	0x3be351f7	0.006937261
65	0x3e113e12	0.14183834
66	0xbe7508ff	-0.23929213
67	0xbd37c0a1	-0.04486144
68	0xbd6d1964	-0.057885543
69	0xbd3edffe	-0.046600334
70	0xbd9248e2	-0.071428075
71	0xbdaebb72	-0.08531846
72	0x3dcb50db	0.09927531
73	0x3de316bc	0.110883206
74	0x3c4899cd	0.0122437
75	0xbd70c8b5	-0.05878516
76	0x3ce68540	0.02813971
77	0x3dd62616	0.10456483
78	0x3ea1d676	0.31608933
79	0xbcf26e24	-0.029593535
80	0xbba59f54	-0.005054394
81	0x3e8dbfde	0.27685446
82	0x3b6fc3ae	0.003658514
83	0x3e42597a	0.18979445
84	0xbd342700	-0.043982506
85	0x3d9397e5	0.07206706
86	0x3d8df21c	0.06930944
87	0xbd9c8b78	-0.07643789
88	0xbdcf86cc	-0.10133132
89	0xbe21c7f3	-0.15798931
90	0xbd154424	-0.036441937
91	0xbd920165	-0.07129172
92	0xbd78375e	-0.060599677
93	0xbd6fb481	-0.05852175
94	0x3e421fc5	0.18957432
95	0xbd30db9f	-0.043178197
96	0xbe26b724	-0.162808
97	0xbd60401c	-0.05474864
98	0xbd8c65a3	-0.06855323
99	0xbd5c7a5e	-0.053827636
100	0xbccffcf6	-0.025389176
101	0x3e28e971	0.16495301
102	0x3990134b	0.00027480195
103	0xbe33d9a3	-0.1756349
104	0xbe26db94	-0.162947
105	0xbd50e5fc	-0.05100058
106	0x3ea58e05	0.32334915
107	0xbd43d108	-0.04780677
108	0xbcba2ccf	-0.022726445
109	0x3ebd7f55	0.3701121
110	0xbd9cb48e	-0.076516256
111	0x3d5b8cd0	0.053601086
112	0x3de7d34c	0.113195986
113	0xbdf57828	-0.119858086
114	0xbdced5b5	-0.10099355
115	0x3de972b6	0.113988325
116	0x3ca31e54	0.019911923
117	0xbca6e5e4	-0.020373292
118	0xbe015b63	-0.12632518
119	0x3f69757d	0.911949
120	0xbd849b70	-0.0647496
121	0x3bf5a06b	0.00749593
122	0x3df6d795	0.12052838
123	0x3e14586a	0.14486852
124	0xbd734e5b	-0.059400897
125	0xbe2ba135	-0.16760714
126	0xbd2b2e2e	-0.041792087
127	0xbc9af06b	-0.018913468

fc3.weight f4 [4, 128]
0	0x3e3faeb0	0.18718982
1	0xbea6eb48	-0.3260138
2	0x3e5a96b8	0.21346557
3	0x3d9c0ca1	0.07619596
4	0xbec98124	-0.3935634
5	0xbb292d0e	-0.0025814208
6	0x3e504f9c	0.20342869
7	0x3d867571	0.06565369
8	0x3dd54ca0	0.10415006
9	0x3da76b1f	0.081747286
10	0x3d50e579	0.051000092
11	0xbeacef5c	-0.33776367
12	0x3e452eb2	0.19256094
13	0x3d8bb7dc	0.06822178
14	0xbe757262	-0.23969415
15	0x3dda6bc7	0.10665088
16	0x3de75a65	0.11296538
17	0x3e25d0e2	0.16192964
18	0x3e1651a1	0.14679576
19	0x3dbe7f17	0.09301584
20	0x3e29779c	0.16549534
21	0xbd4a76d3	-0.049429726
22	0x3d9a08c7	0.075212054
23	0x3dfab1ec	0.12240967
24	0x3d5f2aaa	0.054484047
25	0x3d7316c4	0.059347883
26	0x3d03844e	0.032108597
27	0xbe0a0dc8	-0.1348182
28	0x3e94a5bc	0.29032695
29	0xbcef0691	-0.029177936
30	0xbf241d4f	-0.6410722
31	0xbeac3870	-0.33636808
32	0xbdcb6784	-0.099318534
33	0x3e5a27c8	0.21304238
34	0x3e082020	0.13293505
35	0x3db16eb1	0.08663691
36	0x3e20c007	0.15698253
37	0xbc55d506	-0.013051277
38	0xbe68a794	-0.22720176
39	0xbe938039	-0.28808764
40	0xbd7176d7	-0.058951225
41	0x3e74d7e5	0.23910482
42	0xbe6098a1	-0.21933223
43	0x3d898714	0.06715217
44	0x3e3e76fa	0.18600073
45	0x3ca840a9	0.020538645
46	0x3df43c4b	0.119255625
47	0xbf6c19b9	-0.9222675
48	0x3d5734f0	0.05254072
49	0x3e0b20e0	0.1358676
50	0x3e1e4fff	0.15460204
51	0x3eafca7f	0.3433418
52	0xbf0d5382	-0.5520555
53	0x3c264ca8	0.010150112
54	0x3d8dc921	0.06923128
55	0xbedf6024	-0.43628037
56	0xbecb15cd	-0.3966507
57	0x3d8a96de	0.06767057
58	0x3da6d536	0.081461355
59	0x3d1c3e23	0.038145196
60	0x3d57b043	0.05265833
61	0xbf1b4304	-0.6064913
62	0x3e686c15	0.2269748
63	0x3df696b4	0.12040463
64	0xbe98e861	-0.2986479
65	0x3e0ebda0	0.13939524
66	0xbef17320	-0.47158146
67	0xbe5c1068	-0.21490633
68	0xbe8656c1	-0.26238063
69	0xbed6f704	-0.41985333
70	0x3d15ab45	0.03654029
71	0x3dd55e11	0.10418332
72	0x3de4810f	0.111574285
73	0x3d9ab821	0.07554651
74	0x3d104bf1	0.035228673
75	0xbc4f7e05	-0.012664323
76	0x3ddc455c	0.10755417
77	0xbd25d958	-0.04049048
78	0x3dade4a0	0.084908724
79	0x3e3bc284	0.1833592
80	0x3e9f59e7	0.31123278
81	0x3d3bfcfa	0.045895554
82	0x3e5eb407	0.21748362
83	0x3d841d82	0.06450941
84	0x3ea0ce34	0.3140732
85	0x3dbbdce1	0.09172989
86	0x3e80b064	0.25134575
87	0xbd2fb9ff	-0.04290199
88	0xbd3d711d	-0.04625045
89	0xbe8d5dad	-0.2761053
90	0x3c7b8cd3	0.015353399
91	0xbea92b54	-0.3304087
92	0xbbc56660	-0.006024167
93	0x3e235749	0.15951265
94	0x3d4cd583	0.05000831
95	0xbcbb6969	-0.022877412
96	0xbd8d61f0	-0.06903446
97	0x3e17ca81	0.14823343
98	0xbec9f1e8	-0.39442372
99	0x3e156f65	0.14593275
100	0x3da494a8	0.080361664
101	0x3df92b1d	0.12166426
102	0x3d4ff05f	0.050766345
103	0xbf1f6157	-0.62257904
104	0xbeb8cae7	-0.36092302
105	0x3d4be2e6	0.049776934
106	0xbc1d89c4	-0.009615365
107	0x3e02d263	0.12775569
108	0xbb952a28	-0.0045521446
109	0x3d119455	0.03554185
110	0x3a65116b	0.0008738252
111	0xbe81ca41	-0.2534962
112	0x3dd0a7c2	0.10188247
113	0x3de41838	0.11137432
114	0x3dcb167e	0.099163994
115	0x3e05b06f	0.13055585
116	0x3d26fd24	0.040768757
117	0xbd9467a1	-0.07246328
118	0xbeaf5f83	-0.34252557
119	0x3e323409	0.17402662
120	0x3e352e32	0.17693403
121	0x3e4f125c	0.20221847
122	0x3e1e0b0e	0.15433905
123	0x3e4a137f	0.19734
124	0xbe909bd2	-0.2824388
125	0x3dbfcb9a	0.09365006
126	0xba7926ec	-0.0009504396
127	0x3e878a66	0.26472777
128	0x3e6d6c16	0.23185763
129	0xbe9a7f6b	-0.30175337
130	0x3e10e6a8	0.14150488
131	0xbc936fc6	-0.017997634
132	0xbe2d4a3f	-0.16922854
133	0xbcf11032	-0.029426668
134	0xbcaba1e7	-0.020951224
135	0xbdf2d9dc	-0.1185796
136	0x3e3f6f31	0.1869476
137	0x3dff4b41	0.124655254
138	0xbe46c406	-0.19410715
139	0x3cf73a36	0.030179124
140	0x3df7f9f1	0.121082194
141	0x3d815b05	0.06316189
142	0x3e5177db	0.20455877
143	0x3d289448	0.041157037
144	0x3dc84630	0.09779012
145	0x3e55c4b5	0.20875819
146	0xbcbce85b	-0.023060014
147	0xbd334e0b	-0.0437756
148	0x3e158e62	0.14605096
149	0xbd4e776d	-0.050406862
150	0x3e1d0b7f	0.15336417
151	0x3e7a571f	0.24447297
152	0x3e5a2eae	0.2130687
153	0x3d996520	0.07489991
154	0x3e9817e4	0.29705727
155	0x3d476331	0.04867858
156	0x3e5af69b	0.21383135
157	0x3d9a6b8d	0.07540045
158	0x3e04db2b	0.12974231
159	0xbe4d78cb	-0.2006561
160	0xbbba07db	-0.005677206
161	0x3d8ff00e	0.07028209
162	0x3e857502	0.26065832
163	0x3de0ff7e	0.10986231
164	0x3e2dcf26	0.16973552
165	0x3cd11599	0.025522994
166	0xbc04e7ec	-0.008111935
167	0xbe6d1291	-0.23151614
168	0x3ded4d89	0.11587054
169	0xbd71d43d	-0.059040297
170	0xbea3c95a	-0.31989557
171	0x3d747897	0.059685316
172	0x3e090135	0.13379367
173	0xbc82741f	-0.015924511
174	0x3d6d2e26	0.05790534
175	0x3e0800fb	0.13281624
176	0x3db2e944	0.08735898
177	0x3d997589	0.07493121
178	0x3e415883	0.18881421
179	0x3e7aca06	0.24491128
180	0xbe837758	-0.2567699
181	0x3ec4d29c	0.38441932
182	0x3da935ee	0.082622394
183	0x3e265d01	0.16246416
184	0xbe068047	-0.13134871
185	0xbcfd9bed	-0.03095814
186	0x3dc0d0d5	0.094148315
187	0x3d2b2889	0.041786704
188	0x3d20f79a	0.03929863
189	0xbc1b49ec	-0.009478074
190	0xbe6e47b0	-0.23269534
191	0x3d31de85	0.0434251
192	0xbe372a05	-0.17887123
193	0x3e04293f	0.12906359
194	0xbdd2b9e5	-0.10289363
195	0xbde4c5b2	-0.1117052
196	0x3e383ddf	0.17992352
197	0xbc4d1bcb	-0.012518833
198	0x3d8302e7	0.06397038
199	0x3b160089	0.0022888503
200	0x3e109d58	0.14122522
201	0x3dc4479c	0.09583971
202	0xbd944d00	-0.07241249
203	0xbc80a6f2	-0.015704606
204	0x3e4eb716	0.20187029
205	0x3dca6c74	0.09883967
206	0x3de41a01	0.11137772
207	0xbc3e9dd6	-0.011634311
208	0xba200228	-0.0006103837
209	0x3c95b5ba	0.01827513
210	0x3e22aa28	0.15885222
211	0xbc03bd84	-0.0080407895
212	0x3e798f25	0.24371012
213	0x3dc0c07e	0.09411715
214	0x3e3c34ed	0.18379565
215	0x3e6e7173	0.23285465
216	0x3e42f436	0.19038472
217	0xbe009c56	-0.12559637
218	0xbe9829d7	-0.2971942
219	0xbdfbe558	-0.12299603
220	0xbd3777fc	-0.04479216
221	0x3d3cc832	0.04608936
222	0x3d57e396	0.052707277
223	0xba90f49b	-0.0011059226
224	0x3e52cfde	0.20587108
225	0x3e37454d	0.1789753
226	0xbdb2f673	-0.08738413
227	0x3e234be9	0.15946926
228	0xbb3a9771	-0.0028471614
229	0x3dd899d1	0.10576213
230	0xbc36b652	-0.011151867
231	0x3cb61ba9	0.022229986
232	0xbdee4589	-0.116343565
233	0x3e8db7e3	0.27679357
234	0x3cbd5048	0.02310957
235	0x3ed1cbfa	0.40975934
236	0xbd4913d3	-0.04909117
237	0x3d686054	0.05673249
238	0x3d0f151a	0.034932233
239	0xbe00df28	-0.12585127
240	0x3e032ec8	0.12810814
241	0xbdfd740e	-0.12375651
242	0x3e020130	0.12695765
243	0x3d1efeea	0.038817324
244	0xbc932b29	-0.017964916
245	0xbdef0209	-0.1167031
246	0xbf1eaef7	-0.61985725
247	0x3e78ac96	0.24284586
248	0xbd5ad31d	-0.05342399
249	0x3e9d16f9	0.3068159
250	0x3e50420b	0.20337693
251	0x3e421e92	0.18956974
252	0xbe55501f	-0.20831345
253	0x3e0a23c0	0.134902
254	0xbb8e3449	-0.004339729
255	0x3db08109	0.086183615

fc3.bias f4 [4]
0	0x3f332711	0.69981486
1	0x3ef9053d	0.4863681
2	0x3f298db2	0.66231835
3	0x3f1ccb56	0.61247766
