project3-collab_compete/checkpoint/best/actor_target.pth (torch_old, 14677 bytes, 4 tensors)

fc1.weight f4 [128, 24]
0	0x3da9c437	0.08289378
1	0x3cce491a	0.025181342
2	0xbd003efd	-0.03131007
3	0xbeafb6a8	-0.34319043
4	0xbd70c924	-0.058785573
5	0xbd470b6c	-0.048594877
6	0x3dfead04	0.12435344
7	0xbe4b523e	-0.19855592
8	0x3da99b3a	0.0828156
9	0xbd35b69c	-0.044363603
10	0x3d39c7ab	0.045356434
11	0xbef37399	-0.47549132
12	0x3eaf724e	0.34266895
13	0x3e6c3ff1	0.23071267
14	0x3dd89165	0.10574607
15	0xbe82614e	-0.25464863
16	0xbdcf4f0c	-0.10122499
17	0x3c586849	0.013208457
18	0x3dadbd63	0.08483388
19	0x3edc995b	0.4308575
20	0x3f279205	0.65457183
21	0xbec6e4d5	-0.3884646
22	0xbe0d824b	-0.13819234
23	0x3e7e776e	0.24850246
24	0xbea31fd3	-0.31860217
25	0xbd51d1d4	-0.0512255
26	0xbe3c1a17	-0.18369327
27	0xbee0a3ca	-0.4387496
28	0xbebe637b	-0.37185273
29	0x3f09ab96	0.53777444
30	0x3dc4e831	0.096145995
31	0xbdef047f	-0.116707794
32	0xbd25401e	-0.04034435
33	0x3e4855cb	0.19563977
34	0x3e045047	0.12921248
35	0xbe6d3e11	-0.23168208
36	0x3d96fdb2	0.07372607
37	0x3e1971af	0.14984773
38	0x3e5c936a	0.21540609
39	0xbd664541	-0.05621839
40	0x3e3a3eba	0.18187991
41	0x3e879b7e	0.2648582
42	0x3ce9b47f	0.02852845
43	0xbeab8368	-0.33498693
44	0x3d79169f	0.06081259
45	0xbea362f5	-0.31911436
46	0x3dd3284b	0.1031042
47	0xbe303593	-0.17207937
48	0xbe6ab6b1	-0.22921254
49	0xbc9b3866	-0.018947791
50	0xbe2ce1ec	-0.16883057
51	0x3eb1bef2	0.34715992
52	0xbe7060f7	-0.23474489
53	0xbe748172	-0.23877504
54	0xbd83e30a	-0.06439789
55	0x3e8837be	0.26605028
56	0xbdcca7dc	-0.09992954
57	0xbd12068c	-0.035650775
58	0x3e4c21ce	0.1993477
59	0x3f066d24	0.52510285
60	0xbe868fdd	-0.26281634
61	0xbe80a5d9	-0.25126532
62	0x3d891de8	0.06695157
63	0x3ece502b	0.40295538
64	0xbe17c47b	-0.14821045
65	0x3dd3754e	0.103251085
66	0x3e187921	0.14889957
67	0x3e670e46	0.22564039
68	0xbe324c40	-0.174119
69	0x3f471e8a	0.77780974
70	0x3e817cb8	0.25290465
71	0x3e640672	0.22268084
72	0xbe91ce67	-0.28477785
73	0x3df0fd57	0.11767071
74	0xbe57a0ea	-0.21057478
75	0xbeee02f9	-0.46486643
76	0x3e5491f3	0.207588
77	0x3e6b451b	0.2297558
78	0xbe096a7a	-0.13419524
79	0xbf079872	-0.5296699
80	0xbe6649fb	-0.22489159
81	0xbde378f9	-0.11107058
82	0x3e28549d	0.16438527
83	0x3d5fb865	0.05461921
84	0x3effb609	0.4994357
85	0x3eeb5668	0.4596436
86	0x3bfc2f3e	0.0076960614
87	0x3e78adad	0.24285002
88	0xbe701059	-0.23443736
89	0xbd3e89c0	-0.046518087
90	0xbc06c49a	-0.008225584
91	0xbd092573	-0.03348298
92	0x3e8a7ccf	0.27048346
93	0x3e27e376	0.16395363
94	0x3d020ff6	0.031753503
95	0xbe2b4aad	-0.16727705
96	0x3e088ab5	0.13334163
97	0x3ea133de	0.31484884
98	0xbe0ab402	-0.1354523
99	0xbe36d02b	-0.17852847
100	0x3d10abcd	0.035320092
101	0xbe360cda	-0.1777834
102	0x3e12526c	0.14289254
103	0xbbe8a638	-0.007099893
104	0x3d462ff0	0.04838556
105	0x3ea905c0	0.330122
106	0x3ddcd75c	0.10783264
107	0xbd8c09d0	-0.06837809
108	0x3d6ab540	0.05730176
109	0xbeaa449f	-0.3325548
110	0x3dfacc95	0.12246052
111	0xbd91addf	-0.071132414
112	0x3f0cc38c	0.5498588
113	0x3dafe2a0	0.08588147
114	0x3dca0968	0.09865075
115	0xbe978dae	-0.2960028
116	0x3e500c08	0.2031709
117	0xbf691aa0	-0.9105625
118	0xbdb8663f	-0.09003877
119	0xbda1c61a	-0.07899113
120	0x3dc52258	0.09625691
121	0x3dad12db	0.08450862
122	0xbcc84006	-0.024444591
123	0x3eabca70	0.33552885
124	0x3e983f2c	0.29735696
125	0xbea25df0	-0.31712294
126	0xbd1bef97	-0.038070288
127	0x3eea9c06	0.4582216
128	0xbe679894	-0.22616798
129	0x3c48e957	0.012262664
130	0xbe765c8c	-0.24058741
131	0x3d9c5f1d	0.07635329
132	0x3d97057b	0.07374092
133	0xbf0d2414	-0.55133176
134	0xbead8343	-0.33889207
135	0xbd7747bb	-0.060371142
136	0x3c53d494	0.012929101
137	0x3e43c3ae	0.19117615
138	0xbe643da4	-0.22289139
139	0xbe84a13e	-0.25904268
140	0x3da21fbf	0.07916211
141	0xbd8a20e4	-0.06744555
142	0x3dfdb9cb	0.12388953
143	0xbe87ac05	-0.26498428
144	0x3d951cf8	0.07280916
145	0x3e898f19	0.26866987
146	0x3e8054fc	0.25064838
147	0xbd754206	-0.059877418
148	0x3ee7ab8c	0.45248067
149	0xbe43f709	-0.19137205
150	0xbdf68773	-0.12037554
151	0x3cc67bfe	0.024229046
152	0xbdfa6bda	-0.12227602
153	0x3ea2f7d9	0.31829718
154	0x3c176a05	0.009241586
155	0x3e518af2	0.2046316
156	0x3f04e755	0.51915485
157	0xbe9eeae8	-0.31038594
158	0x3e5771f4	0.21039563
159	0x3ecadc70	0.39621305
160	0xbd800289	-0.062504835
161	0x3d43e407	0.047824886
162	0xbde54d1e	-0.111963496
163	0x3c8e51c9	0.017372983
164	0x3e417511	0.18892314
165	0x3dbd2e29	0.0923732
166	0xbe7887fc	-0.24270624
167	0x3d066908	0.03281501
168	0xbe0ca278	-0.13733852
169	0x3e1b3a13	0.15158872
170	0x3cecb9e4	0.028897233
171	0x3ee891c0	0.45423698
172	0xbd331149	-0.043717656
173	0xbf44f3d0	-0.7693453
174	0x3e61af52	0.22039536
175	0x3e0cb232	0.13739851
176	0x3ddc2236	0.10748713
177	0xbdd23048	-0.10263115
178	0x3e204da9	0.15654625
179	0x3de8d9b6	0.1136965
180	0x3c822a4c	0.01588931
181	0xbe133112	-0.14374188
182	0x3e6e4324	0.232678
183	0x3e86012b	0.26172766
184	0x3d7b3808	0.061332732
185	0x3d04b120	0.032395482
186	0xbc3b4fc1	-0.011432589
187	0x3e3ca9f4	0.18424207
188	0x3ec899a0	0.39179707
189	0x3f2ed798	0.6829772
190	0x3d53f15e	0.051743858
191	0x3d9c7f7f	0.076415055
192	0xbd3a7c11	-0.045528475
193	0xbd4b872a	-0.04968945
194	0x3e1bbd78	0.15208995
195	0xbe96ecf4	-0.29477656
196	0x3e6f0fa3	0.23345809
197	0xbe10e6e5	-0.1415058
198	0xbe262f78	-0.16229045
199	0xbe814a60	-0.25252056
200	0xbd1e40c4	-0.038635984
201	0x3e152ed9	0.14568652
202	0x3da6ce5a	0.08144827
203	0x3dd58d97	0.10427397
204	0x3e663cd6	0.22484145
205	0xbef15417	-0.47134468
206	0x3e562fe4	0.20916706
207	0xbe1bcf02	-0.15215686
208	0x3d07498c	0.033029124
209	0x3df36fb1	0.11886538
210	0x3e37ad44	0.1793719
211	0x3ce7d2b3	0.028298711
212	0x3cfc4aa1	0.030797305
213	0xba8131b9	-0.0009856737
214	0xbc331fa2	-0.010932835
215	0x3e465419	0.19368018
216	0x3e253623	0.16133933
217	0x3e055a30	0.13022685
218	0xbd9cb247	-0.07651191
219	0x3ed7b7c8	0.421324
220	0xbe32644d	-0.17421074
221	0xbe98f5ec	-0.29875124
222	0xbdaccf3b	-0.084379636
223	0x3ed8a3db	0.42312512
224	0x3d670c65	0.056408305
225	0xbd1947d9	-0.037422035
226	0x3e13f3c0	0.14448452
227	0xbcd01b92	-0.025403772
228	0xbe7ad18f	-0.24494003
229	0x3f076d2c	0.5290096
230	0x3d07c34e	0.03314524
231	0xbe8a772a	-0.2704404
232	0x3d5969a9	0.05307928
233	0x3df3d8e8	0.11906606
234	0xbb33ab34	-0.0027415277
235	0x3f50cb11	0.81559855
236	0xbe746f0e	-0.23870489
237	0x3f463f98	0.77440786
238	0xbde3c1ca	-0.11120947
239	0x3f4b215d	0.79347783
240	0xbdfe4761	-0.12415958
241	0x3e9280ce	0.28613895
242	0x3e6e85b2	0.23293188
243	0xbe0c1897	-0.13681255
244	0xbe0c3389	-0.13691534
245	0x3f07e35f	0.53081316
246	0x3e65ea0d	0.22452565
247	0xbec7a890	-0.3899579
248	0xbdb61ae6	-0.08891849
249	0x3e5553a7	0.20832692
250	0xbe1c6a48	-0.15274918
251	0xbd59bf66	-0.053161047
252	0x3dc871eb	0.09787353
253	0x3f1321be	0.5747336
254	0xbe2d5c89	-0.1692983
255	0x3de1526b	0.11002048

fc1.bias f4 [128]
0	0x3d8a1b4a	0.06743486
1	0xbe54e773	-0.20791416
2	0xbd94ff72	-0.07275285
3	0xbe858562	-0.26078326
4	0xbea00798	-0.31255794
5	0x3add7a4d	0.001689741
6	0xbaa3840d	-0.0012475267
7	0xbea02b35	-0.31282964
8	0x3bf03c4b	0.007331406
9	0x3e07c686	0.13259324
10	0xbebb7b7f	-0.36617658
11	0x3dea76b1	0.1144842
12	0xbeb66143	-0.3562108
13	0xbdafed14	-0.08590141
14	0xbd739266	-0.05946579
15	0xbceea37c	-0.02913069
16	0xbd33990b	-0.043847125
17	0x3da24f84	0.07925323
18	0xbe15666a	-0.14589849
19	0xbe531ddb	-0.20616858
20	0xbe9668f7	-0.29376957
21	0x3d0fd8e8	0.035118967
22	0xbdfeb266	-0.124363706
23	0xbdad606a	-0.08465655
24	0xbe0a14bd	-0.13484474
25	0x3ebd1555	0.36930338
26	0xbd076460	-0.03305471
27	0xbe9274d9	-0.28604773
28	0x3e3764ca	0.17909542
29	0x3d4f2938	0.05057642
30	0xbeac8857	-0.3369777
31	0xbe42e592	-0.19032887
32	0xbefbf442	-0.4920979
33	0x3ba90fd7	0.005159359
34	0x3c7ad0a9	0.0153085375
35	0xbd1770d0	-0.03697282
36	0x3eac0767	0.33599398
37	0x3ecc0bc8	0.39852738
38	0x3d914e2e	0.0709499
39	0xbd8fafb4	-0.070159346
40	0x3cc97545	0.024592051
41	0xbe903809	-0.2816775
42	0xbe86f7dc	-0.26360977
43	0x3ead1983	0.33808526
44	0xbd913bfc	-0.07091519
45	0xbd8d8b35	-0.06911317
46	0x3daaedf9	0.08346171
47	0xbe0191c2	-0.12653258
48	0x3c9b0b99	0.018926429
49	0xbc4be329	-0.012444296
50	0x3d5a5a1a	0.053308584
51	0x3e3ab63d	0.18233581
52	0xbcf62759	-0.03004806
53	0xbd2b2b54	-0.041789368
54	0x3ee7f494	0.45303786
55	0x3d645ecd	0.05575447
56	0x3d6dcca7	0.0580565
57	0xbdcf86dd	-0.10133145
58	0x3e64282e	0.22280952
59	0x3e8f2702	0.27959448
60	0x3e88a7d0	0.2669053
61	0xbaae57c3	-0.0013301302
62	0x3cf6c168	0.03012152
63	0x3c29ce9d	0.010364202
64	0x3e10b2a7	0.1413065
65	0x3e521a88	0.20517933
66	0x3dbbaf85	0.09164337
67	0xbd9e4dec	-0.07729706
68	0xbc0f45a2	-0.008744629
69	0x3e495628	0.19661772
70	0x3d8d5d90	0.06902611
71	0x3e435407	0.19075023
72	0xbdb9dac9	-0.09074933
73	0x3e4fd2c5	0.20295246
74	0x3c5b8536	0.013398459
75	0xbd0585ac	-0.032598183
76	0x3d3cbeb6	0.046080314
77	0xbd240636	-0.040044986
78	0xbd732ecd	-0.059370805
79	0x3e4ed6f7	0.2019919
80	0xbe6c177f	-0.23055838
81	0xbdce6629	-0.10078079
82	0x3df60c26	0.12014036
83	0xbe2e6722	-0.1703153
84	0xbdfdeabc	-0.12398288
85	0xbd9e1a66	-0.07719879
86	0xbd396ef0	-0.045271814
87	0xbe7f0af9	-0.2490653
88	0xbdb2cec0	-0.08730841
89	0x3e1f75c6	0.15572271
90	0x3dd0dac4	0.10197976
91	0xbe0e8223	-0.1391683
92	0x3e99dacd	0.30049744
93	0x3db04d83	0.08608534
94	0x3e63b24a	0.2223598
95	0xbcc4abe7	-0.02400775
96	0xbd140b57	-0.036143627
97	0x3e8d12cd	0.27553406
98	0x3d1d5771	0.03841347
99	0x3e3bae2d	0.18328162
100	0xbeece76f	-0.4627032
101	0x3dd2e821	0.10298181
102	0x3e8d2f9f	0.27575395
103	0xbe4d7d7b	-0.20067398
104	0xbbfddbfe	-0.0077471724
105	0xbe108895	-0.14114602
106	0xbd56c758	-0.052436203
107	0x3eaf3ade	0.342246
108	0xbe8e1b25	-0.27755085
109	0x3e0fa4b5	0.14027674
110	0x3e253cac	0.16136426
111	0x3dfe1498	0.12406272
112	0x3e8e607f	0.27807996
113	0xbe8aa16f	-0.2707629
114	0xbde47888	-0.11155802
115	0x3c1feac8	0.009760566
116	0xbe87f8ba	-0.2655695
117	0x3da77702	0.08176996
118	0xbd3852a8	-0.045000702
119	0x3de6e9ba	0.112750486
120	0x3e3c6ba9	0.18400444
121	0xbdfaf424	-0.122535974
122	0x3e49b37c	0.19697374
123	0x3d94a36b	0.07257732
124	0x3bcdd5e0	0.0062815994
125	0x3e8b5fb5	0.27221456
126	0xbdf8916c	-0.12137112
127	0xbe40b71b	-0.18819849

fc2.weight f4 [2, 128]
0	0xbe91a147	-0.28443357
1	0xbe354ffa	-0.1770629
2	0x3e1216ae	0.14266464
3	0xbe72bec9	-0.23705591
4	0xbe62af57	-0.221372
5	0x3e66758c	0.22505778
6	0x3e6ce6db	0.2313494
7	0x3e1b9d81	0.15196802
8	0x3d34384a	0.043998994
9	0x3ef93a72	0.48677403
10	0x3e9b12b1	0.30287698
11	0xbf27bc45	-0.6552165
12	0xbf224fe3	-0.6340315
13	0xbe6b0a3b	-0.22953121
14	0xbe47ae04	-0.19499975
15	0x3eb1d338	0.3473146
16	0x3e59a20d	0.21253224
17	0x3e48da50	0.1961453
18	0xbe892149	-0.26783207
19	0x3e846613	0.25859126
20	0x3e34cfa2	0.1765733
21	0x3e4f407a	0.2023944
22	0xbfaf3310	-1.3687458
23	0xbe80f43e	-0.25186342
24	0x3eb0ef5a	0.3455761
25	0xbea52819	-0.32257155
26	0xbe3a0ee5	-0.18169744
27	0x3e62dfd9	0.22155704
28	0xbe9f6840	-0.31134224
29	0xbec1cf06	-0.3785326
30	0xbf140461	-0.5781918
31	0xbe0a0a75	-0.13480552
32	0x3f2c2ad8	0.67252874
33	0x3e415dfd	0.1888351
34	0x3f01b80a	0.50671446
35	0xbeb7bc91	-0.35886052
36	0xbdd3a8ab	-0.10334905
37	0xbe095359	-0.13410701
38	0xbead4143	-0.33838853
39	0x3ed096f2	0.40740162
40	0x3d89b8c0	0.067246914
41	0xbe711157	-0.23541771
42	0x3dba3746	0.09092574
43	0xbe0da1e4	-0.13831288
44	0x3ea012cc	0.3126434
45	0xbe9a624d	-0.30153123
46	0x3de8c649	0.11365945
47	0x3f461792	0.77379715
48	0x3e9bb2c8	0.30409837
49	0xbe706885	-0.23477371
50	0x3e013b4d	0.12620278
51	0x3e041477	0.12898432
52	0x3ef0a7bd	0.47002974
53	0x3df0502e	0.11734043
54	0xbefc22d5	-0.49245325
55	0x3e941ae2	0.2892676
56	0x3e221304	0.15827566
57	0xbe4b8526	-0.19875011
58	0x3e9e3a62	0.30903918
59	0xbf9f5fdd	-1.245113
60	0xbeff5d66	-0.49875945
61	0xbeb312db	-0.34975323
62	0x3eb2ee3d	0.34947386
63	0x3e49aae0	0.1969409
64	0x3ee819a8	0.45332074
65	0xbe5a38de	-0.21310756
66	0x3e1dcea2	0.15410855
67	0xbf17a8a8	-0.59241724
68	0xbe00edbc	-0.12590688
69	0xbeb15b61	-0.3464003
70	0xbe4fd989	-0.20297827
71	0xbe9a3261	-0.3011656
72	0x3e82e94a	0.2556861
73	0x3e9102d3	0.28322467
74	0xbf0581dc	-0.52151275
75	0x3e821044	0.25403035
76	0x3e229ce4	0.15880162
77	0xbdfc2ade	-0.12312864
78	0x3f1bec96	0.60907876
79	0x3e5f346d	0.21797343
80	0xbf4f3e83	-0.8095476
81	0x3e9330fc	0.2874831
82	0xbeb62e16	-0.35582036
83	0x3eab977a	0.33514005
84	0xbe414fb2	-0.18878058
85	0xbe38da7e	-0.18052098
86	0x3ea109a0	0.31452656
87	0xbdc487a5	-0.09596185
88	0xbe95863c	-0.29203975
89	0x3f0c1617	0.54721206
90	0xbf3cdcae	-0.7377423
91	0x3e469ea0	0.19396448
92	0x3e426518	0.18983877
93	0xbed1a78e	-0.40948147
94	0x3e4923a2	0.19642499
95	0x3e844933	0.25837097
96	0x3ef62798	0.48077083
97	0xbe158144	-0.14600092
98	0xbf462158	-0.7739463
99	0x3e1c3594	0.15254813
100	0x3daaba1c	0.08336279
101	0x3eec0d51	0.4610391
102	0x3e9163bf	0.28396413
103	0x3e3bfc66	0.18358001
104	0x3e7ed056	0.24884161
105	0xbf65b92e	-0.89735687
106	0x3d499e72	0.04922337
107	0xbea4a159	-0.32154348
108	0xbeeb81f3	-0.4599758
109	0xbcec99f1	-0.028881999
110	0x3e8e5ebb	0.2780665
111	0xbe9ce8d4	-0.30646384
112	0x3e1cfc10	0.15330529
113	0x3e503f83	0.20336728
114	0xbe98380b	-0.29730257
115	0xbf16e2f1	-0.58940035
116	0x3e17c201	0.148201
117	0xbe6e4655	-0.23269017
118	0x3f1b5d45	0.60689193
119	0xbe7cc570	-0.24684691
120	0x3e5e2597	0.21694027
121	0xbe859d07	-0.26096365
122	0x3ebe608f	0.37183043
123	0xbe864cc2	-0.26230437
124	0xbef1f942	-0.4726048
125	0xbe1bd0b4	-0.15216333
126	0x3f1cd2c1	0.61259085
127	0x3e798af1	0.24369408
128	0xbcea42f4	-0.028596379
129	0xbdbc9aaa	-0.09209187
130	0xbe14a42d	-0.14515753
131	0xbda2466d	-0.07923589
132	0xbe2f9da8	-0.17149985
133	0x3d2797c0	0.040916204
134	0xbd8b9d3f	-0.06817102
135	0xbe667c28	-0.225083
136	0x3ccd65e3	0.025072997
137	0xbe2509b3	-0.16116981
138	0xbe08575b	-0.13314573
139	0x3e9a06f1	0.3008342
140	0xbd12f03f	-0.035873648
141	0x3d64b9c5	0.055841226
142	0xbe54db0d	-0.20786686
143	0xbc0d6d29	-0.008631983
144	0xbdb1b03a	-0.08676191
145	0xbe041760	-0.12899542
146	0xbd54b957	-0.051934566
147	0xbe0a2383	-0.13490109
148	0xbdb49c54	-0.0881888
149	0xbd8285a0	-0.06373143
150	0x3dc0ea92	0.09419741
151	0xbdf732ad	-0.120702125
152	0x3d5b6d4b	0.053571027
153	0xbead91b2	-0.3390022
154	0xbe304981	-0.1721554
155	0xbd17f247	-0.037096288
156	0xbd4e0543	-0.050297987
157	0x3ce2bd2d	0.027678097
158	0x3d9cf70c	0.07664308
159	0xbcb2361d	-0.021754319
160	0xbe630e6d	-0.22173472
161	0x3c46a497	0.012124202
162	0xbdc461af	-0.09588944
163	0xbe744d45	-0.23857601
164	0xbe636488	-0.22206318
165	0xbe84b309	-0.25917843
166	0xbddf7094	-0.109101444
167	0xbe9f7810	-0.31146288
168	0x3d93d398	0.07218093
169	0x3c99ddaf	0.018782465
170	0xbe9601a7	-0.29298136
171	0xbe516698	-0.20449293
172	0xbd068f7f	-0.032851692
173	0xbd8b61c5	-0.068057574
174	0x3c98ff42	0.018676404
175	0xbda8402c	-0.08215365
176	0xbd81d2fe	-0.06339072
177	0xbcc506f8	-0.024051175
178	0xbe2b77be	-0.16744897
179	0xbde4423c	-0.11145446
180	0xbe934180	-0.2876091
181	0xbe82f153	-0.2557474
182	0xbdacbbc5	-0.08434252
183	0x3c2eb8c1	0.010664166
184	0xbdec4cd4	-0.11538091
185	0x3a818fce	0.0009884776
186	0xbe44554c	-0.19173163
187	0xbd0de2e2	-0.0346402
188	0x3dbdc203	0.092655204
189	0xbe62526e	-0.22101757
190	0xbd5e4120	-0.054261327
191	0xbd438767	-0.04773655
192	0x3dab3d55	0.083613075
193	0x3df466aa	0.11933644
194	0xbe3badf2	-0.18328074
195	0x3db38c4d	0.087669946
196	0xbde492b4	-0.11160794
197	0xbe239468	-0.15974581
198	0xbd936700	-0.0719738
199	0x3d089ce2	0.03335274
200	0xbe347883	-0.17624097
201	0xbdb69381	-0.08914853
202	0xbe297005	-0.16546638
203	0xbea50445	-0.3222982
204	0xbdc78e2e	-0.097439155
205	0x3d4f614e	0.050629906
206	0xbddc7687	-0.10764795
207	0xbdea128a	-0.11429317
208	0x3e1f562c	0.15560216
209	0xbe502888	-0.20327961
210	0xbe061792	-0.13094929
211	0xbe47f09f	-0.19525383
212	0x3e09af7f	0.13445853
213	0x3d6841ad	0.05670326
214	0x3c3d25b9	0.011544638
215	0x3ce742fc	0.028230183
216	0xbdb2cf75	-0.087309755
217	0x3d9ebad7	0.077504806
218	0xbdc8103f	-0.09768724
219	0x3d546c09	0.051860843
220	0xbde1ac4a	-0.1101919
221	0x3d01fc02	0.031734474
222	0xbce127b4	-0.027484752
223	0xbe3b0afe	-0.18265912
224	0xbe692631	-0.22768475
225	0xbe45358b	-0.19258706
226	0x3d41a356	0.04727491
227	0xbdbf7d85	-0.09350113
228	0xbce8c8d4	-0.028416075
229	0xbe18d410	-0.14924645
230	0xbe36190a	-0.17782989
231	0xbdd64ccb	-0.10463866
232	0xbd0dc2db	-0.034609657
233	0xbcd03184	-0.025414236
234	0xbe092e87	-0.13396655
235	0xbe62eb55	-0.22160085
236	0xbd905ed3	-0.07049336
237	0xbe85d4d1	-0.2613893
238	0x3c355343	0.011067214
239	0xbd6afbc6	-0.057369016
240	0xbe0ed242	-0.13947394
241	0x3e4f4f41	0.20245077
242	0xbdd397f3	-0.103317164
243	0x3d53d077	0.05171248
244	0xbe102e64	-0.14080197
245	0xbe58d988	-0.21176732
246	0x3e52fb50	0.2060368
247	0x3d27f0d0	0.04100114
248	0xbdbbb23e	-0.091648564
249	0xbe1183cb	-0.14210431
250	0x3b990f0b	0.0046709827
251	0xbe0bd0cf	-0.13653873
252	0x3d4c096d	0.049813677
253	0xbc1abd1c	-0.009444501
254	0xbd4a8cfb	-0.049450856
255	0x3cb1eb75	0.02171872

fc2.bias f4 [2]
0	0xbdc65eaa	-0.096860245
1	0xbe140625	-0.14455469
