project3-collab_compete/checkpoint/best/critic_target.pth (torch_old, 81593 bytes, 5 tensors)

state_layers.0.weight f4 [128, 24]
000000 d9 03 a9 3e 58 96 96 3e d8 df 86 bd 54 06 64 3e
       0.33010748 0.29411578 -0.065856636 0.22268039
000010 3d 4f 7c 3e d0 6a 51 c0 a9 ec b7 3d cb 10 bc 3e
       0.24639602 -3.2721443 0.08980686 0.36731562
000020 32 e7 31 3e 4a bb 42 3e 65 d4 8a bd 1b ad 51 3f
       0.1737335 0.19016758 -0.06778792 0.81904763
000030 31 ef 47 be 9a 1c b4 bf e5 73 f2 bb a5 1b 85 3f
       -0.19524838 -1.4071229 -0.0073990696 1.0399061
000040 b8 be ee 3d 68 31 93 3e f2 c6 d9 3d 3e 4d fe 3c
       0.116574705 0.2874863 0.10633649 0.031042691
000050 94 bd fd bb 6a c1 86 c0 9e fa ee bd 81 f0 1a be
       -0.0077435467 -4.21111 -0.11668895 -0.15130807
000060 e2 84 ce be cd 79 92 bd ae bd 2b bd ba f7 89 bf
       -0.40335757 -0.07152138 -0.04192894 -1.0778725
000070 41 3b 5c be ce 76 b3 3f 0c 9e 73 3e f8 7c 41 bf
       -0.21506979 1.4020631 0.23790759 -0.7558131
000080 05 14 0a 3e cc 52 46 3e b7 11 d4 3e 70 0c 7d bf
       0.134842 0.19367522 0.41419765 -0.98847103
000090 48 e9 08 3f ba 5d 02 bf b5 19 00 3f 14 21 50 bf
       0.5348096 -0.50924265 0.50039226 -0.81300473
0000a0 8b 55 b5 3e 63 84 8d 3e 57 d3 f3 bc 2a aa f5 be
       0.35416827 0.27640066 -0.02976386 -0.47981387
0000b0 48 fb 4f 3e c4 9d b0 bf d4 8c 37 3d 47 3f a2 be
       0.203107 -1.3798146 0.04481204 -0.31688902
0000c0 6d b1 25 be 13 3f af 3e 99 24 70 3d 5c b1 51 3f
       -0.16180964 0.3422781 0.058628652 0.81911254
0000d0 8a 2f 7d bf b9 03 d2 3e ce f8 26 3e 7c ed 3c 3f
       -0.98900664 0.41018465 0.16305849 0.7379987
0000e0 25 53 34 3e 5c 85 ab 3e b7 ef 27 3e 1a 6b 01 3f
       0.17609842 0.33500183 0.16400038 0.5055405
0000f0 a0 a0 90 bf 84 f8 fa bf d4 75 01 3d 39 4c c4 3e
       -1.1299019 -1.9607091 0.03160651 0.38339403
000100 d2 a6 36 3f 71 bc 0c 3f b7 7b 20 3e 2c 90 20 3f
       0.713483 0.5497504 0.15672193 0.6271999
000110 79 af 91 bf c6 e5 ef bb cd 7e 85 3e 29 ce 1f 3f
       -1.1381675 -0.0073210923 0.26073304 0.6242395
000120 6e 5a 83 be f8 15 13 3e 6c 17 6e bc 96 41 ad 3e
       -0.2565493 0.14363849 -0.014531951 0.338391
000130 75 31 81 bf e5 84 ae 3e ec 50 7d 3d a2 13 8c 3e
       -1.0093218 0.34085765 0.06184475 0.2735873
000140 1b fa a8 be 64 e9 e8 bd b6 65 d7 3d a2 85 91 3f
       -0.33003315 -0.11372641 0.10517447 1.1368906
000150 b2 24 40 3d a6 1e 82 3e 4c fc 52 bd a5 9d a9 3f
       0.046909995 0.25414008 -0.05151014 1.3251234
000160 3d 07 25 bf 11 91 94 be 82 5f fd be 21 a4 a1 be
       -0.6446417 -0.29016927 -0.4948693 -0.31570533
000170 2e 1b a5 3f 9f 0c fc bf 57 e7 e8 be b6 24 e6 be
       1.289892 -1.9691352 -0.45488998 -0.44949883
000180 3b 62 22 be 91 c6 96 be 19 43 e6 3d 2d 81 2a 3f
       -0.15857784 -0.2944837 0.112432666 0.66603357
000190 a5 7c 97 3d cc 2a 07 bf 1f 13 c8 3e c3 63 56 3f
       0.07396821 -0.5279968 0.39077088 0.83745974
0001a0 4a 6f c6 be 74 41 3d be 2c 5e 4d 3e f4 1b b6 3f
       -0.38756782 -0.18482 0.20055455 1.4227281
0001b0 76 0a 66 bd 3c 97 05 bf 2e 58 5c 3e ab c1 b5 3f
       -0.05616232 -0.5218389 0.21518013 1.4199728
0001c0 4f 04 09 be 2e 91 5d be 98 7a a9 3d 0a f3 c4 3f
       -0.1338055 -0.21637413 0.08275336 1.538667
0001d0 cc c0 0d 3f 89 aa dc bf 28 f2 d8 bd 43 ba e0 3f
       0.5537231 -1.7239543 -0.10593063 1.7556843
0001e0 3a 44 98 be 31 56 5e 3f 41 7c 10 be 99 d9 26 3f
       -0.29739553 0.8685027 -0.14109899 0.6517578
0001f0 b3 78 df 3e 96 42 a2 bf f6 70 1e be 89 42 46 3f
       0.43646774 -1.267657 -0.15472779 0.77445275
000200 8c f4 16 bf 39 bb 69 3f ab 61 2b be 5f 1c f9 bc
       -0.589669 0.91301304 -0.16736476 -0.030409036
000210 d0 c5 c4 3d 3b 68 11 bf 64 04 88 be b2 25 2b be
       0.09608042 -0.5679967 -0.2656585 -0.16713598
000220 ef 11 34 be 52 81 91 3f d0 10 ba bd 91 ce 1f bf
       -0.17584966 1.136759 -0.09085238 -0.6242457
000230 98 fe 42 bf c0 ff ea 3f d0 08 83 3e cd 53 21 bf
       -0.7616973 1.8359299 0.2559266 -0.63018495
000240 08 b2 c8 3d ba ab 76 3e 0c d3 48 3e 48 7e a7 bd
       0.09799582 0.24088946 0.19611758 -0.08178383
000250 78 9a 2a 3f 73 8e c9 be ce 19 33 be ce 51 18 3b
       0.6664195 -0.39366493 -0.17490312 0.0023242119
000260 06 eb 83 bc 40 7f c5 3d 01 36 a4 bd 19 61 aa be
       -0.016103279 0.09643412 -0.08018113 -0.33277205
000270 15 63 0e 3f 2e b8 fd 3e 9d c4 f7 3d 5f 90 10 be
       0.5561994 0.4955458 0.12098048 -0.14117573
000280 32 84 78 be 98 90 4b be a2 f1 62 3d 6b 51 37 bf
       -0.24269179 -0.19879377 0.05540622 -0.7160861
000290 e7 4f 26 bf 2a 57 af 3f 77 48 9a bd 42 5d 33 bf
       -0.6496567 1.3698475 -0.07533353 -0.70064175
0002a0 29 a6 b1 be e1 87 23 3e 90 0b db bc 27 8b a2 3e
       -0.34697083 0.15969802 -0.026738912 0.3174679
0002b0 13 a7 7d bf 79 90 3a bf b2 b7 28 3e 0d 57 24 3a
       -0.9908306 -0.728767 0.16476324 0.0006269075
0002c0 7f 1b cb 3d 29 12 1c be 0c a7 f1 3c 27 04 a4 3f
       0.09917354 -0.15241303 0.0294986 1.2813767
0002d0 34 b4 67 be 6d 72 32 bf 26 56 d8 3d 9c f6 b6 3f
       -0.22627336 -0.6970585 0.105633065 1.4294009
0002e0 3e 33 4f bd a4 76 af be d1 14 6d 3e 3e 4a 48 3f
       -0.050585978 -0.34270203 0.23152472 0.78238285
0002f0 ef 38 42 3f 9f 09 04 40 f1 e2 96 3e 7a b0 2c 3f
       0.75868124 2.0630872 0.29470018 0.6745678
000300 db 84 2c bf c7 88 dd be 7b b1 3a 3e f0 5e 76 bc
       -0.6739022 -0.43268415 0.18231766 -0.015037283
000310 40 78 b4 be d7 df 49 3f f4 3b 07 be 5c 02 df 3c
       -0.35247993 0.7885718 -0.13206464 0.027222805
000320 92 8a 38 bf d2 b9 1a be b1 79 6e bc 8d 6f 31 3f
       -0.7208644 -0.15109947 -0.014555381 0.6931084
000330 a7 c9 e0 be d5 64 3a be fb c0 e7 3d f7 93 df 3e
       -0.4390385 -0.18202527 0.11316105 0.43667576
000340 90 ff 3d bf 00 e0 34 be 3e 58 ee 3d cf aa ec 3e
       -0.7421808 -0.17663574 0.116379246 0.46224067
000350 f6 ec a2 bf 2c 1b a6 bf 84 65 97 bd 1e ac 20 3f
       -1.2728565 -1.2977042 -0.073924094 0.6276263
000360 8f b9 b3 bc 67 02 ef bd 9c ba e3 bd 05 54 86 bf
       -0.021939067 -0.1167038 -0.11119577 -1.0494391
000370 66 c1 20 be ca 83 ab be 23 d8 f3 bd f8 18 86 bf
       -0.15698776 -0.33498985 -0.11906459 -1.047637
000380 6a 7d 83 bd 6b 54 99 be fa cb 42 3c 85 7d 0f bf
       -0.06420405 -0.29947218 0.011889452 -0.560509
000390 fc b8 8c 3f bd ae 2a 3f 18 ae cb bd cd 37 4e bf
       1.0993953 0.6667288 -0.09945315 -0.80553895
0003a0 13 8c 2c 3e 80 b7 eb bd c2 bb 00 3e 5f fe 90 3f
       0.16850309 -0.11509609 0.12571624 1.1327628
0003b0 6d 12 c1 3f 83 82 c9 3f b9 49 8d 3c 48 29 8e 3f
       1.5083748 1.5742954 0.017247068 1.1106348
0003c0 c9 92 d2 bf a5 e4 64 bf 2c f7 ad 3d 0c 18 1c 3f
       -1.6451045 -0.89411384 0.0849441 0.6097419
0003d0 f4 5b 1c bf ff 35 d0 3f 86 c0 9c 3d 39 98 b6 3e
       -0.6107781 1.6266478 0.076539084 0.35663012
0003e0 e5 ad b0 bf c0 48 27 bf de 0e 56 bf e8 2b d2 3e
       -1.3803068 -0.6534538 -0.83616436 0.41049123
0003f0 20 49 08 be 97 26 79 3f 4b 4b 5a bf 82 dc 12 3f
       -0.13309145 0.9732451 -0.8527114 0.5736772

state_layers.0.bias f4 [128]
000000 d1 13 9b be 4a 2c fe bd 9e d2 99 be 24 46 74 3e
       -0.30288556 -0.12410791 -0.300435 0.23854882
000010 5e 5b 8b be e5 37 74 bf 7b fa a6 3e 86 7d a8 3e
       -0.27218145 -0.9539779 0.32612976 0.32908267
000020 96 fe 15 3f 55 21 cb 3e f7 d3 ec be bd 20 43 3f
       0.5859159 0.39673868 -0.46255466 0.7622183
000030 02 8c 7a 3e e9 04 c2 be e7 0d 58 be f8 f7 81 3f
       0.24467471 -0.3789437 -0.21099053 1.0153799
000040 40 e4 cf be 6b f7 b4 be c3 d1 45 bf d7 c9 78 3f
       -0.40603828 -0.35345015 -0.77273196 0.97182983
000050 c6 7f c9 3f b0 66 9c 3d 53 05 af 3c 95 5f bd 3e
       1.5742118 0.076367736 0.021364843 0.36986986
000060 6b 5e 8f 3f e2 04 76 bd 99 77 03 3f 50 bf 13 3f
       1.1200689 -0.06006325 0.51354367 0.57713795
000070 7c a8 00 40 92 88 cb 3e 46 f1 bb 3d 76 08 95 bf
       2.0102835 0.39752632 0.09176879 -1.1643207
000080 f4 c2 56 3f fd e6 af be 11 c4 39 3f 05 9e 34 3f
       0.83891225 -0.34355918 0.725648 0.7055362
000090 08 99 94 3f 98 43 8b 3f 49 ff 52 3c f8 8e 76 3f
       1.1609201 1.0880003 0.012878248 0.96311903
0000a0 da c8 8f be 78 87 61 be 46 6a f7 3e 2e 39 6c 3f
       -0.28082925 -0.22024333 0.48323268 0.9227475
0000b0 cf 15 a7 bf 7d 4c 4c 3e 18 0b d9 3e 24 74 4d be
       -1.305353 0.19951053 0.42391276 -0.20063835
0000c0 c5 fe a7 3e ac 73 73 3e 92 98 bf 3e 63 a2 08 bf
       0.3281156 0.23774594 0.3742109 -0.5337278
0000d0 23 49 34 bf 58 11 46 3e 81 4c d2 3e f8 2e 8b 3f
       -0.704241 0.19342554 0.41073993 1.0873709
0000e0 52 90 2c bf 75 75 c0 3d 9b 65 67 bf 32 67 7e 3f
       -0.67407715 0.09397403 -0.9038941 0.99376214
0000f0 cd 87 8a 3f 6f a9 87 3e 34 1c 49 3e ce 65 f8 be
       1.0822693 0.26496455 0.19639665 -0.4851517
000100 1b ab 10 bf a1 44 37 3f 09 44 3f 3f 35 63 34 3f
       -0.56511086 0.71589094 0.7471319 0.7046388
000110 bd ab 7c 3f c8 8a 74 bf 36 80 7a 3f 8f 49 be 3e
       0.9869955 -0.95524263 0.97851884 0.37165496
000120 89 69 e5 be f4 08 8e 3f 91 18 7b bf d2 54 1f be
       -0.4480708 1.1096482 -0.9808436 -0.155597
000130 1f 9c a9 be cf 3e 9d 3e 3f 69 c1 3e 31 45 d8 3e
       -0.33126923 0.30711982 0.3777561 0.4224029
000140 b0 f9 af be 5b 6d 32 3f cc 4c 96 3f a8 70 c6 bd
       -0.34370184 0.69698113 1.1742187 -0.09689456
000150 e2 57 8f 3e d7 23 29 be 6b df 40 be 5e 1c 9c 3e
       0.27996737 -0.16517578 -0.18835227 0.30490392
000160 7d 8f f0 3c d3 63 c3 be 15 47 6e be ba 64 06 3f
       0.029365296 -0.38162097 -0.23269303 0.52497447
000170 b3 80 32 be 2b 58 03 3e 21 5c 19 bc b2 d5 89 bf
       -0.17431907 0.12826602 -0.009360344 -1.076834
000180 ce a2 05 bf b2 9f 7b 3f 92 0d 13 bd 85 32 58 be
       -0.52201545 0.9829055 -0.035901614 -0.21113022
000190 68 b9 3b 3e ea 1f 36 3f 8d 99 68 be fd e5 03 bf
       0.18332446 0.71142447 -0.22714825 -0.5152281
0001a0 45 c5 96 bf 30 7e a7 3c 09 6c 39 3f 48 9b c7 3e
       -1.1778952 0.020445913 0.72430474 0.38985658
0001b0 cf df 28 3f d1 c6 6a 3f 23 28 8f 3f 4b be 8c 3f
       0.65966505 0.9170962 1.1184124 1.0995573
0001c0 fe d4 64 3f 71 28 94 be d7 f1 73 3e 6b 1f 15 bf
       0.893875 -0.28937104 0.23822723 -0.58251065
0001d0 e1 76 59 3e 4f c3 7e 3f 86 7f c2 3e 28 ae 01 3e
       0.21236755 0.9951677 0.37987918 0.12664092
0001e0 d6 be 49 3e ef 86 31 3e 0d 1b 97 bf 2e 90 12 3f
       0.19701704 0.1733663 -1.180513 0.5725125
0001f0 37 f0 36 3f c2 4c 8f 3f d1 66 72 3e fe a4 b4 bd
       0.7146029 1.11953 0.23672034 -0.08820532

action_layers.0.weight f4 [128, 130]
000000 55 7a 30 c0 d1 c9 ef 3e eb 5e 00 3e 67 49 54 3e
       -2.7574666 0.4683366 0.12536208 0.20731126
000010 46 ec ce 3d be 31 49 bc 18 71 3e 3f 04 3e 09 3f
       0.10103659 -0.012279926 0.7439132 0.53610253
000020 2b 59 8d 3d 4a b4 44 3f 20 46 21 3e 8c 27 1a 3f
       0.06901773 0.768376 0.15749407 0.60216594
000030 59 64 c7 3d f3 74 f1 3b d7 00 64 bf b1 a9 7a 3f
       0.09735937 0.0073686778 -0.8906378 0.9791518
000040 e3 2c 9d 3d c3 e0 81 3c d8 6f 92 3e e6 0c cb 3e
       0.07674577 0.015854245 0.28600955 0.39658278
000050 64 90 27 3f d3 fb 9b bf 15 07 34 3e eb a9 86 3e
       0.654547 -1.2186226 0.17580827 0.26301512
000060 5d c1 a8 3f ad b3 f8 bf 41 dc ba 3e 63 ef 35 3f
       1.318401 -1.9429833 0.36496165 0.710684
000070 01 0c 27 3f 8e d5 18 3f c6 0b c6 3e 5a 25 b5 bf
       0.6525269 0.5970086 0.38680857 -1.4152024
000080 7e 66 85 3f 06 ce a5 bc 45 dc 5d 3f bc c6 90 3e
       1.0421903 -0.020239841 0.8666423 0.28276622
000090 64 0f 5b 3e 5b 03 70 3d d9 cd 28 bf 02 12 04 40
       0.2139259 0.05859695 -0.659391 2.063599
0000a0 37 06 03 3e 82 0b 92 3e 5e 6e 1f 3e c8 c5 66 3e
       0.1279534 0.28524405 0.15569445 0.22536385
0000b0 3c 93 26 bc 7b 58 e0 3e d5 43 c8 3e ff e5 28 bf
       -0.010166939 0.43817505 0.39114252 -0.65975946
0000c0 2e 32 16 3f 7e 75 75 3f 85 b1 1a 3f f5 8e a4 3e
       0.5867032 0.95882404 0.60427123 0.32140318
0000d0 26 d1 84 3e 6e 29 1e 3f ae ac d4 3e a3 e1 8d 3e
       0.25940818 0.61781967 0.41537994 0.2771121
0000e0 19 58 57 c0 00 fb 61 3e a9 bf a3 bd 14 9b 01 3f
       -3.364752 0.22068405 -0.07995541 0.50627255
0000f0 2c a8 95 3e 37 19 eb 3f 80 ce 1f 3e 46 ef 40 bf
       0.29229867 1.836707 0.15606117 -0.753651
000100 34 70 54 bf 05 75 06 3f ba 73 8a 3e 9c cd 05 3e
       -0.8298371 0.5252231 0.27041417 0.13066715
000110 49 4f d6 3e 7f 33 ff 39 a5 2b 40 3f cd 43 08 3f
       0.41857365 0.00048675758 0.75066596 0.53228456
000120 a3 c2 85 bc a9 91 09 3f 4f 97 88 c0 29 f8 d7 3d
       -0.016328162 0.53737885 -4.2684703 0.1054538
000130 42 a5 96 3d f0 e4 14 3f 2a fe d5 3f ad 41 a5 3d
       0.07355739 0.5816183 1.671819 0.08069167
000140 6d 2a 2d bf 8d a4 d6 3e 1f ec d1 be 40 db 04 3f
       -0.6764286 0.41922417 -0.4100046 0.5189705
000150 60 56 0d be bf e9 1b be 8a 8c c0 be 3d a5 e2 3d
       -0.1380248 -0.15225886 -0.37607223 0.11066673
000160 3d 6d 6f 3e 31 62 51 be 12 ad 35 be 07 02 7a 3e
       0.23381515 -0.20447613 -0.17741802 0.24414836
000170 dd 32 2a 3e da 09 a6 3e 72 87 69 be d0 bb eb bf
       0.16620965 0.3242939 -0.22805575 -1.8416691
000180 d1 3c b8 3d 77 c4 e6 3e 6f 52 16 be 51 87 41 3e
       0.08995975 0.45071766 -0.14679883 0.18899275
000190 d3 57 9d 3e 59 e4 fa 3e ed d9 53 3e c8 d1 2e 3e
       0.30731067 0.4900234 0.20688601 0.17072213
0001a0 a8 ee 0f 3e 4f 04 ac bf 0d 0b 9a 3e 2a 96 c6 3e
       0.14055884 -1.3438815 0.30086556 0.3878644
0001b0 d3 8c 55 3e 98 b0 80 3d 48 ec ff 3e 62 a6 71 3f
       0.20854501 0.062836826 0.49984956 0.94394505
0001c0 6c c6 16 3e a1 61 e2 bd 87 32 cd 3e b6 fd 1f be
       0.1472413 -0.110537775 0.40077612 -0.15624127
0001d0 6f 51 e6 3e 06 be c2 3e b5 fc 36 3e b7 79 00 bd
       0.44984004 0.380356 0.17869838 -0.031366076
0001e0 97 ca a5 bc 77 19 93 3e bd 7e 8f be e1 39 48 3f
       -0.020238204 0.28730366 -0.2802638 0.78213316
0001f0 15 03 cf 3e 47 df 40 3e 76 d8 5c 3f 5c 9b f9 3e
       0.4043204 0.18835174 0.86267793 0.48751342
000200 48 4d d5 3e 2b 74 8a bf 3c 06 04 c0 e6 d5 3a be
       0.41660523 -1.0816702 -2.0628805 -0.18245658
000210 79 05 16 bf 80 15 c6 3c 37 1e a2 bd 12 cd cf 3d
       -0.586021 0.024180174 -0.07915919 0.10146536
000220 a7 33 08 3f 3f a3 a4 3e bd 34 18 be 8b d4 0e 3f
       0.53203815 0.32155797 -0.14863868 0.55793065
000230 f3 08 0a bd 28 95 fa 3e ae 59 5f be 8f 1a 42 be
       -0.03369994 0.48941922 -0.21811554 -0.18955444
000240 f2 33 a1 c0 47 89 9c 3d 12 00 a3 3d ab 61 6f bd
       -5.037591 0.07643371 0.07958998 -0.058442753
000250 a7 e5 74 c0 56 6b fe 3e db 0c c1 bf 32 34 b1 c0
       -3.8265169 0.49691266 -1.5082048 -5.5376215
000260 a0 5a 91 3e fd 0c 76 3d 87 f2 3a 3f cb 91 98 3f
       0.28389454 0.06007098 0.7302632 1.1919492
000270 c9 70 6b 3e fe 48 07 3f 7b ee f3 3d 90 30 03 3f
       0.22992243 0.5284575 0.11910721 0.51245975
000280 7c c6 06 3f bb 51 2b bf 0c cb 95 3f 0b e4 97 be
       0.52646613 -0.66921586 1.170259 -0.2966617
000290 dc 42 15 3f e5 92 b7 3e 58 15 e5 3e a6 3c 6e 3d
       0.58305144 0.3585426 0.44742846 0.058163308
0002a0 3c 7f b8 bf 54 ed 9c 3e ef f6 b0 be fb c1 2f 3d
       -1.4413829 0.30649817 -0.34563395 0.042909604
0002b0 4a 89 90 bd a2 2d 01 3e de a0 3a c0 28 21 dd bd
       -0.07057436 0.12615064 -2.9160686 -0.1079734
0002c0 c0 37 96 3b 8a b6 7e bf 42 2e b0 3d d7 77 a4 3f
       0.0045842826 -0.9949728 0.08602573 1.2849072
0002d0 3f 21 ea bc 05 d6 e1 be 14 63 2e bf 63 81 56 3e
       -0.028580306 -0.44108596 -0.6811993 0.20947795
0002e0 0d 82 74 3e 5d 24 12 bd 0a 9a 78 c0 42 03 b4 3e
       0.23877735 -0.03567921 -3.8844018 0.35158736
0002f0 87 04 b3 be f6 bf e8 be 40 e6 89 3e fc d9 ee 3f
       -0.34964392 -0.45458955 0.2693348 1.8660274
000300 f0 6e 34 3e 3e d1 1f c0 88 d8 fa 3d b9 74 f7 3e
       0.17620444 -2.4971461 0.12248331 0.4833124
000310 10 1a 96 3e 56 90 09 3f c9 1d 94 3e 99 3f e3 3d
       0.2931676 0.53735864 0.28928974 0.11096115
000320 a6 8b 1c 3b 37 d2 b2 3e bf 67 8c 3d e0 45 10 3f
       0.0023886948 0.34926006 0.068557255 0.5635662
000330 3d 1e d7 c0 7e e5 02 bd e0 fd 9d be 6d 72 7b 3f
       -6.722441 -0.031957142 -0.30857754 0.98221475
000340 06 f8 d6 3f 89 3e 51 bd d5 46 7a be 16 16 92 3f
       1.6794441 -0.05108503 -0.24441083 1.141299
000350 7b 70 48 be 36 f5 c2 3e 8e 19 0f be 53 9c b6 3e
       -0.19574158 0.38077706 -0.13974592 0.3566614
000360 e7 16 fe 3e fc 12 ef be a0 f9 b8 bf cb b8 72 bd
       0.49626848 -0.4669417 -1.445118 -0.059258264
000370 c7 7d 3c bf d1 ba 0b 3e 37 a0 3a be b2 d8 65 bd
       -0.7362942 0.13645484 -0.1822518 -0.05611486
000380 2e 84 de bd f3 8b 9b be c5 27 41 3e d2 83 82 3d
       -0.10865055 -0.3038021 0.18862827 0.06372799
000390 7a b6 b2 bf 9b af 5c 3e ed 34 b5 be d0 2b c3 bd
       -1.3961937 0.21551363 -0.35391942 -0.09529841
0003a0 39 1b 14 3e 46 ac 99 3c 95 45 00 bf 06 ad 12 3f
       0.1446351 0.018758904 -0.50106174 0.5729526
0003b0 e1 43 f3 3e 50 c5 d0 3e 7c f5 5d 3e 6d dc 84 3f
       0.47512725 0.40775537 0.21675676 1.0379769
0003c0 85 d7 97 3e ed 78 84 be 5d 9b 68 be aa 4f f2 be
       0.29656616 -0.2587351 -0.22715516 -0.47326404
0003d0 70 5b 39 3e 6f b4 98 bd c8 0d 1c 3d 18 0f a2 3e
       0.18101287 -0.0745629 0.03809908 0.3165214
0003e0 8f 11 40 bf a7 2a 91 bf 8c a8 82 be e5 a1 13 3f
       -0.7502679 -1.1341141 -0.25519216 0.57668906
0003f0 52 ed d2 be 49 02 11 40 f4 30 e6 3e 19 83 b7 3e
       -0.41196686 2.2657645 0.44959223 0.35842207

action_layers.0.bias f4 [128]
000000 72 84 83 3f ae be 4e 3f cc db 52 3f a4 d0 0c bf
       1.0274794 0.80759704 0.82366633 -0.5500586
000010 22 bd 64 3f dc 76 97 bc 4d 9c 0b bf e9 8e 78 3f
       0.89351094 -0.018489294 -0.5453537 0.97093064
000020 60 45 fd be 62 b2 11 bf c2 6d bd be 75 5b 7d 3d
       -0.4946699 -0.56912816 -0.369978 0.0618548
000030 e6 f6 41 3f 3f 99 4a bf 13 62 86 3f ce 70 e3 3e
       0.7576736 -0.79140085 1.049868 0.44422
000040 59 8b 0c 3f d6 20 36 be 41 41 32 bf 8a 2e ce 3e
       0.5490013 -0.17785963 -0.6963082 0.4026988
000050 e2 6c 47 3f fe d7 32 3f 26 7e 66 3f 8c 94 4e 3f
       0.77900517 0.6986083 0.9003624 0.80695415
000060 8f fa 3d 3f 93 e2 6f bf 43 13 92 be bd 4e 65 3f
       0.7421045 -0.937051 -0.2853032 0.8957327
000070 ad f4 59 3f 0e ac b2 3e cc e9 20 3f d0 7e 71 3f
       0.8513897 0.34896892 0.62856746 0.94334126
000080 47 49 3f 3e b6 27 c9 be a3 a8 d9 3e 02 29 a4 bf
       0.18680297 -0.3928811 0.42511472 -1.2825015
000090 54 d3 cf 3c b3 12 0d 3f 51 62 5a 3f ff 93 2c 3f
       0.025369324 0.5510666 0.8530627 0.67413324
0000a0 8a 9a eb be 94 b2 97 bf a7 eb 9c be 2a f0 32 bf
       -0.4601634 -1.1851373 -0.30648538 -0.6989771
0000b0 fb d3 f3 be 97 20 5a 3f 8a c7 a5 be 8f a8 64 3f
       -0.47622666 0.8520598 -0.323788 0.893197
0000c0 9a 47 66 3f f5 3d 0c bf 1c 5b 17 bf 91 f3 56 3f
       0.89953005 -0.5478204 -0.59123397 0.839654
0000d0 64 7c f0 be e8 ee 5e 3f c1 57 11 bf 75 59 de be
       -0.46969903 0.8708329 -0.56774527 -0.43427625
0000e0 62 98 1e 3f 1e 84 36 3f 5a 6d 8d 3f fc 6e d0 bd
       0.6195127 0.71295345 1.1048996 -0.101774186
0000f0 be ca 1c 3f bc 7a 0b 3f 84 a9 72 3f 2f 2d 7f 3f
       0.6124686 0.5448415 0.9478991 0.9967832
000100 e1 e4 76 bf 41 cc 43 3f 36 34 2d bf 37 97 f4 be
       -0.9644299 0.7648354 -0.6765779 -0.47771618
000110 a5 ee 65 3f 31 d5 5f 3f 5f c1 5c 3f c9 12 95 bd
       0.8981727 0.8743468 0.8623256 -0.072789736
000120 31 d6 0e bf 42 79 df be da f5 ea 3e 20 2e 6d 3f
       -0.5579558 -0.436472 0.45890695 0.92648506
000130 0b 99 29 3f 4c d7 17 3f 7e a5 99 bf d2 b0 20 3f
       0.6624915 0.5931289 -1.2003629 0.62769806
000140 15 6f 3c bf de 29 5b 3f 9b 41 a6 3e 12 b8 84 3f
       -0.73607 0.8561076 0.32471928 1.0368674
000150 9b 2a 04 3f 7c b1 a1 3d 28 42 08 3f 68 09 12 3f
       0.5162751 0.078951806 0.53225946 0.570456
000160 c1 96 59 bd a8 23 45 3f 0f a6 0d 3f b7 fd 62 3f
       -0.053122286 0.7700753 0.5533151 0.8866839
000170 b8 14 3d 3f e3 e7 1a 3f d6 d3 66 3f c9 4b 93 3f
       0.7385974 0.6051008 0.90166986 1.1507503
000180 c9 58 b3 be 70 34 9a be 43 e6 29 bf 06 06 82 3f
       -0.35028675 -0.30118132 -0.66366976 1.0158088
000190 61 cc 13 bf 69 4c 66 be 83 e0 51 3f 75 8b 09 bf
       -0.5773373 -0.22490086 0.819832 -0.5372842
0001a0 7a 75 7a 3f 01 a4 01 3f 52 b0 4a bf e1 90 7c 3f
       0.97835505 0.50640875 -0.79175293 0.9865857
0001b0 91 ae 02 3e cc 71 11 3f 6a 7b 3d 3f 3d 46 3e 3f
       0.12761904 0.56814265 0.7401644 0.74325925
0001c0 97 73 66 3f c7 ba 74 bf a4 e8 14 3f 57 e7 e1 be
       0.90020126 -0.955975 0.5816748 -0.4412181
0001d0 b8 c7 fa be 9f fd 25 bf e7 a9 da 3e d6 7a 64 3f
       -0.48980498 -0.6484012 0.4270775 0.8924993
0001e0 20 52 ee be c3 17 de 3e 99 08 e2 3e 0c ef d5 be
       -0.4654703 0.43377504 0.44147184 -0.4178394
0001f0 94 1f 85 3f 5f cb 6c be 07 b7 97 bd db c8 7f 3f
       1.0400262 -0.23124455 -0.074079566 0.99915856

fc.weight f4 [1, 128]
000000 21 56 b3 3f a1 52 94 40 dc 78 05 40 64 1e c5 c0
       1.401066 4.6350865 2.0855017 -6.15996
000010 b0 10 f0 3f 1a 31 ca c0 99 19 e1 c0 8c e3 09 40
       1.8755093 -6.318494 -7.0343747 2.1545134
000020 13 b1 a1 c0 78 89 df c0 ed 3f d6 c0 0a e4 21 c1
       -5.0528655 -6.985531 -6.6953034 -10.118174
000030 5d 5c aa 40 30 d8 06 c1 03 d9 a0 3f 60 ba 14 c1
       5.323775 -8.42778 1.2566227 -9.295502
000040 fa 84 f4 40 35 f1 f1 c0 e6 f2 ba c0 5e aa 57 40
       7.6412325 -7.560694 -5.8421507 3.3697734
000050 94 0e 18 40 41 dc 89 40 a8 05 21 40 88 ee ed 3f
       2.3758898 4.3081365 2.5159702 1.8588419
000060 af 57 c0 40 6b b5 0b c1 cd df d7 c0 07 46 c9 3f
       6.0107036 -8.7317915 -6.7460694 1.5724496
000070 b3 e1 c2 40 41 3d bc 40 81 74 44 40 6e a6 a5 3f
       6.090051 5.8824773 3.0696108 1.2941415
000080 12 3d d9 c0 ee e6 c5 c0 2a 82 27 40 8b 0c 10 c1
       -6.788705 -6.1844397 2.6173196 -9.003062
000090 98 98 bd c0 d6 51 a2 40 32 d0 f4 40 4b 09 22 40
       -5.924877 5.0724897 7.6504145 2.5318172
0000a0 bc 22 b1 c0 57 b6 f6 c0 c6 a8 f6 c0 0a f4 02 c1
       -5.53549 -7.7097583 -7.708102 -8.18458
0000b0 65 6a fc c0 86 4a c7 3f d2 e9 b1 c0 00 dd d7 40
       -7.8879876 1.5569618 -5.5597925 6.7457275
0000c0 18 d9 af 3f 5c 3b ed c0 0f 48 1b c1 b1 69 99 40
       1.3738127 -7.413496 -9.705092 4.794152
0000d0 28 70 80 c0 ff d5 52 40 b2 b5 f7 c0 88 a6 98 c0
       -4.013691 3.2943113 -7.7409296 -4.7703285
0000e0 c7 26 d3 40 19 ad 15 40 50 ea 82 3f 5a d0 a1 c0
       6.5984836 2.33869 1.0227757 -5.0566835
0000f0 95 f4 1c 40 a4 22 f6 40 72 83 bc 3f ec 79 dd 3f
       2.452428 7.6917286 1.4727614 1.7302833
000100 71 ee be c0 7b d0 50 40 1d 89 18 c1 99 64 e1 c0
       -5.9666066 3.2627246 -9.533475 -7.04353
000110 12 9c d2 3f b2 cd 45 40 ad 0b a3 3f 54 f4 da c0
       1.6453879 3.0906796 1.2737938 -6.842325
000120 77 61 6d c0 70 d4 ff c0 16 20 f0 3f 6f 66 f0 3f
       -3.7090738 -7.9946823 1.8759792 1.878126
000130 c0 b9 b1 40 08 d9 b2 3f 0f b6 58 c1 4d 81 6f 40
       5.5539246 1.3972483 -13.544448 3.742267
000140 66 6b 27 c1 b9 7a 50 40 42 05 18 41 19 09 af 3f
       -10.46372 3.2574904 9.501284 1.3674651
000150 c1 67 a2 40 75 e6 dc c0 99 11 1b 41 0d 49 23 40
       5.0751653 -6.903132 9.691796 2.5513337
000160 96 af ca c0 88 05 6c 40 53 8c 72 40 12 ee b9 3f
       -6.333934 3.6878376 3.7898147 1.4525778
000170 09 04 3a 40 70 c3 bc 40 5d c7 93 3f 75 00 6b 3f
       2.9064963 5.898857 1.1545216 0.9179757
000180 7c a2 c5 c0 42 25 1c c1 f9 35 0c c1 75 83 cc 3f
       -6.1760845 -9.759096 -8.763177 1.5977618
000190 c8 5d fe c0 29 32 ba c0 19 b8 2f 40 39 b6 c2 c0
       -7.948948 -5.818623 2.7456114 -6.084744
0001a0 6d 97 42 40 a3 10 03 40 46 92 02 c1 3f 0e de 3f
       3.0404923 2.0478904 -8.160711 1.7348098
0001b0 a0 15 cc c0 b0 ae d3 3f dd 41 1e 40 ce 70 df 3f
       -6.37764 1.6537685 2.47277 1.74563
0001c0 5d 07 b9 3f 90 12 ed c0 c2 be af 40 8e 09 10 c1
       1.4455372 -7.408516 5.492036 -9.002333
0001d0 68 35 f3 c0 92 09 00 c1 f6 14 6f 40 5e ca c7 3f
       -7.6002693 -8.0023365 3.7356544 1.5608633
0001e0 e9 39 98 c0 40 d4 d4 40 01 8e c6 40 8f 75 a7 c0
       -4.757069 6.6509094 6.2048345 -5.2331004
0001f0 63 3d 1a 40 09 c6 08 c1 1f 3b 0c c1 8e 8b 92 3f
       2.4099967 -8.548348 -8.764434 1.1448839
