project3-collab_compete/checkpoint/best/critic_local.pth (torch_old, 81593 bytes, 5 tensors)

state_layers.0.weight f4 [128, 24]
00000000: 8f44 a93e c355 973e 0a4e 84bd 8733 643e
00000010: f8ba 7c3e fc5f 51c0 637e ba3d 5e27 bc3e
00000020: 170b 323e 9fd7 433e a51e 8cbd 602c 513f
00000030: 655e 47be 2708 b4bf 358c 03bc 46db 843f
00000040: 8f37 ef3d 22c5 933e c6a0 d93d 91d8 e33c
00000050: 94ad dcbb 16d4 86c0 a820 efbd 0e3f 1ebe
00000060: 55d3 cebe d31f 94bd 19aa 2bbd ac0d 8abf
00000070: adce 5bbe 06e5 b33f e1a2 733e dca8 41bf
00000080: 36a2 093e e59f 453e 63fe d33e 523a 7dbf
00000090: 56ff 083f fbc6 01bf 0710 003f f94e 50bf
000000a0: 571b b53e 6025 8d3e 9c78 f5bc b26b f4be
000000b0: 9683 503e af78 b0bf 16ba 363d ce00 a1be
000000c0: 87c0 25be c964 af3e 5b7e 703d e3bc 513f
000000d0: ef26 7dbf 2cf3 d23e 320f 273e 01f9 3c3f
000000e0: 4bac 343e ddaa ab3e 921b 283e 32dc 003f
000000f0: 40a8 90bf 4e20 fbbf 7325 023d 6e2e c33e
00000100: 89d2 363f 0bce 0c3f af57 203e 1830 203f
00000110: 87bd 91bf 59a0 1abc c36c 853e 0d6e 1f3f
00000120: c01f 83be 6701 133e 5132 6ebc b286 ad3e
00000130: 6b41 81bf 829f ae3e 204a 7d3d bc58 8c3e
00000140: 5fbd a8be c018 e9bd 90c5 d63d 21a5 913f
00000150: c9b6 3f3d f71c 823e 773c 54bd 26bd a93f
00000160: 19f5 24bf 53b6 94be f0e3 fdbe b7e9 a1be
00000170: 4f27 a53f 5731 fcbf c36b e9be 3f6a e6be
00000180: fc9d 22be afbc 96be 0cb9 e53d a4ad 2a3f
00000190: 5a12 983d 9b20 07bf 98f0 c73e 3f90 563f
000001a0: 6ea3 c6be 0042 3dbe a24b 4d3e 7873 b63f
000001b0: 09cc 63bd 1797 05bf a245 5c3e 2f19 b63f
000001c0: e860 09be fb5f 5dbe 3922 a93d 7ed5 c43f
000001d0: 65df 0d3f becb dcbf 6f4a d9bd b59c e03f
000001e0: 803f 98be 2b58 5e3f 7ebd 10be c514 273f
000001f0: 1eb9 df3e 4052 a2bf 37b2 1ebe ae7d 463f
00000200: 1ef2 16bf f4c1 693f 2b19 2bbe 0f5a efbc
00000210: c4e6 c43d 1d7a 11bf 20e0 87be 5ded 29be
00000220: d618 34be 7988 913f 5711 bbbd cb7d 1fbf
00000230: f402 43bf f41d eb3f a5c8 823e 0703 21bf
00000240: bc19 c93d 7292 763e e6f2 483e 05b1 a7bd
00000250: b6bd 2a3f 2db3 c9be dbf9 32be 73f9 113b
00000260: 2699 81bc 9460 c53d 7b14 a4bd f9dc aabe
00000270: 5e88 0e3f 28d2 fd3e 0be6 f73d 2b88 11be
00000280: 4f3c 78be 6eb8 4bbe 81c4 623d c339 37bf
00000290: 1744 26bf 1c6e af3f f95e 9abd 9b45 33bf
000002a0: 8a52 b1be f1fd 233e e1f2 dabc 009a a23e
000002b0: d1e0 7dbf c16e 3abf bfba 283e b111 423a
000002c0: 95cb cc3d d49b 1bbe 09e1 f23c dfdd a33f
000002d0: 5381 68be 544a 32bf 9aa4 d83d 55d0 b63f
000002e0: 8bcd 4bbd ba59 afbe 38fc 6c3e 9d50 483f
000002f0: 4a33 423f 3b1b 0440 9bd6 963e d1b6 2c3f
00000300: 4e8b 2cbf 26b9 ddbe c470 3a3e f385 7ebc
00000310: d67a b4be 0c24 4a3f 917c 07be beee da3c
00000320: 8688 38bf c30b 1bbe 3775 72bc b30f 313f
00000330: b5e3 e0be b0ce 39be 7d41 e73d 5cd4 de3e
00000340: e8fa 3dbf b647 35be e5be ee3d b918 ed3e
00000350: 6dfa a2bf a40d a6bf d0fe 96bd 0de3 203f
00000360: 8182 b1bc 7aec eebd 4804 e4bd 9579 86bf
00000370: 0968 21be b30a acbe d621 f4bd 883e 86bf
00000380: 7be4 82bd cc50 99be 57b5 463c 0ba5 0fbf
00000390: 25b4 8c3f 90ac 2a3f e330 cbbd 4d5f 4ebf
000003a0: f8ca 2c3e 0700 ecbd f5fa 003e d5fd 903f
000003b0: 631e c13f a1a1 c93f 8a43 8f3c bc28 8e3f
000003c0: 3195 d2bf b4f1 64bf 0949 af3d 584a 1c3f
000003d0: d42f 1cbf 2d3e d03f 6212 9e3d d8fc b63e
000003e0: 7eb1 b0bf cb56 27bf a7e8 55bf cd1f d33e
000003f0: e862 07be f522 793f 1525 5abf 7156 133f
0.3306012 0.29557618 -0.06460197 0.22285281 0.24680698 -3.2714834 0.091061376 0.36748785
0.17387043 0.19125222 -0.068417825 0.81708336 -0.19469602 -1.4064988 -0.008029033 1.0379417
0.11680519 0.28861338 0.10626368 0.027813228 -0.0067345593 -4.2133894 -0.116761506 -0.15453741
-0.4039561 -0.072326325 -0.041910265 -1.0785422 -0.2146556 1.4054267 0.23792602 -0.75648284
0.13440785 0.19299276 0.4140502 -0.98917115 0.5351461 -0.50694245 0.50024456 -0.813705
0.3537242 0.27567577 -0.029964738 -0.47738415 0.20362696 -1.378683 0.04461106 -0.31445926
-0.16186725 0.3425658 0.058714252 0.81928843 -0.9888753 0.4120115 0.1631439 0.7381745
0.1764385 0.33528796 0.16416767 0.5033599 -1.1301346 -1.9619234 0.031773996 0.3812136
0.71415 0.55001897 0.15658449 0.62573385 -1.1385964 -0.009437644 0.2605954 0.622773
-0.2561016 0.14356004 -0.014538364 0.33891827 -1.0098089 0.3410607 0.06183827 0.2741145
-0.3295698 -0.11381674 0.10486901 1.1378518 0.046805177 0.25412723 -0.051815476 1.3260849
-0.6443649 -0.29045352 -0.49587965 -0.31623623 1.2902621 -1.9702557 -0.45590028 -0.45002934
-0.15880579 -0.2944083 0.112169355 0.66671205 0.07425375 -0.52784127 0.39050746 0.8381385
-0.38796562 -0.18482208 0.20048383 1.4253988 -0.055614505 -0.5218367 0.21510938 1.4226435
-0.13415873 -0.21618645 0.082584806 1.5377653 0.55419 -1.7249677 -0.106099 1.7547823
-0.29735947 0.86853284 -0.14134786 0.65266067 0.4369592 -1.2681351 -0.15497671 0.7753552
-0.5896319 0.91311574 -0.1670882 -0.029217748 0.096143275 -0.56826955 -0.2653818 -0.16594453
-0.17587599 1.1369773 -0.09134167 -0.6230132 -0.7617638 1.8368516 0.25543705 -0.62895244
0.098193616 0.24079302 0.19623908 -0.08188061 0.66695726 -0.39394513 -0.17478125 0.0022273927
-0.015820097 0.096375614 -0.08011719 -0.33371714 0.5567683 0.495744 0.12104424 -0.142121
-0.24241756 -0.19894573 0.055363182 -0.7157251 -0.64947647 1.3705478 -0.07537646 -0.70028085
-0.34633285 0.1601484 -0.026727142 0.31758118 -0.9917117 -0.7282525 0.16477488 0.0007403149
0.09999768 -0.15196162 0.02964832 1.2802085 -0.22705583 -0.69644666 0.1057827 1.4282328
-0.049756568 -0.34248143 0.23143089 0.78248006 0.7585951 2.064162 0.29460606 0.67466456
-0.6740006 -0.4330532 0.18207079 -0.015534866 -0.35249966 0.78961253 -0.13231112 0.02672517
-0.7208332 -0.15141205 -0.014798454 0.6916458 -0.43923727 -0.18145251 0.11291788 0.43521392
-0.7421098 -0.17703137 0.11657504 0.46307924 -1.2732674 -1.2972913 -0.073728204 0.6284645
-0.021668674 -0.11666198 -0.11133629 -1.0505854 -0.15762343 -0.33601913 -0.11920516 -1.0487833
-0.063912354 -0.29944456 0.012128196 -0.5611121 1.0992476 0.6666956 -0.09921434 -0.8061417
0.16874301 -0.11523443 0.12595733 1.1327463 1.5087398 1.575245 0.01748826 1.1106181
-1.645178 -0.8943131 0.08558852 0.6105094 -0.6101048 1.6268975 0.0771835 0.3573978
-1.3804166 -0.6536681 -0.83558124 0.412352 -0.13221323 0.97318965 -0.8521283 0.57553774

state_layers.0.bias f4 [128]
00000000: 5a9e 9bbe d0b6 fcbd 26f5 99be f59e 743e
00000010: 1d78 8bbe 2049 74bf f910 a73e 9e67 a83e
00000020: 3a19 163f a838 cb3e deef ecbe 3121 433f
00000030: 48f5 7a3e bd3a c2be b777 58be 9a02 823f
00000040: 0913 d0be d11f b5be 5aec 45bf d6dd 783f
00000050: 0f9e c93f ef81 9b3d f48a b13c b66c bd3e
00000060: d972 8f3f c139 77bd 2e92 033f 74ef 133f
00000070: 01ac 0040 d6d5 cb3e 6e73 bc3d b60c 95bf
00000080: ad05 573f 2cd9 afbe 27bc 393f b3a3 343f
00000090: 0cb0 943f 493f 8b3f b37f 573c 3aaa 763f
000000a0: 974c 90be bef9 60be 6c9d f73e 0152 6c3f
000000b0: f74b a7bf a8fb 4b3e 9cd9 d83e 5b99 4dbe
000000c0: 4dc2 a73e fc69 733e 33c8 bf3e 279c 08bf
000000d0: d2fd 33bf 59fe 453e f65a d23e f435 8b3f
000000e0: e7d4 2cbf 3e27 c13d 5961 67bf 8692 7e3f
000000f0: fa97 8a3f 24a6 873e 4809 493e 6ff1 f8be
00000100: d8d6 10bf 4960 373f dc10 3f3f d3a7 343f
00000110: 69ba 7c3f b5af 74bf 0995 7a3f 8bb3 be3e
00000120: e0c6 e5be 841a 8e3f 1648 7bbf ef14 1fbe
00000130: 4c78 a9be 387f 9d3e 6654 c13e 5cd4 d83e
00000140: b12f b0be 408c 323f b14e 963f bdb4 c5bd
00000150: b9ea 8e3e 6bd2 28be fd7a 40be ec5c 9c3e
00000160: c1e3 f13c fea0 c3be 4cdf 6ebe 477d 063f
00000170: 5af1 32be cef8 033e 1e85 19bc 80e0 89bf
00000180: 4d09 06bf 4d8e 7b3f 5656 14bd 4767 58be
00000190: 261f 3c3e c536 363f 230e 68be abf2 03bf
000001a0: d4ce 96bf f116 9f3c d098 393f 44dc c73e
000001b0: 6aef 283f 9ed5 6a3f 7c37 8f3f 73ce 8c3f
000001c0: cd0f 653f 3b4f 94be 5905 743e a447 15bf
000001d0: ec6a 5a3e 20e6 7e3f 3bf2 c23e 8f94 013e
000001e0: d2c8 493e 2af1 313e 1528 97bf 6191 123f
000001f0: 842c 373f e756 8f3f dbb1 713e 2e75 b3bd
-0.3039425 -0.12339556 -0.30069846 0.23888762 -0.27240077 -0.9542408 0.32630137 0.32891554
0.5863224 0.39691663 -0.46276754 0.7622252 0.2450763 -0.3793544 -0.21139418 1.0157044
-0.40639523 -0.35375836 -0.7731377 0.97213495 1.5751361 0.07593142 0.021672703 0.36997002
1.1206924 -0.060357813 0.5139493 0.5778725 2.0104983 0.3981158 0.09201704 -1.1644504
0.83993036 -0.34345376 0.7255272 0.70562285 1.1616225 1.0878688 0.013153004 0.96353495
-0.28183433 -0.21970269 0.4836229 0.9231263 -1.3070058 0.19920218 0.42353523 -0.20078032
0.32765427 0.23770899 0.37457427 -0.5336327 -0.70309174 0.19335307 0.41085023 1.087584
-0.67512363 0.09431313 -0.90382916 0.9944233 1.082763 0.26493943 0.19632447 -0.486217
-0.56577826 0.71631294 0.746351 0.7056858 0.9872194 -0.9558061 0.9788366 0.37246355
-0.44878292 1.1101842 -0.9815687 -0.1553533 -0.33099592 0.30761123 0.37759703 0.42349517
-0.34411386 0.69745255 1.1742765 -0.09653614 0.27913454 -0.16486518 -0.18796916 0.30539644
0.029527547 -0.38208765 -0.23327368 0.5253491 -0.17474881 0.1288788 -0.0093701165 -1.0771637
-0.5235794 0.9826401 -0.03621515 -0.21133147 0.18371257 0.7117732 -0.22661643 -0.51542157
-1.1781869 0.019420119 0.724988 0.39035237 0.65990317 0.91732204 1.1188807 1.1000503
0.89477235 -0.28966698 0.23830165 -0.5831244 0.2132985 0.9956989 0.38075432 0.12654327
0.19705513 0.17377153 -1.1809107 0.5725308 0.715523 1.1198395 0.23603003 -0.087625846

action_layers.0.weight f4 [128, 130]
00000000: 0e9a 30c0 5ce9 ef3e 654b 003e 256b 543e
00000010: 96ea ce3d 3c30 4fbc dd89 3e3f 683a 093f
00000020: 023a 8d3d aaba 443f 3843 213e e828 1a3f
00000030: d5be c63d d364 f43b cc23 64bf cfce 7a3f
00000040: c4a9 9c3d 9eaa 7d3c e111 933e 00fb ca3e
00000050: 14b3 273f 3411 9cbf 50d8 333e 5fa9 863e
00000060: 5496 a83f b8d0 f8bf b7e3 ba3e c006 363f
00000070: 511c 273f 4f25 193f a244 c63e 5446 b5bf
00000080: 9687 853f 138c a9bc 2eec 5d3f 44c0 903e
00000090: e807 5b3e 4d55 6f3d e9d3 28bf 0e17 0440
000000a0: bcfc 023e 0614 923e 7a4b 1f3e f9d3 663e
000000b0: 6770 2bbc 539b e03e 5a4b c83e 4b24 29bf
000000c0: a045 163f d5a3 753f 1dc0 1a3f 8160 a43e
000000d0: 7c94 843e af1a 1e3f dbe5 d43e 78f2 8d3e
000000e0: e060 57c0 b7f9 613e 754b a4bd 37c3 013f
000000f0: 2aac 953e dd63 eb3f 0b70 1f3e 8c0d 41bf
00000100: 8bc3 54bf f178 063f 7882 8a3e fade 053e
00000110: 0380 d63e c3fb dab9 6c1d 403f 5251 083f
00000120: e2e8 86bc d096 093f bba9 88c0 8ba1 d73d
00000130: ada5 903d e6e0 143f 0211 d63f b938 a53d
00000140: 4982 2dbf e593 d63e 661d d2be 5cdf 043f
00000150: 1bc5 0dbe 1308 1cbe 3aa9 c0be 1199 e23d
00000160: fc91 6f3e 8f63 51be 9e34 34be c1ff 793e
00000170: a2ed 293e 33f7 a53e 6636 6abe a4e8 ebbf
00000180: a702 b73d d8bc e63e ec40 16be 0478 413e
00000190: fc42 9d3e cce4 fa3e 7a9e 533e 87f8 2e3e
000001a0: 527b 0f3e d623 acbf 6d01 9a3e 9796 c63e
000001b0: 2d6c 553e 36fe 7f3d 7812 003f 43b7 713f
000001c0: 2ca8 163e ab4f e3bd f719 cd3e 9a75 20be
000001d0: 9c4c e63e f9cd c23e 88fb 363e 6200 fcbc
000001e0: 8ccc a5bc c51e 933e b791 8fbe 9e27 483f
000001f0: ad1b cf3e aac3 403e 67bc 5c3f b271 f93e
00000200: 755d d73e ff74 8abf 3f5a 04c0 c2d6 3abe
00000210: 0ce2 15bf b12f c93c 4785 a2bd 8b9b cf3d
00000220: 2216 083f c842 a53e 5431 18be 44cd 0e3f
00000230: 2aa8 0abd bbc4 fa3e 8de7 5fbe 0c07 42be
00000240: 835b a1c0 99f3 9a3d 6110 a23d d20d 6ebd
00000250: 5206 75c0 3364 fe3e 221a c1bf 4369 b1c0
00000260: 9a24 913e 7516 763d f191 3a3f 91ad 983f
00000270: cd88 6b3e da49 073f 711f f33d f863 033f
00000280: fd37 073f c2d4 2bbf fbfb 953f b779 98be
00000290: f64e 153f 888c b73e d251 e53e 5689 6c3d
000002a0: 3c90 b8bf f610 9d3e 0f76 b1be 87ee 2e3d
000002b0: 90f5 90bd c9d7 003e 70ad 3ac0 8d98 ddbd
000002c0: 9963 9c3b bff2 7ebf f730 b13d d08e a43f
000002d0: 74c0 efbc 4f98 e2be 6e67 2ebf a951 563e
000002e0: 1b7d 753e b4c0 14bd b8a1 78c0 d112 b43e
000002f0: 3c65 b3be 14a7 e8be 7b66 893e f209 ef3f
00000300: 8688 343e 7a10 20c0 f082 fb3d 6e83 f73e
00000310: 4606 963e c2f5 093f 0872 943e 2757 e13d
00000320: 643a 273b 83c1 b23e e72a 8b3d 8445 103f
00000330: 2430 d7c0 3c4d 07bd 11bc 9fbe 0957 7b3f
00000340: 9655 d73f 2945 51bd 79a0 7abe ca34 923f
00000350: 65b7 48be 71fe c23e c6d1 0ebe ea99 b63e
00000360: 7029 fe3e ff5e efbe 0412 b9bf bc8b 73bd
00000370: 0577 3cbf 0981 0b3e 7764 3bbe 3498 67bd
00000380: fe8c dfbd 667b 9bbe a910 403e a718 823d
00000390: ffd2 b2bf 506a 5c3e a255 b5be 1b17 c3bd
000003a0: 6939 143e e7a6 993c 3c67 00bf 5bd4 123f
000003b0: d473 f33e 2d95 d03e 3890 5e3e 7319 853f
000003c0: 4d44 973e aa38 85be 24e5 68be 82eb f2be
000003d0: e1e1 383e 3ff0 99bd cc3a 1b3d 220c a23e
000003e0: 3d44 40bf 9c21 91bf c096 82be d984 133f
000003f0: 5471 d2be 4b1e 1140 f9f5 e53e d160 b83e
-2.7594028 0.46857727 0.1252876 0.20743997 0.101033375 -0.012645777 0.7442911 0.53604746
0.0689583 0.76847327 0.15748298 0.6021867 0.09704367 0.0074583082 -0.8911712 0.97971815
0.07649568 0.015482573 0.28724578 0.39644623 0.65507627 -1.219275 0.17562985 0.26301095
1.3170877 -1.9438696 0.36501858 0.7110405 0.6527758 0.59822553 0.38724238 -1.4162087
1.0432003 -0.020696675 0.86688507 0.28271687 0.21389735 0.05843096 -0.6594835 2.0639071
0.12791723 0.28530902 0.15556136 0.22541799 -0.0104638105 0.43868503 0.3911999 -0.66071004
0.5869999 0.9595311 0.6044939 0.32104877 0.25894535 0.61759466 0.41581616 0.2772405
-3.3652878 0.22067915 -0.08022205 0.506885 0.29232913 1.8389851 0.15570085 -0.75411296
-0.83110875 0.5252829 0.27052665 0.1307334 0.4189454 -0.00041767777 0.75044894 0.53249085
-0.016468469 0.53745747 -4.270719 0.10528859 0.0706285 0.5815567 1.672394 0.080674596
-0.67776924 0.4190971 -0.41038054 0.5190332 -0.13844721 -0.15237455 -0.3762911 0.11064351
0.23395532 -0.20448135 -0.17598197 0.24413969 0.16594556 0.3241516 -0.22872314 -1.8430371
0.08936053 0.4506595 -0.14673203 0.18893439 0.30715168 0.49002683 0.20665923 0.17086993
0.14011887 -1.3448436 0.30079213 0.38786766 0.20842047 0.062498294 0.5002818 0.9442026
0.1471259 -0.1109918 0.40058872 -0.15669861 0.44980323 0.3804777 0.17869389 -0.030761901
-0.020239137 0.28734413 -0.2804086 0.7818545 0.40450802 0.1882464 0.8622498 0.48719555
0.4206349 -1.0816954 -2.0680082 -0.18245986 -0.58548045 0.024558874 -0.07935577 0.10137089
0.5315877 0.32277513 -0.14862567 0.5578196 -0.03385178 0.48978218 -0.21865673 -0.18948
-5.042421 0.07565994 0.0791328 -0.05811865 -3.8285108 0.4968582 -1.50861 -5.5440993
0.28348237 0.06008001 0.7287894 1.1927968 0.23001404 0.52847064 0.11871231 0.51324415
0.52819806 -0.6712152 1.1717523 -0.2978036 0.5832361 0.35849404 0.44788986 0.05774816
-1.4419017 0.30677003 -0.34660384 0.042707946 -0.07078087 0.12582316 -2.9168358 -0.108201124
0.004772615 -0.9958915 0.086519174 1.2856083 -0.029266573 -0.44256827 -0.6812657 0.20929588
0.23973505 -0.03631659 -3.8848705 0.35170606 -0.35038173 -0.4543997 0.26836 1.867491
0.17630205 -2.5010056 0.12280834 0.4834246 0.2930166 0.5389062 0.2899325 0.11002951
0.0025516981 0.34913263 0.06795292 0.5635607 -6.7246265 -0.03303264 -0.3119817 0.9817968
1.6822994 -0.051091347 -0.24475278 1.142236 -0.1960121 0.38084748 -0.1394721 0.35664302
0.4964099 -0.46752164 -1.4458623 -0.059459433 -0.7361911 0.13623442 -0.18300043 -0.056541637
-0.10915564 -0.30367583 0.18756355 0.06352358 -1.3970641 0.2152493 -0.35416895 -0.095258914
0.14475025 0.018756343 -0.50157523 0.5735528 0.47549307 0.40738812 0.21734703 1.0398391
0.29544297 -0.26019794 -0.2274366 -0.47445303 0.18054916 -0.075165264 0.03789787 0.31649882
-0.75104123 -1.1338382 -0.25505638 0.57624584 -0.41102087 2.267474 0.44914225 0.36011365

action_layers.0.bias f4 [128]
00000000: 8991 833f eec4 4e3f 95f3 523f 2203 0dbf
00000010: 12dd 643f b287 9cbc 4ec6 0bbf 7a9f 783f
00000020: 296a fdbe 9ccb 11bf cac1 bdbe c3fc 7c3d
00000030: 88ff 413f 25d3 4abf 6870 863f 5794 e33e
00000040: 5883 0c3f c4e9 36be 5e69 32bf cc26 ce3e
00000050: 6586 473f dce9 323f 6290 663f fa9b 4e3f
00000060: 650c 3e3f 061b 70bf 9530 92be 166d 653f
00000070: 4bf3 593f 9d0d b33e 6403 213f 839b 713f
00000080: 0b1e 3f3e 916c c9be 35ac d93e e937 a4bf
00000090: 05e9 ca3c 7423 0d3f 217b 5a3f dba8 2c3f
000000a0: e2cb ebbe f9ca 97bf 5649 9dbe cd00 33bf
000000b0: 9257 f4be c743 5a3f 9aeb a5be 4ec7 643f
000000c0: c654 663f 3554 0cbf 6093 17bf 52e4 563f
000000d0: de8b f0be 810a 5f3f a87b 11bf 3572 debe
000000e0: f6a9 1e3f 369d 363f b17b 8d3f 0631 cfbd
000000f0: f6f8 1c3f d887 0b3f 21a7 723f f04b 7f3f
00000100: 40f4 76bf 9fdf 433f d74e 2dbf 9efc f4be
00000110: a20e 663f 67d7 5f3f d6d9 5c3f 3baa 96bd
00000120: 52f5 0ebf 0d9d dfbe 1ae5 ea3e 1320 6d3f
00000130: 43b0 293f 0df1 173f 4ebc 99bf efbe 203f
00000140: c292 3cbf c43a 5b3f 5182 a63e 56cb 843f
00000150: 737c 043f c976 a13d 525a 083f 3035 123f
00000160: 2b60 59bd 2521 453f 00c3 0d3f 0d14 633f
00000170: d033 3d3f 480e 1b3f faed 663f 1d5a 933f
00000180: f861 b3be afbc 9abe 17dc 29bf 1d13 823f
00000190: a6f8 13bf 13ad 66be f200 523f 0ca0 09bf
000001a0: c77f 7a3f 8aa6 013f dded 4abf b9b5 7c3f
000001b0: 0bd9 023e 6169 113f 7996 3d3f 6866 3e3f
000001c0: 4490 663f abd9 74bf f6f3 143f 2429 e2be
000001d0: 284a fbbe f03d 26bf 95ac da3e 5c9c 643f
000001e0: cf96 eebe 4f44 de3e fd4e e23e be29 d6be
000001f0: ec2c 853f 38bc 6dbe ac3a 99bd 86e5 7f3f
1.0278789 0.8076924 0.82402927 -0.55082905 0.89399827 -0.019107673 -0.54599464 0.9711834
-0.49495056 -0.5695131 -0.37061912 0.06176449 0.75780535 -0.7922843 1.0503054 0.44449112
0.54887915 -0.17862612 -0.6969203 0.40263975 0.77939445 0.6988809 0.9006406 0.8070675
0.7423766 -0.93791234 -0.2855269 0.89619577 0.8513686 0.34971324 0.628958 0.9437792
0.18663804 -0.39340642 0.42514196 -1.2829562 0.024769315 0.5513222 0.8534413 0.67445153
-0.46053988 -1.1858817 -0.30720013 -0.69923097 -0.4772306 0.8525967 -0.32406312 0.89366615
0.89973104 -0.5481599 -0.5920925 0.8394214 -0.4698171 0.871254 -0.5682931 -0.43446508
0.6197809 0.71333635 1.1053373 -0.10116772 0.61317384 0.54504156 0.9478627 0.99725246
-0.96466446 0.76513094 -0.67698425 -0.47848982 0.8986608 0.8743805 0.8626989 -0.07356688
-0.5584308 -0.43674508 0.45877916 0.92627066 0.6628458 0.5935219 -1.2010591 0.6279134
-0.73661435 0.85636544 0.325213 1.0374553 0.51752394 0.078839846 0.5326282 0.5711241
-0.05307023 0.770037 0.5537567 0.8870247 0.73907185 0.60568666 0.90206873 1.1511875
-0.35035682 -0.3022208 -0.66351455 1.0162083 -0.5780128 -0.2252696 0.8203269 -0.5375984
0.9785122 0.50644743 -0.792692 0.98714787 0.12778108 0.5680142 0.7405773 0.7437501
0.9006388 -0.95644635 0.58184755 -0.44172013 -0.49080014 -0.6493826 0.42709795 0.89301085
-0.46599433 0.4341149 0.44200888 -0.41828722 1.0404334 -0.23216331 -0.07481894 0.999596

fc.weight f4 [1, 128]
00000000: 5862 b33f 1064 9440 cb8b 0540 fb43 c5c0
00000010: ca1e f03f b45a cac0 7f39 e1c0 e7eb 0940
00000020: e7c8 a1c0 b8b4 dfc0 1f6e d6c0 48fe 21c1
00000030: 0266 aa40 aef3 06c1 a3e0 a03f 97d5 14c1
00000040: 859c f440 3c24 f2c0 c824 bbc0 77ae 5740
00000050: 1119 1840 fde7 8940 f812 2140 65fc ed3f
00000060: f562 c040 cdca 0bc1 160d d8c0 8d4f c93f
00000070: 0ce9 c240 ba53 bc40 667b 4440 c0af a53f
00000080: b06b d9c0 bafc c5c0 ba86 2740 ae24 10c1
00000090: 58c0 bdc0 dd60 a240 eadf f440 c61f 2240
000000a0: 9446 b1c0 39dd f6c0 8cd9 f6c0 e304 03c1
000000b0: 0c97 fcc0 4e57 c73f 4304 b2c0 ddfb d740
000000c0: a4e5 af3f 5766 edc0 4964 1bc1 2968 9940
000000d0: a17e 80c0 82d6 5240 60ea f7c0 3fc8 98c0
000000e0: f533 d340 10c6 1540 0df0 823f aaeb a1c0
000000f0: a5fc 1c40 d530 f640 2a8c bc3f 2f82 dd3f
00000100: 0a19 bfc0 f8dc 5040 4aa4 18c1 c094 e1c0
00000110: 90aa d23f 17db 4540 f515 a33f 4321 dbc0
00000120: 4883 6dc0 da04 00c1 3039 f03f 4973 f03f
00000130: 6ec6 b140 67d8 b23f b5d2 58c1 7c8c 6f40
00000140: 5d86 27c1 0d8b 5040 050d 1841 ab14 af3f
00000150: 407b a240 e618 ddc0 a722 1b41 646e 2340
00000160: 9cdc cac0 df18 6c40 7fa8 7240 6ffd b93f
00000170: b91b 3a40 b0e4 bc40 9ad0 933f 0a0a 6b3f
00000180: 0fd5 c5c0 6d37 1cc1 9d42 0cc1 068e cc3f
00000190: e283 fec0 535c bac0 54be 2f40 52d8 c2c0
000001a0: c19f 4240 6f21 0340 02a6 02c1 c41b de3f
000001b0: 2e48 ccc0 4dc3 d33f 105b 1e40 5c7b df3f
000001c0: 230f b93f 3d36 edc0 35c8 af40 5b1e 10c1
000001d0: 965b f3c0 3e21 00c1 4847 6f40 aae4 c73f
000001e0: 565d 98c0 12e8 d440 9091 c640 35a0 a7c0
000001f0: d244 1a40 60d8 08c1 ad51 0cc1 a993 923f
1.4014387 4.6372147 2.0866573 -6.1645484 1.8759396 -6.323572 -7.0382686 2.1550233
-5.055774 -6.9908104 -6.7009425 -10.12458 5.324952 -8.434492 1.2568554 -9.302146
7.6441064 -7.566923 -5.84824 3.3700235 2.37653 4.309569 2.5167828 1.859265
6.0120797 -8.737012 -6.7515974 1.5727402 6.090948 5.8852205 3.0700316 1.294426
-6.7943954 -6.1871004 2.617598 -9.008955 -5.9297295 5.074324 7.6523333 2.5331893
-5.5398655 -7.7145047 -7.714056 -8.188693 -7.8934383 1.5573518 -5.56302 6.749495
1.3741956 -7.4187427 -9.711984 4.793965 -4.0154576 3.2943425 -7.74736 -4.774444
6.6000924 2.3402138 1.0229508 -5.0600176 2.4529202 7.693461 1.4730275 1.7305354
-5.9718065 3.2634869 -9.54011 -7.049408 1.6458302 3.0914972 1.2741076 -6.8478103
-3.7111378 -8.001184 1.8767452 1.8785182 5.5554724 1.3972291 -13.551442 3.7429495
-10.470304 3.258487 9.503179 1.3678182 5.077545 -6.9092894 9.69596 2.5536127
-6.33943 3.689018 3.7915342 1.4530467 2.907942 5.902916 1.1548035 0.91812193
-6.182258 -9.763532 -8.766263 1.5980842 -7.953599 -5.82377 2.7459917 -6.0889063
3.0410006 2.0489156 -8.165529 1.7352223 -6.383811 1.6543976 2.474308 1.7459521
1.4457744 -7.412871 5.4931893 -9.007411 -7.60493 -8.008116 3.7387257 1.5616658
-4.7613935 6.653329 6.205269 -5.2383065 2.4104505 -8.552826 -8.76994 1.1451312
