project3-collab_compete/checkpoint/actor_local.pth (torch_old, 14677 bytes, 4 tensors)

fc1.weight f4 [128, 24]
0.082873836 0.0252147 -0.03132267 -0.3431883 -0.058694024 -0.048543856 0.12434066 -0.19855535
0.0828659 -0.044330195 0.04533431 -0.47521 0.34271914 0.23038842 0.105723865 -0.25436738
-0.10116511 0.0132418275 0.084819555 0.43114847 0.65461504 -0.38871756 -0.13820647 0.24879372
-0.318172 -0.050863683 -0.18356904 -0.43911052 -0.3721275 0.5375466 0.09626983 -0.11706897
-0.039806813 0.19600119 0.12925796 -0.231573 0.07356315 0.14979331 0.21545146 -0.05610935
0.18244365 0.26521954 0.028549574 -0.33474532 0.060807407 -0.31908983 0.10312523 -0.1718379
-0.22902967 -0.01881365 -0.1686988 0.34733695 -0.23496947 -0.23843993 -0.06426623 0.26622745
-0.099784605 -0.035516713 0.19944979 0.5247156 -0.26309267 -0.25144294 0.06705377 0.4025682
-0.14808446 0.10338477 0.14886984 0.22613014 -0.1745209 0.77746725 0.25287485 0.22317055
-0.28549325 0.11693928 -0.2110757 -0.464987 0.20673507 0.23043667 -0.13469626 -0.5297901
-0.22562905 -0.11180166 0.16424516 0.05500274 0.49854916 0.4590052 0.007556135 0.2432334
-0.2351535 -0.047248963 -0.007819415 -0.033381708 0.26959375 0.16203709 0.03215963 -0.16717564
0.1324898 0.3144524 -0.13531087 -0.1790632 0.035420984 -0.17814766 0.14303364 -0.007634797
0.04758803 0.32972556 0.108219706 -0.06868376 0.057418663 -0.3322806 0.12284759 -0.07143811
0.5486362 0.08548529 0.09869697 -0.2963143 0.20333044 -0.9101147 -0.08999242 -0.07930283
0.096399084 0.084655285 -0.02334347 0.33541217 0.29722285 -0.31762788 -0.03696913 0.45810485
-0.22602326 0.012409028 -0.24055935 0.07573598 0.0736541 -0.5513 -0.338864 -0.060988307
0.013105607 0.1913221 -0.22198467 -0.25873563 0.07908936 -0.06732689 0.12479594 -0.2646772
0.072829984 0.26868874 0.25056937 -0.059877664 0.45239624 -0.19133659 -0.120454215 0.024228664
-0.122318 0.31831586 0.009102772 0.20438358 0.5191044 -0.30976066 0.2102566 0.3959648
-0.06255701 0.04784392 -0.11196217 0.017127816 0.18887252 0.092771165 -0.24270481 0.032569833
-0.13707949 0.15176938 0.028945437 0.4542342 -0.04389427 -0.7695466 0.22044335 0.13739733
0.10766937 -0.10245023 0.1564949 0.113577746 0.015731651 -0.14333412 0.23262653 0.26160866
0.06149193 0.032576278 -0.0114679085 0.18411672 0.39165112 0.6832692 0.051708467 0.07628988
-0.045534752 -0.04972274 0.15204467 -0.2947783 0.23350994 -0.14181067 -0.16233544 -0.2525218
-0.038748007 0.14565308 0.08132865 0.10415769 0.22494122 -0.471331 0.20904733 -0.15227291
0.03289201 0.11883198 0.1793543 0.028179532 0.030911187 -0.0009828706 -0.0109503055 0.19356081
0.16110775 0.13002537 -0.076467454 0.42142984 -0.17413275 -0.29859734 -0.0843352 0.42323095
0.056106776 -0.03762353 0.14458416 -0.02579201 -0.24505144 0.52916694 0.033245064 -0.27082852
0.05278281 0.11886407 -0.00262197 0.8153787 -0.23900193 0.7744052 -0.11108981 0.7932583
-0.12367195 0.28666037 0.23293304 -0.13648257 -0.13631973 0.5303954 0.2245268 -0.3896277
-0.088467486 0.20884843 -0.15269578 -0.052760463 0.0984387 0.5757574 -0.16924487 0.11042091
00000000: c2b9 a93d 0f8f ce3c 334c 00bd 60b6 afbe
00000010: 2569 70bd ecd5 46bd 51a6 fe3d 1852 4bbe
00000020: 99b5 a93d 9493 35bd 78b0 393d ba4e f3be
00000030: e278 af3e f1ea 6b3e c185 d83d 713c 82be
00000040: a72f cfbd 40f4 583c e0b5 ad3d 7ebf dc3e
00000050: da94 273f fd05 c7be ff85 0dbe c8c3 7e3e
00000060: 71e7 a2be 7056 50bd 86f9 3bbe 18d3 e0be
00000070: 7f87 bebe a79c 093f 1e29 c53d dbc1 efbd
00000080: 780c 23bd 89b4 483e 335c 043e 7921 6dbe
00000090: 47a8 963d 6b63 193e 4f9f 5c3e ebd2 65bd
000000a0: 82d2 3a3e dbca 873e cce0 e93c bd63 abbe
000000b0: 3011 793d be5f a3be 5233 d33d 46f6 2fbe
000000c0: c186 6abe 151f 9abc 61bf 2cbe 26d6 b13e
000000d0: d69b 70be 9929 74be 039e 83bd f74e 883e
000000e0: df5b ccbd f979 11bd 913c 4c3e c353 063f
000000f0: 15b4 86be 21bd 80be 7d53 893d 6b1d ce3e
00000100: 74a3 17be 65bb d33d 5671 183e a98e 673e
00000110: 9bb5 32be 1808 473f d078 813e d286 643e
00000120: 2c2c 92be dc7d ef3d 3a24 58be c712 eebe
00000130: 5cb2 533e 97f7 6b3e d1ed 09be 53a0 07bf
00000140: 4d0b 67be 45f8 e4bd e22f 283e 8e4a 613d
00000150: d641 ff3e bb02 eb3e 7499 f73b 2d12 793e
00000160: 14cc 70be 2188 41bd 011d 00bc 42bb 08bd
00000170: 3108 8a3e 0ded 253e d1b9 033d 1730 2bbe
00000180: 68ab 073e e8ff a03e ef8e 0abe 585c 37be
00000190: 9815 113d 576c 36be 6977 123e 522d fabb
000001a0: abeb 423d cad1 a83e 4ba2 dd3d 12aa 8cbd
000001b0: d52f 6b3d af20 aabe 8497 fb3d 254e 92bd
000001c0: 6c73 0c3f e912 af3d a321 ca3d 82b6 97be
000001d0: db35 503e 47fd 68bf f24d b8bd 8669 a2bd
000001e0: e26c c53d c05f ad3d ce3a bfbc 25bb ab3e
000001f0: 982d 983e 1fa0 a2be f16c 17bd b88c ea3e
00000200: a472 67be 3c4f 4b3c 3155 76be 771b 9b3d
00000210: f6d7 963d ff21 0dbf 957f adbe e0ce 79bd
00000220: e6b8 563c f1e9 433e f34f 63be ff78 84be
00000230: 9af9 a13d aee2 89bd 0495 ff3d c583 87be
00000240: e327 953d 9291 893e a14a 803e 4842 75bd
00000250: 7ba0 e73e bded 43be b3b0 f6bd 317b c63c
00000260: dc81 fabd 4cfa a23e cb23 153c ee49 513e
00000270: 07e4 043f f398 9ebe 824d 573e e6bb ca3e
00000280: e41d 80bd fcf7 433d 6c4c e5bd a24f 8c3c
00000290: cc67 413e cffe bd3d 9c87 78be f267 053d
000002a0: 915e 0cbe 6f69 1b3e fb1e ed3c 6391 e83e
000002b0: 7aca 33bd 0201 45bf e7bb 613e e3b1 0c3e
000002c0: c281 dc3d 6dd1 d1bd 3340 203e 739b e83d
000002d0: aadf 803c 2ec6 12be a635 6e3e 92f1 853e
000002e0: f6de 7b3d b46e 053d e5e3 3bbc 1889 3c3e
000002f0: 7f86 c83e bbea 2e3f 42cc 533d de3d 9c3d
00000300: a682 3abd 12aa 4bbd 99b1 1b3e 2eed 96be
00000310: 3b1d 6f3e d136 11be 433b 26be 8a4a 81be
00000320: 3bb6 1ebd 1526 153e a38f a63d a150 d53d
00000330: fe56 663e 4c52 f1be 8110 563e 6eed 1bbe
00000340: c6b9 063d 2e5e f33d a7a8 373e c3d8 e63c
00000350: 7539 fd3c aad3 80ba e968 33bc ce34 463e
00000360: 6ef9 243e 5f25 053e f89a 9cbd a7c5 d73e
00000370: db4f 32be c0e1 98be efb7 acbd bab1 d83e
00000380: 38d0 653d 211b 1abd df0d 143e c449 d3bc
00000390: c4ee 7abe 7c77 073f fa2b 083d 09aa 8abe
000003a0: ca32 583d 016f f33d 5bd5 2bbb a9bc 503f
000003b0: ecbc 74be 6b3f 463f 0e83 e3bd fa12 4b3f
000003c0: b847 fdbd 26c5 923e 0086 6e3e 16c2 0bbe
000003d0: 6697 0bbe fec7 073f 5aea 653e 487d c7be
000003e0: 712e b5bd 5ddc 553e 485c 1cbe 5b1b 58bd
000003f0: 3b9a c93d d664 133f 874e 2dbe 5c24 e23d

fc1.bias f4 [128]
0.06740144 -0.20827574 -0.072886564 -0.26005214 -0.31216148 0.0015436546 -0.0012666044 -0.31301013
0.0073647466 0.13279496 -0.36669815 0.11461843 -0.35632625 -0.08580275 -0.059498034 -0.02986933
-0.04389775 0.07936105 -0.14613302 -0.20622441 -0.2935602 0.03509246 -0.124258436 -0.0847716
-0.13503598 0.36928967 -0.03300836 -0.2861928 0.17939448 0.05052035 -0.33705074 -0.19030647
-0.49209753 0.004517855 0.015395682 -0.037077967 0.33602464 0.39774835 0.070669904 -0.07020082
0.024780003 -0.28169298 -0.2636204 0.33813626 -0.07097332 -0.06896582 0.08362354 -0.12653175
0.019034 -0.01267938 0.053307988 0.18247384 -0.029978288 -0.042011738 0.45272568 0.055783242
0.058097452 -0.101194784 0.22281379 0.27853525 0.2667405 -0.0010488 0.030321032 0.0104591185
0.14145708 0.20499341 0.09164589 -0.07732405 -0.008769427 0.1961915 0.06899419 0.19101554
-0.09063961 0.2025078 0.013421229 -0.03256954 0.045967523 -0.03999477 -0.059482105 0.20199151
-0.23036125 -0.10083198 0.120404586 -0.17044076 -0.12422837 -0.07709067 -0.04544413 -0.24901922
-0.08731071 0.15665264 0.10189246 -0.13908596 0.30055997 0.085995294 0.22177354 -0.023977898
-0.035717003 0.2756534 0.038360164 0.1833103 -0.46224225 0.10306533 0.27577922 -0.20070894
-0.0077986955 -0.14187191 -0.05224178 0.34210047 -0.2775338 0.14035669 0.16165982 0.12395032
0.27805436 -0.2703018 -0.11162017 0.009668919 -0.26549396 0.081750005 -0.04447167 0.11269034
0.18395266 -0.12263351 0.197308 0.072407365 0.006309021 0.27232364 -0.12124889 -0.18800905
00000000: c409 8a3d 3c46 55be 8d45 95bd 8e25 85be
00000010: a1d3 9fbe 7454 ca3a 3104 a6ba dd42 a0be
00000020: f953 f13b 67fb 073e dcbf bbbe 11bd ea3d
00000030: 6570 b6be 5ab9 afbd 36b4 73bd 86b0 f4bc
00000040: 21ce 33bd 0c88 a23d e5a3 15be 7e2c 53be
00000050: 864d 96be 1dbd 0f3d 357b febd bc9c adbd
00000060: df46 0abe 8913 bd3e c633 07bd dd87 92be
00000070: 30b3 373e 6dee 4e3d ea91 acbe b3df 42be
00000080: 35f4 fbbe 840a 943b 2c3e 7c3c 11df 17bd
00000090: 6c0b ac3e aca5 cb3e 62bb 903d 73c5 8fbd
000000a0: 6fff ca3c 103a 90be 41f9 86be 3220 ad3e
000000b0: 765a 91bd f43d 8dbd d242 ab3d 8a91 01be
000000c0: 31ed 9b3c 2dbd 4fbc 7a59 5a3d 6cda 3a3e
000000d0: 0795 f5bc 8014 2cbd a9cb e73e f87c 643d
000000e0: 98f7 6d3d 363f cfbd 4c29 643e 2c9c 8e3e
000000f0: 3692 883e e377 89ba d063 f83c b95c 2b3c
00000100: 20da 103e cbe9 513e d7b0 bb3d 125c 9ebd
00000110: a5ad 0fbc 6de6 483e d34c 8d3d 9499 433e
00000120: 43a1 b9bd 345e 4f3e b7e4 5b3c a367 05bd
00000130: 7148 3c3d 8ed1 23bd 82a3 73bd ddd6 4e3e
00000140: d2e3 6bbe ff80 cebd ae96 f63d 0688 2ebe
00000150: 726b febd b7e1 9dbd a023 3abd e5fe 7ebe
00000160: f5cf b2bd 8d69 203e feac d03d 8d6c 0ebe
00000170: ffe2 993e 4d1e b03d 9a18 633e 4c6d c4bc
00000180: fe4b 12bd 7122 8d3e 8c1f 1d3d b2b5 3b3e
00000190: 04ab ecbe ea13 d33d ef32 8d3e a586 4dbe
000001a0: 338c ffbb df46 11be 7afb 55bd cb27 af3e
000001b0: e918 8ebe aab9 0f3e 278a 253e aad9 fd3d
000001c0: 245d 8e3e ff64 8abe 1e99 e4bd 636a 1e3c
000001d0: d3ee 87be 8c6c a73d ed27 36bd 31ca e63d
000001e0: 165e 3c3e 4727 fbbd 1c0b 4a3e 504a 943d
000001f0: e7bb ce3b 016e 8b3e 5751 f8bd 7285 40be

fc2.weight f4 [2, 128]
-0.2844637 -0.17710252 0.14266357 -0.2370437 -0.22145328 0.22482266 0.23124811 0.15195183
0.04393884 0.4867123 0.3028504 -0.6557848 -0.6346453 -0.22958344 -0.19494459 0.34577754
0.21250443 0.19616364 -0.26777947 0.2586307 0.176636 0.20240936 -1.368675 -0.2519147
0.34534147 -0.32254672 -0.18172978 0.22152428 -0.31186727 -0.37852174 -0.57821256 -0.13480045
0.67252594 0.18889953 0.5066916 -0.35887474 -0.10320929 -0.1339346 -0.3381236 0.40731826
0.0671898 -0.23562825 0.090952344 -0.13824219 0.31257704 -0.30125192 0.11371353 0.77379483
0.3041552 -0.2347198 0.12627603 0.12902476 0.47012985 0.11732702 -0.49252388 0.28914726
0.15816107 -0.19914353 0.30909935 -1.2440689 -0.49876764 -0.34952623 0.34922498 0.19698288
0.4532017 -0.213158 0.15406664 -0.592317 -0.12591268 -0.34645662 -0.20322777 -0.30125016
0.25572023 0.28306264 -0.5215386 0.25404638 0.15864523 -0.12320523 0.60905486 0.21796434
-0.8092917 0.28751445 -0.35661912 0.3353278 -0.18877222 -0.1806138 0.31454483 -0.096046105
-0.29187152 0.5475403 -0.7375064 0.19387066 0.18984018 -0.40952167 0.19647074 0.25842842
0.4815379 -0.14590143 -0.77463776 0.15244076 0.083465084 0.4610223 0.28388208 0.18355674
0.24858771 -0.8967453 0.049289577 -0.32164174 -0.45994765 -0.028701955 0.27794814 -0.30660886
0.1530593 0.2033556 -0.2971119 -0.5893647 0.14815056 -0.23276307 0.6072006 -0.24684654
0.21693994 -0.26095113 0.37058115 -0.26235807 -0.47282138 -0.1520614 0.6123503 0.24393737
-0.028596217 -0.09209222 -0.14516671 -0.07923591 -0.17149903 0.040916126 -0.068171084 -0.22508146
0.0250731 -0.16117541 -0.133146 0.30082196 -0.035873573 0.055841196 -0.20790087 -0.00863968
-0.08677367 -0.12900229 -0.05197251 -0.13490213 -0.08820594 -0.06373356 0.09419701 -0.12070169
0.053570703 -0.3390047 -0.17217639 -0.037095983 -0.050297987 0.027678099 0.07664346 -0.02175422
-0.2217346 0.012124278 -0.09588995 -0.23857561 -0.22207761 -0.25919014 -0.109159924 -0.31146365
0.07218107 0.018782426 -0.29298803 -0.20453298 -0.03285188 -0.06809155 0.018651541 -0.082157366
-0.06339025 -0.024072602 -0.1674623 -0.11145421 -0.28761008 -0.25574884 -0.08434266 0.010664191
-0.11538073 0.0009884676 -0.19175205 -0.034640122 0.09263704 -0.22103916 -0.054261576 -0.047756013
0.08360722 0.11933694 -0.18328199 0.08766917 -0.11160724 -0.159745 -0.07197391 0.033352554
-0.17624752 -0.08915039 -0.16546732 -0.32230023 -0.097439 0.050629847 -0.1076474 -0.1143028
0.1555419 -0.20328002 -0.13094889 -0.19525366 0.1344591 0.056703396 0.011544564 0.028230036
-0.08734544 0.077465914 -0.097718306 0.051845133 -0.11019448 0.03173421 -0.027484545 -0.18267058
-0.22768566 -0.19262363 0.04727464 -0.09350781 -0.028416036 -0.14924647 -0.17783076 -0.104638204
-0.034609653 -0.02541436 -0.13398053 -0.22161523 -0.07049301 -0.2614041 0.011063537 -0.057388235
-0.13948324 0.20243518 -0.10335013 0.051712334 -0.14080203 -0.2117686 0.206028 0.041001085
-0.091648884 -0.14210324 0.0046709627 -0.13653982 0.0498092 -0.009474286 -0.049450945 0.02169113
00000000: 3aa5 91be 5d5a 35be 6616 123e 95bb 72be
00000010: a6c4 62be e937 663e 4ecc 6c3e 4399 1b3e
00000020: 37f9 333d 5b32 f93e 350f 9b3e 83e1 27bf
00000030: 1d78 22bf ec17 6bbe 8e9f 47be c109 b13e
00000040: c39a 593e 1fdf 483e 641a 89be 3e6b 843e
00000050: 11e0 343e 6644 4f3e be30 afbf f7fa 80be
00000060: 99d0 b03e d824 a5be 5f17 3abe 43d7 623e
00000070: 11ad 9fbe 9acd c1be bd05 14bf 2109 0abe
00000080: a92a 2c3f e16e 413e 8ab6 013f 6ebe b7be
00000090: 645f d3bd 2726 09be 891e adbe 058c d03e
000000a0: ce9a 893d 8848 71be 3945 ba3d 5c8f 0dbe
000000b0: 190a a03e b13d 9abe a4e2 e83d 6b17 463f
000000c0: 3bba 9b3e 635a 70be 814e 013e 111f 043e
000000d0: dcb4 f03e 2649 f03d 172c fcbe 1c0b 943e
000000e0: faf4 213e 48ec 4bbe 4542 9e3e a63d 9fbf
000000f0: 795e ffbe 1af5 b2be 9ecd b23e e1b5 493e
00000100: 0e0a e83e 1746 5abe a5c3 1d3e 16a2 17bf
00000110: 41ef 00be c362 b1be f11a 50be 763d 9abe
00000120: c3ed 823e 96ed 903e 8e83 05bf 5e12 823e
00000130: e573 223e 0653 fcbd 05eb 1b3f 0b32 5f3e
00000140: be2d 4fbf 1835 933e c896 b6be 16b0 ab3e
00000150: 814d 41be d3f2 38be 050c a13e d2b3 c4bd
00000160: 2f70 95be 9a2b 0c3f 38cd 3cbf 0886 463e
00000170: 7765 423e d3ac d1be a02f 493e bb50 843e
00000180: 238c f63e 2f67 15be a94e 46bf 6e19 1c3e
00000190: beef aa3d 1d0b ec3e fe58 913e 4cf6 3b3e
000001a0: c78d 7e3e 1a91 65bf dee3 493d 3aae a4be
000001b0: 427e ebbe 5d20 ebbc 384f 8e3e d6fb 9cbe
000001c0: 94bb 1c3e 733c 503e 0d1f 98be 9be0 16bf
000001d0: c8b4 173e 7159 6ebe 8071 1b3f 57c5 7cbe
000001e0: 8125 5e3e 639b 85be d0bc bd3e cc53 86be
000001f0: a515 f2be fcb5 1bbe fdc2 1c3f b8ca 793e
00000200: 9d42 eabc d99a bcbd 95a6 14be 7046 a2bd
00000210: 719d 2fbe ab97 273d 489d 8bbd c17b 66be
00000220: 1a66 cd3c 2b0b 25be 6d57 08be 5605 9a3e
00000230: 2bf0 12bd bdb9 643d f7e3 54be 728d 0dbc
00000240: 65b6 b1bd 2d19 04be 20e1 54bd c923 0abe
00000250: 51a5 b4bd be86 82bd 5dea c03d 7332 f7bd
00000260: f46c 5b3d 0692 adbe 024f 30be f5f1 17bd
00000270: 4305 4ebd 2ebd e23c 3ff7 9c3d e835 b2bc
00000280: 650e 63be e8a4 463c f361 c4bd 2a4d 74be
00000290: 5068 63be 92b4 84be 3d8f dfbd 2a78 9fbe
000002a0: abd3 933d 9add 993c 8702 96be 1871 51be
000002b0: b18f 06bd 9573 8bbd 1ecb 983c 1f42 a8bd
000002c0: bfd2 81bd e833 c5bc 3d7b 2bbe 1b42 e4bd
000002d0: a141 93be 83f1 82be d8bb acbd dcb8 2e3c
000002e0: bb4c ecbd 788f 813a a65a 44be cde2 0dbd
000002f0: 7db8 bd3d 1758 62be 6341 5ebd cf9b 43bd
00000300: 433a ab3d ed66 f43d 46ae 3bbe e58b b33d
00000310: 5692 e4bd 3194 23be 0f67 93bd b09c 083d
00000320: 3b7a 34be 7b94 b6bd 4470 29be 8904 a5be
00000330: 198e c7bd 3e61 4f3d 3d76 dcbd 9617 eabd
00000340: 6046 1f3e a328 50be 7717 06be 93f0 47be
00000350: a5af 093e d241 683d 6925 3d3c ad42 e73c
00000360: 2be2 b2bd 73a6 9e3d 8920 c8bd 905b 543d
00000370: a5ad e1bd bbfb 013d 4527 e1bc ff0d 3bbe
00000380: 6e26 69be 213f 45be 0ea3 413d 0681 bfbd
00000390: bfc8 e8bc 11d4 18be 4419 36be 8e4c d6bd
000003a0: dac2 0dbd c731 d0bc 3132 09be 1aef 62be
000003b0: a45e 90bd c2d6 85be d643 353c ed0f 6bbd
000003c0: b2d4 0ebe 2b4b 4f3e 3ca9 d3bd 50d0 533d
000003d0: 682e 10be ded9 58be 01f9 523e c1f0 273d
000003e0: 69b2 bbbd 8383 11be e00e 993b 18d1 0bbe
000003f0: bb04 4c3d 093a 1bbc 138d 4abd 99b1 b13c

fc2.bias f4 [2]
-0.09685828 -0.1445625
00000000: a25d c6bd 3108 14be
