project2-continous_control/checkpoint/actor_local.pth (torch_old, 39778 bytes, 4 tensors)

fc1.weight f4 [256, 33]
000000 d6 e3 2d 3f fa a9 a2 3d 8a 36 61 bf 9d c8 0e 3e
       0.67925775 0.07942577 -0.87973845 0.13943715
000010 35 66 59 3e 83 b1 d3 3e 5c 2e 9d be 16 42 e8 3e
       0.21230395 0.41346368 -0.30699432 0.4536292
000020 4e 7a d0 3e 02 6f eb 3d a7 0e b2 3e 94 33 4a be
       0.4071831 0.114957824 0.34776804 -0.19746238
000030 25 c3 dc be 96 fe a7 be 8a e6 d8 3e fa fb 94 3f
       -0.43117633 -0.3281142 0.42363387 1.1639397
000040 0c a2 70 be 9a 3f ad bd 4e 7f 00 be 42 cf 9f 3d
       -0.23499316 -0.08459397 -0.12548563 0.07803203
000050 f7 34 3b be 4e 6a ce 3d ae 31 14 3e ca ff f2 3d
       -0.18281923 0.1007887 0.14472076 0.11865194
000060 b8 19 df 3d 0d d4 93 3e 71 01 a0 3d a1 19 e2 be
       0.10893577 0.2887272 0.07812775 -0.44160178
000070 08 94 32 bf 8c 48 9c 3d dc 61 c8 3e 34 e7 f0 3d
       -0.6975713 0.07631025 0.3913716 0.117628485
000080 aa b5 fe be 68 b2 01 be 33 a1 5c 3f ba 96 29 bf
       -0.49747974 -0.12665713 0.8618347 -0.66245615
000090 3b ba c0 b9 35 9d 87 be 1f 88 15 bf 8c b8 06 be
       -0.00036759846 -0.26487127 -0.5841083 -0.13156337
0000a0 b1 e6 8a bd ca 02 d8 be 0c ce 63 3d 9a 83 d7 3d
       -0.06782282 -0.42189628 0.055616423 0.10523148
0000b0 e1 df 26 3e 6f 7c 06 be 7e e2 0a 3f 69 ba 0d 3f
       0.1629634 -0.13133405 0.5425185 0.55362564
0000c0 88 4c b2 3e 11 00 78 3d ed ba ba bc 40 bd a2 be
       0.34824014 0.06054694 -0.022794211 -0.3178501
0000d0 17 26 a6 bb ee 64 d8 bc e4 8d 8b 3e 1c d6 ff be
       -0.0050704586 -0.026415315 0.2725669 -0.4996804
0000e0 ae b7 cd 3e 4c ce fd bc f6 ca 2a 3f 3b 53 6c 3e
       0.401792 -0.03098216 0.66715944 0.23078625
0000f0 a1 49 fe bd 95 53 91 be 50 b3 6d 3c 8f af 57 3d
       -0.12416387 -0.2838408 0.014508083 0.05265766
000100 7c bb 22 3d 19 17 b5 3f 63 14 f3 3d 5e 90 96 be
       0.03972958 1.4147674 0.11869123 -0.29407018
000110 25 6a ae be f3 94 4c 3e d2 7e ca bd 96 44 5b be
       -0.34065357 0.19978695 -0.0988747 -0.21412882
000120 62 d7 ba 3d 97 3f 3a 3e d5 d3 06 bf 3e aa e7 3c
       0.09123112 0.1818832 -0.5266698 0.02827942
000130 db 1f a4 bd bb 53 04 3e 59 98 1c be 07 63 a2 be
       -0.080138884 0.12922566 -0.15292491 -0.31716177
000140 94 de 13 bd 86 6d a1 3e 4e e1 7e 3d 86 09 19 bd
       -0.03610094 0.31528872 0.062226586 -0.037362598
000150 b7 c6 9f bd 3a fc e0 3d 6e 39 aa bd 38 e6 7f be
       -0.07801574 0.109856084 -0.08311735 -0.24990165
000160 46 a6 cc bd 14 40 14 3e ff 96 a2 3c 79 1d bd be
       -0.09992652 0.14477569 0.019847391 -0.36936548
000170 3b e0 06 3f 15 05 4a 3d aa 35 ac be 10 ac 5a 3d
       0.526859 0.049321253 -0.33634692 0.053386748
000180 07 7c 2a be 00 61 5d 3d ca 18 6c c0 cf e3 3b 3e
       -0.16648875 0.054047585 -3.689013 0.18348621
000190 1c 40 21 bd 0a 43 7b bf c9 30 ef 3d ba 2f 4b 3e
       -0.03936778 -0.9814917 0.11679227 0.19842425
0001a0 bf d6 81 be df e5 71 be 55 ad 75 3e 0c 7d 46 3e
       -0.2535915 -0.23622845 0.23991902 0.19383639
0001b0 b9 3b a6 bb 57 fb 4e bc 23 af ed bd 11 14 ad be
       -0.0050730375 -0.012633166 -0.1160567 -0.33804372
0001c0 79 05 8f be 18 58 cd 3e db db 0e 3f 12 e5 d6 bd
       -0.27933863 0.40106273 0.5580422 -0.104929104
0001d0 e5 7c be bc 1e 13 03 be 50 a1 b4 bc 78 15 da bb
       -0.023252914 -0.12800261 -0.022049576 -0.0066553913
0001e0 0d 68 cf 3d d9 cd ad 3d 5b 65 65 3e ed 1f a6 be
       0.10127268 0.08486528 0.22401945 -0.32446232
0001f0 21 a2 43 3f 95 87 cc 3e aa e1 98 3d 25 c8 64 3c
       0.76419264 0.3994719 0.07464917 0.013963734
000200 75 3e 1e be d4 1f 5f be a0 50 af bc d3 9d 23 40
       -0.15453513 -0.21789485 -0.02140075 2.5565078
000210 01 2e 11 bf d1 57 e7 be 5a 03 9c bd e6 f2 90 3e
       -0.5671082 -0.45184186 -0.07617827 0.28310317
000220 7c 45 36 3e ad b6 42 3e 33 df f7 be c7 ca 92 bd
       0.17799944 0.19014998 -0.48412475 -0.07167583
000230 98 9b 40 bf 11 ba 96 3e cd f3 67 bd 81 fd d1 be
       -0.7523742 0.29438832 -0.05662899 -0.4101372
000240 ee 31 03 3e e9 87 6e be 7d e7 22 3f 94 be 2d bd
       0.12812015 -0.23294033 0.63634473 -0.042418078
000250 0d 83 12 be 9c 26 12 bd df 64 ee 3d 5b ba b3 3d
       -0.14307804 -0.035681352 0.116403334 0.08775779
000260 9f 4b b7 3e 7d 2c 1e 3e 38 fb fe bd 06 55 88 be
       0.35799882 0.15446658 -0.1245026 -0.26627368
000270 13 a1 06 3f 15 78 2b 3e 46 53 53 3d fb 00 1d be
       0.5258953 0.16745026 0.051593088 -0.15332405
000280 27 a7 42 3e 45 8c 0e be 47 68 21 3e b8 f1 93 bc
       0.19009076 -0.13920696 0.15762435 -0.018059596
000290 9e cb 68 bf ba ce 09 3e 61 62 7d be fd 61 b4 bd
       -0.90935695 0.13457766 -0.2474456 -0.08807752
0002a0 4a 0e a8 bd 99 2e b4 bb b2 fc e9 3b dc 45 6c 3e
       -0.082058504 -0.005498719 0.0071407193 0.23073524
0002b0 c8 71 15 be 79 bd 28 3e 58 16 9e 3e 2e d8 c4 bd
       -0.14594185 0.16478528 0.30876422 -0.096115455
0002c0 12 b7 e4 bd d4 c0 bf bd a1 d7 ea 3e 1a 5c eb 3c
       -0.111677304 -0.09362951 0.45867637 0.02873044
0002d0 7b 27 95 3e a5 c9 eb 3c 32 76 d1 3d b5 ee b6 3d
       0.29131684 0.028782675 0.10227622 0.089322485
0002e0 92 b6 e7 bd 9c 96 f0 bd d8 09 57 3e 9a 7e f2 3e
       -0.113141194 -0.117474765 0.20999849 0.47362214
0002f0 56 93 7c 3e 97 4d 18 be c2 75 13 3e 76 d7 0d 3f
       0.24665579 -0.14873348 0.1440039 0.5540689
000300 08 b3 ac be 7a 82 32 be 6c 12 f1 3d d8 6c 57 3d
       -0.3373034 -0.17432585 0.11771092 0.052594036
000310 60 d5 fc bb 60 f3 71 3e f0 29 2b bf c8 40 bf 3e
       -0.007715866 0.23627996 -0.66860867 0.37354112
000320 78 b3 da be cb 25 23 3e 9b f3 bd 3d e6 80 42 3d
       -0.4271505 0.15932386 0.0927498 0.04748621
000330 13 3b 15 be 41 18 fe 3c dc 86 02 3e 51 fb 8d 3e
       -0.14573316 0.031017425 0.12746757 0.27730802
000340 98 b6 0a be cd 4d ea bd 8c 6b b0 bb 2e be 68 3e
       -0.13546216 -0.114406206 -0.0053839143 0.22728798
000350 69 14 c1 be 81 91 f0 be 9e b0 65 3e 10 c3 41 3d
       -0.37710884 -0.4698601 0.22430655 0.047305167
000360 b8 0a ad bd 3c d4 38 3d ff 5b ae bd b5 3d d4 be
       -0.0844931 0.045124277 -0.085136406 -0.4145333
000370 ed 2a ce 3d 18 40 05 3d b1 c4 cf 3e 54 5e a1 bd
       0.10066781 0.032531828 0.4057975 -0.0787932
000380 b4 4d 2d 3e 86 94 b2 3c 0e 7f a1 3e 42 11 8c 3d
       0.16924173 0.021799337 0.31542248 0.06839229
000390 a6 76 4d 3d 98 dd 14 3e 46 2f 85 be a9 9a 73 3e
       0.05016198 0.14537656 -0.2601263 0.23789467
0003a0 17 15 0d bf df e8 f3 bd ba c7 b1 3e 54 44 88 3e
       -0.55110306 -0.11909651 0.34722692 0.2661463
0003b0 59 5f 3b 3f 04 44 f9 bd 46 a3 9d bd 58 fa f8 be
       0.73192364 -0.12171176 -0.076971576 -0.48628497
0003c0 5d 1d 08 bd 2d 0d 97 3e 9c e9 bc be 2a d7 8e 3e
       -0.033231128 0.2950224 -0.3689698 0.27898532
0003d0 c8 88 26 be bf a6 b3 bc 57 4b 1b be 3c 22 88 bd
       -0.16263115 -0.021930097 -0.15165459 -0.06647155
0003e0 c7 59 1c be 0a f5 3d 3b 9f 51 19 bd 1d ca e2 3d
       -0.15268622 0.0028985166 -0.037431356 0.11073706
0003f0 64 bc 58 3d 0a 5c a3 3e ff 0a bf be 15 74 c6 3d
       0.05291404 0.31906158 -0.37313077 0.0969011

fc1.bias f4 [256]
000000 b3 b8 d6 3e 0c d2 2b be 0f b0 22 be 3f 6e 1b be
       0.4193779 -0.16779345 -0.15887474 -0.15178774
000010 a4 b0 95 3e 83 4f 9a 3e 90 36 47 be 0a 57 aa 3e
       0.2923633 0.30138788 -0.19454408 0.3326953
000020 4d ab 95 3e 33 54 a6 3b 91 81 af be fd f9 1a be
       0.29232255 0.0050759553 -0.3427854 -0.15134425
000030 ff b6 64 be dd bb b1 3d 35 71 88 3c 27 63 a9 3e
       -0.22335432 0.0867841 0.016655544 0.3308346
000040 64 dc 09 be 55 fd 51 be 4d 88 d2 be 2e 61 22 3e
       -0.13462979 -0.20506795 -0.41119614 0.15857384
000050 82 ba 52 bf 08 94 b3 3d 6a a4 99 3d 61 49 94 3e
       -0.8231584 0.08768469 0.075020626 0.28962234
000060 b5 d3 a5 be 03 a5 76 be 7a 4b 78 3d 8c 6a 55 3d
       -0.32388082 -0.24086384 0.060618855 0.052103564
000070 db ef e2 3c e6 5e 02 bf 89 78 c6 be 0e 9c 79 3e
       0.027702263 -0.50926054 -0.38763836 0.24375936
000080 be 73 01 3f ae 00 1a 3d df 9d c9 3e e5 f1 67 bd
       0.50567234 0.037598304 0.3937826 -0.056627173
000090 6c 63 2f 3e b6 8c 5c be bd 99 99 be 2d 2c 28 3e
       0.1712777 -0.21538052 -0.30000106 0.16423102
0000a0 85 87 8b bd e4 68 d4 3e 02 4d 5b be b6 de 85 be
       -0.06812958 0.41486275 -0.21416095 -0.26146477
0000b0 94 20 3b be d9 75 bf bd 64 2c 03 bf ee 6c b1 bd
       -0.18274146 -0.093486495 -0.5123961 -0.08663355
0000c0 54 1a d4 bc 0e 74 fd 3e 17 81 b8 bd 38 e4 56 3e
       -0.02589146 0.49502605 -0.09008997 0.20985496
0000d0 21 c2 1a 3c 5b e7 88 3e b5 d1 d1 bc c5 40 34 3e
       0.009445698 0.2673901 -0.025612691 0.17602833
0000e0 9a 44 e5 3d 4f 97 3c be b1 70 24 bd d1 54 d5 3d
       0.11194725 -0.18417095 -0.040146533 0.10416568
0000f0 38 8f ee bd 3a 9b ef be 05 c6 4e bc cb b7 c3 be
       -0.116484106 -0.46798116 -0.012620454 -0.3822616
000100 b1 fa df 3e a9 fd 7e 3d 59 a2 96 3d 20 5a 02 3e
       0.4374595 0.062253628 0.07355184 0.12729692
000110 85 9d 2d be 3c c0 b6 3e e3 37 d3 3c cf 01 4f be
       -0.1695462 0.35693538 0.025783485 -0.20215534
000120 60 c9 f0 be 7d 55 dd 3e 2e b6 95 3e 2d eb a9 3e
       -0.47028637 0.43229285 0.29240555 0.33187237
000130 ad 76 b1 3d f8 e5 1e bf 9b 0d db 3e b9 ad 85 3e
       0.08665214 -0.62069654 0.42783818 0.26109102
000140 dc 56 a0 be 2f 8f e4 be aa e0 f7 bd 1b 70 83 be
       -0.31316268 -0.4464049 -0.12103398 -0.25671467
000150 23 6e 00 be 96 1a cf bb b0 e8 b3 3e a1 66 9f 3d
       -0.12542014 -0.006320308 0.35138464 0.07783247
000160 56 e4 ad bd 66 9d 98 be b1 62 9a bd a4 b9 2a be
       -0.08490817 -0.29807585 -0.07538355 -0.16672379
000170 5b 66 9e bc 80 6a 89 be e5 94 39 3e ad ba 9c 3e
       -0.019335916 -0.26839066 0.18123205 0.30611172
000180 68 ce 46 be e4 1e ba be 12 c9 a2 be b8 af a4 bd
       -0.19414675 -0.36351693 -0.3179403 -0.08041328
000190 bf 58 e5 bd dc fa 5e 3e 55 70 d9 3d 39 04 12 3d
       -0.111985676 0.21775383 0.10617129 0.03564856
0001a0 cc 28 87 be dd ac f2 3e c9 05 e6 be a1 4e 6a bc
       -0.26398313 0.4739751 -0.4492629 -0.014300973
0001b0 3b 25 2c be 44 ea 8f 3d cd 50 59 3e d7 c7 d7 3e
       -0.16811077 0.070271045 0.2122223 0.42144653
0001c0 81 5d cb 3e 81 12 e1 bd 5f 83 82 3d af da bd 3d
       0.39719775 -0.109898575 0.06372713 0.09270226
0001d0 2e e1 2c be 80 ec 86 be 12 93 53 3e 33 62 2a be
       -0.16882774 -0.2635231 0.20661572 -0.16639023
0001e0 cf d8 4d 3e 5b f4 a5 be 54 34 ba be a3 6f eb 3e
       0.20102237 -0.3241299 -0.36368048 0.4598361
0001f0 aa 2a ef bd eb fa d2 3d 3b f5 79 be 60 e1 c0 be
       -0.116780594 0.10301765 -0.24409954 -0.37671947
000200 22 5b 4a 3d c2 d7 cf 3e ad 2d b7 be c7 56 54 be
       0.049403317 0.40594298 -0.35777035 -0.20736228
000210 03 78 29 be 56 fa 67 3e 0a 59 97 3e 0f ea d7 bd
       -0.16549687 0.2265409 0.2956012 -0.1054269
000220 f8 51 bb be 07 2f a4 3e 84 20 94 3e 84 b9 ba bd
       -0.36585975 0.3206713 0.28931057 -0.091174155
000230 59 af 1c be d6 71 dd be b0 98 b4 be 06 d3 0b be
       -0.15301265 -0.43250912 -0.3527274 -0.13654718
000240 3a 1b 0f 3e e9 e2 9c 3e 81 bf d8 be 6f 07 26 bd
       0.1397523 0.3064187 -0.42333606 -0.040534433
000250 03 7d 1e bf a7 bf 93 be 3a e9 7b bd cd 62 85 bd
       -0.619095 -0.28857157 -0.06150172 -0.065129854
000260 e2 0d 3b be a7 ae fd be 6f da b5 3e e2 62 9f 3e
       -0.18267015 -0.49547312 0.35518214 0.3113013
000270 0b 10 cf be 30 a4 39 3e 6f 53 87 be 28 b2 bc bc
       -0.40441927 0.18129039 -0.26430842 -0.02303417
000280 2f f7 e1 bd a3 f7 4e 3e 6f d3 b6 3e 24 2c ea 3d
       -0.11033475 0.20211653 0.35708186 0.114342004
000290 55 92 62 3c 95 34 e0 be d2 c1 c6 3e 6d e9 f6 be
       0.013828834 -0.43790117 0.38819748 -0.48224965
0002a0 a9 57 f3 3d 4b 7a fe 3c 63 81 8e be 0a c3 96 be
       0.11881954 0.031064173 -0.2783309 -0.29445678
0002b0 21 4e e5 3d 04 90 c2 3d 4c dc aa 3d eb f1 06 3f
       0.111965425 0.09500125 0.083427995 0.5271289
0002c0 75 4d c0 be 61 75 4c 3e 10 0e ca be 6e c7 a2 be
       -0.37559095 0.19966651 -0.39463854 -0.31792778
0002d0 13 6c 64 3d 2c 11 95 3e 09 07 83 3e de 75 6f 3e
       0.05576713 0.29114664 0.25591305 0.23384807
0002e0 17 42 3b bf f1 32 83 3e b3 24 6d 3c 6a c4 1c be
       -0.7314772 0.25624803 0.014474082 -0.15309301
0002f0 af c0 01 bf 78 bb 3a 3d 48 11 34 bc 91 86 ad 3e
       -0.50684637 0.04558894 -0.010990448 0.3389173
000300 70 cc 29 bf e3 03 23 3e 5a 1d 3a be 07 44 b7 3e
       -0.6632757 0.15919451 -0.18175259 0.35794088
000310 d1 ca b3 bd 4c d1 36 be a6 3a 15 bd ca 7d 89 3e
       -0.087789185 -0.17853278 -0.036432885 0.26853782
000320 cf 8d e3 bd 33 45 41 3e 2a c4 ff 3c 2a e2 84 be
       -0.11111032 0.18874054 0.031221468 -0.259538
000330 c2 ae bf be 07 fb 8b bd ef 43 6b 3d a5 12 8b be
       -0.37438017 -0.06834989 0.057437833 -0.27162662
000340 bf 5d 30 bf 4c 47 cd be 44 99 26 3c b3 62 55 3d
       -0.68893045 -0.40093458 0.010168377 0.05209608
000350 ce 6b 84 3e 89 95 fa bc 3a ff 83 bd 73 8d bc bd
       0.25863498 -0.030588882 -0.06445165 -0.09206667
000360 a4 08 cd be ff cc da bd c2 77 da 3e 57 12 8b 3e
       -0.40045655 -0.10683631 0.42669493 0.2716243
000370 b9 f2 f2 be ff 54 3b be 6c 0d aa be ea 71 33 be
       -0.47450808 -0.18294142 -0.33213365 -0.17523924
000380 d9 09 2b bc a4 93 c9 3d 4a b7 81 bd b9 0b 02 bf
       -0.01043936 0.09842613 -0.06333788 -0.5079914
000390 d7 89 4d bf ac 97 2b 3e 20 5a 41 bd 37 d0 74 3d
       -0.8028845 0.16757077 -0.04720509 0.05976888
0003a0 e0 73 85 3e 4f 46 84 be 4a cb ac bd 6c 55 c8 bd
       0.26064968 -0.2583489 -0.08437212 -0.09781918
0003b0 a0 4d b0 3e 88 70 1f be 8a b6 56 3e 53 bb 06 3e
       0.34434223 -0.15570271 0.2096807 0.13157396
0003c0 94 a2 0d 3e 8e 38 04 3c fd 5e 2b be 8b 3d 05 bf
       0.1383155 0.008070124 -0.16735454 -0.5204703
0003d0 2f 37 da be 9b b1 bb 3c e1 98 2c 3e d0 e6 4a 3e
       -0.42620227 0.022911837 0.16855194 0.1981461
0003e0 41 b1 a2 bd 39 43 bc b9 dd 36 24 bc ef 8c 9e 3e
       -0.07943965 -0.0003590824 -0.010022846 0.309669
0003f0 5c b1 50 bd ad 31 7f bd c1 b7 a8 3d 6e 72 2f 3e
       -0.050950393 -0.062303234 0.08238173 0.17133495

fc2.weight f4 [4, 256]
000000 47 7c 7a bf 2b 5d 75 bf 3c a7 63 be 01 15 6d 3f
       -0.9784588 -0.9584529 -0.22231764 0.92610174
000010 0e f0 61 3e 5c 85 ab 3e 2f 68 93 3b c0 ec 04 be
       0.2206423 0.33500183 0.0044985036 -0.12980938
000020 f2 85 cc 3e 4b af 39 3e 9d f2 a4 3f 7f 70 aa 3f
       0.39945942 0.18133275 1.288654 1.3315581
000030 4d b8 53 3f 32 7f 81 bf 86 b6 8f 3d 04 41 71 3e
       0.82703096 -1.0116942 0.070172355 0.23559958
000040 42 f1 94 bf 07 c2 ce be 8e fe db 3e b6 3d f7 be
       -1.1636126 -0.40382406 0.42967647 -0.4828927
000050 ca e0 99 be 63 e5 3c be 0f 03 fb 3d fd d7 11 3f
       -0.30054313 -0.18446879 0.12256443 0.56970197
000060 08 7b 64 3f da 3e 23 3e ee 40 e0 be cd e4 ce bd
       0.8925023 0.15941945 -0.43799537 -0.10102234
000070 98 a3 22 bc d8 43 ed 3d 4f 76 61 be d4 8a e9 3c
       -0.009926699 0.11585206 -0.22017787 0.028508581
000080 95 1e 85 3d f3 77 6b 3e 2d 28 92 3d 92 4c b0 3e
       0.06499974 0.22994976 0.07136569 0.3443342
000090 31 85 ba 3f 80 95 19 be b4 3e b2 be f1 03 17 3f
       1.4571897 -0.14998436 -0.34813464 0.5899039
0000a0 12 d4 ea 3d fa a9 11 bf 85 3c 67 3f 4c fe 1e 3f
       0.114662305 -0.5689999 0.9032672 0.62106776
0000b0 14 4f 5b c0 a3 26 fe 3d bb 39 f0 3e b4 ba 38 3d
       -3.4267015 0.12409713 0.46919045 0.04509993
0000c0 43 60 6c be b7 84 e1 3e 8d a7 d8 3e 40 ca 97 bf
       -0.23083596 0.44046566 0.4231533 -1.1858597
0000d0 82 ab 0a 3f 4d 2d 01 3f 40 1d ce 3f 1a 5f 3d be
       0.5416795 0.5045975 1.6102676 -0.1849331
0000e0 d2 c5 de be 95 fb 20 3f 7e cd a5 3f 64 ac b5 3d
       -0.435103 0.62883884 1.2953336 0.088707715
0000f0 47 b8 56 3f 53 96 7a bf da 69 b9 be 8a cd d8 3d
       0.83874935 -0.97885627 -0.3621357 0.105860785
000100 e5 21 77 bf b8 ba d4 3e 77 32 b3 be ce 6d 4d 3f
       -0.96536094 0.41548705 -0.3499944 0.80245674
000110 69 73 69 bd 1b e0 ca 3e ee d6 1b 3e cd 16 9d 3f
       -0.05699483 0.39624104 0.15218708 1.2272583
000120 b1 34 a5 bf 94 ef 36 3e 70 29 6b be 0f 38 8a bf
       -1.2906705 0.1786483 -0.22965026 -1.0798358
000130 41 41 69 be 10 2f a2 bf 43 75 02 3d 31 1e 82 3e
       -0.22778799 -1.2670612 0.03185011 0.2541366
000140 2a 88 3f 3f 44 95 93 be fc ac 91 3e 7e fe d6 3e
       0.74817145 -0.28824818 0.2845229 0.41991037
000150 36 26 09 3f 99 33 05 3f 9d 17 86 3d c4 c1 bc 3f
       0.5357393 0.52031857 0.065474726 1.4746633
000160 ce 25 f6 bd 8d a9 b0 3d 41 54 26 3f b3 06 43 bf
       -0.120189294 0.08626089 0.6497231 -0.761821
000170 bb 77 27 3f f2 da ca bf e9 59 f0 be 18 fe d9 bf
       0.6541707 -1.5848067 -0.46943596 -1.7030668
000180 d0 8b 18 bf 57 dd f9 be 6e 86 7a be 69 bf 7f bf
       -0.59588337 -0.4880168 -0.24465343 -0.99901444
000190 6f 5d 46 bf a1 e6 1a bf 7e da 47 3e a9 8f 69 3d
       -0.7748632 -0.6050816 0.19516942 0.05702177
0001a0 dc 15 6c be aa f3 39 bf cf 10 dd bf d3 e9 13 be
       -0.23055214 -0.72637427 -1.7270755 -0.14444666
0001b0 62 08 9a 3e 52 da 0d 3e 8f 48 00 3f ac c5 d4 bc
       0.3008452 0.13852814 0.50110716 -0.025973164
0001c0 c7 5e 0b be cf c9 8e 3f 79 7d 0b bf ed 6b 64 3e
       -0.13610373 1.1155337 -0.5448833 0.22306795
0001d0 e9 e0 e2 3e c0 6a 6e 3f 9a fd aa be b4 fa 43 3f
       0.44312218 0.9313164 -0.33396608 0.7655442
0001e0 16 49 b8 bf 61 40 7c bf e6 17 17 c0 5d 92 5f be
       -1.4397304 -0.98535734 -2.3608336 -0.21833177
0001f0 d1 7b 8d be 46 3d b2 3e 95 31 52 3f f3 34 3d bf
       -0.27633527 0.34812373 0.82106906 -0.7390892
000200 5e 30 e2 be d7 c8 c6 3e ae 1f 86 3f 8e fc 14 be
       -0.44177526 0.38825104 1.0478418 -0.14549467
000210 16 aa dc 3d 3b 85 12 bf 81 d6 1b 3e df 38 18 3f
       0.10774629 -0.57234544 0.15218545 0.5946178
000220 62 9f bd 3d 5d 0f 1c bf bf b8 ec be f7 b5 38 3f
       0.092589155 -0.6096094 -0.462347 0.72152656
000230 dd 5f 86 bd 7d a9 2d bc 9f 15 6e c0 e7 a0 a1 3e
       -0.06561253 -0.010599491 -3.7200696 0.3156807
000240 d1 a5 81 3e 24 ba a4 3d d1 68 12 3f 7a 5f 01 bf
       0.2532182 0.08043316 0.5719119 -0.5053631
000250 c5 90 22 3f d0 a0 75 bf 29 5e b3 bf 1e db bd 3f
       0.6350215 -0.95948505 -1.401311 1.4832494
000260 df 89 4f 3f 2d a5 53 be 61 81 dc 3e 60 b1 46 bf
       0.8106975 -0.20668478 0.43067458 -0.776144
000270 55 2f be bd 02 10 2b 3f 6e 98 3e 3f ba d2 25 bf
       -0.092863716 0.668213 0.7445134 -0.6477467
000280 52 92 5f 3e e6 7d 60 bf 99 e9 86 3f 0d ab 51 bf
       0.2183316 -0.87692106 1.0540038 -0.8190163
000290 14 7b db 3d 55 09 3d bf e3 77 ca be 69 67 9d be
       0.10716835 -0.73842365 -0.3954459 -0.30742958
0002a0 55 55 a7 bd 49 9c 82 3e 1c 16 41 c0 ad 05 04 3f
       -0.08170573 0.2550986 -3.0169744 0.5157116
0002b0 c6 31 69 3f 0a a3 8d be b6 dd 3b bf 98 a7 e8 be
       0.91091573 -0.2766345 -0.7338518 -0.45440364
0002c0 97 db 79 3f dc d7 90 be 16 75 20 bf 29 f5 95 bf
       0.9760069 -0.28289688 -0.6267866 -1.1715442
0002d0 a9 70 66 bc f6 89 a8 3d 75 29 4e bf f5 b5 4d 3f
       -0.014064946 0.08229439 -0.8053201 0.8035577
0002e0 bf 32 02 bd 19 9e 6b bf 02 04 5a 3f f4 e9 ac 3f
       -0.031786676 -0.9203811 0.85162365 1.3508897
0002f0 3a c6 b6 bc 8f 70 f4 be cc 16 a1 3e e8 b1 c1 be
       -0.022311319 -0.47742125 0.31462705 -0.37831044
000300 c9 3f 98 bf 73 c3 79 bf 0e 08 e0 3e 75 ab 08 3f
       -1.1894466 -0.97563857 0.43756145 0.5338662
000310 5b 7d ff bc 63 0f 58 3e d9 8c 34 3f 8b 02 9d 3e
       -0.031187704 0.2109962 0.70527416 0.30666003
000320 1f 12 18 3f 53 28 6f be f7 18 ce bd 4b c5 b2 bf
       0.5940265 -0.23355226 -0.100633554 -1.3966459
000330 46 12 1f bf 6e 35 e6 3e 85 b3 0f 3f 55 93 98 3d
       -0.6213726 0.4496264 0.561333 0.07449976
000340 ea 77 95 3c d0 20 45 be ed 4a 8b 3f a1 44 4c 3f
       0.018245656 -0.19250798 1.088224 0.7979222
000350 ab 83 97 bd d9 22 8a 3e 57 21 73 3f 85 df 0f 3c
       -0.073981605 0.26979712 0.9497275 0.008781319
000360 90 bd 5e 3f 5f 07 05 40 c4 46 38 3e 89 1c a2 be
       0.87008 2.078575 0.17995745 -0.31662396
000370 f8 b1 7e 3e 08 90 21 3f 3c 5c b0 bf e7 68 94 be
       0.24872577 0.631104 -1.3778148 -0.28986284
000380 61 8a 8e 3e 60 a3 20 bf ea 9d dd 3e d3 69 1e 40
       0.2783995 -0.6274929 0.4328454 2.475209
000390 ff 4f 57 3f b5 ba 13 3c 1d 94 3f bf f2 e6 62 bf
       0.8410644 0.009016682 -0.7483538 -0.88633645
0003a0 a8 9e 79 bf a9 65 38 bf 06 2d 84 c0 53 2e ce 3e
       -0.97507715 -0.7203012 -4.130496 0.40269718
0003b0 e1 09 da 3e 72 c5 92 3f 86 92 21 be 64 96 b7 3e
       0.42585662 1.1466506 -0.1577855 0.35856926
0003c0 17 31 5e 3f f4 08 bb 3e 94 8d 35 be a7 33 5a be
       0.86793655 0.36530268 -0.17729789 -0.21308766
0003d0 43 86 bd bf 49 1c 09 bf 2d fd b5 be cb 54 78 bf
       -1.4806598 -0.53558785 -0.3554472 -0.97004384
0003e0 df 31 b0 be 97 69 4a 3d b1 10 37 3f aa 99 23 be
       -0.3441305 0.049417105 0.71509844 -0.15976587
0003f0 c7 cc a3 bf 56 b2 c9 3e b0 44 ce be 77 b3 9a 3e
       -1.2796868 0.39393872 -0.4028678 0.30215046

fc2.bias f4 [4]
000000 37 bc 45 3e c7 fd f1 bd b3 7f 08 be af d3 04 be
       0.1931008 -0.11815982 -0.13329963 -0.12971376
