project2-continous_control/checkpoint/actor_local.pth (torch_old, 39778 bytes, 4 tensors)

fc1.weight f4 [256, 33]
0	0x3f28f52c	0.659991
1	0x3eb20854	0.3477198
2	0xbf3ca919	-0.7369552
3	0xbeac1e1e	-0.33616728
4	0x3e3e7bca	0.1860191
5	0x3f13ea9f	0.5777988
6	0xbc033787	-0.008008844
7	0x3eff7be1	0.498992
8	0x3f0794cf	0.5296144
9	0x3dc82374	0.09772387
10	0x3e4437fe	0.19161984
11	0xbe213f10	-0.15746713
12	0xbe6e58a3	-0.23276
13	0xbf2bb759	-0.6707664
14	0x3eaa728d	0.3329052
15	0x3f8a7208	1.081605
16	0xbc536196	-0.012901684
17	0xbd0747ad	-0.03302734
18	0x3dac2e7f	0.08407306
19	0xbd7f5840	-0.06234002
20	0xbf0595de	-0.52181804
21	0x3f16f205	0.5896304
22	0x3ed77027	0.42077753
23	0xbd63e8f0	-0.05564207
24	0x3e5128ec	0.20425767
25	0x3ee6e740	0.45098305
26	0x3e5e1823	0.21688895
27	0xbda0ac91	-0.078454144
28	0xbe429f0c	-0.19005984
29	0x3d9c488c	0.07631025
30	0x3ce72ca6	0.028219532
31	0x3df0e734	0.117628485
32	0xbf8795a2	-1.0592539
33	0xbf0271ad	-0.50954705
34	0x3f5e66e9	0.8687578
35	0xbea2d3d4	-0.31802237
36	0xbe51054e	-0.2041218
37	0xbf45cf5d	-0.77269536
38	0xbe5c8346	-0.21534452
39	0x3d3f08b6	0.046639167
40	0x3c36ab43	0.01114923
41	0xbf31a7e4	-0.69396806
42	0xbe0cfaad	-0.137675
43	0x3e913295	0.28358904
44	0x3d35108d	0.044205237
45	0xbda1e61d	-0.07905219
46	0x3f32baf5	0.69816524
47	0x3e704655	0.2346433
48	0x3f15bf2f	0.5849485
49	0x3e3c9e1c	0.18419689
50	0xbd32c39b	-0.043643575
51	0xbda777ee	-0.08177172
52	0xbcb50497	-0.022096915
53	0x3da7f9e6	0.08201961
54	0x3d023cf7	0.03179642
55	0xbe939ac0	-0.28829002
56	0x3e62e8e6	0.22159156
57	0xbe78136e	-0.24226162
58	0x3eb0a12d	0.34497967
59	0x3ee33b96	0.44381398
60	0x3e268588	0.16261876
61	0xbe9d1590	-0.30680513
62	0x3c6db350	0.014508083
63	0xbe6fbe59	-0.23412456
64	0x3d22bb7c	0.03972958
65	0x3fc6823f	1.5508498
66	0x3ece3fa4	0.4028293
67	0x3dcf91c7	0.10135227
68	0xbe23d133	-0.15997772
69	0xbdb1be60	-0.08678889
70	0x3e8ee57c	0.27909458
71	0x3d8022b0	0.06256616
72	0x3e2c558b	0.16829507
73	0xbc8bd82c	-0.017070852
74	0xbec953c1	-0.39321712
75	0xbc8f612d	-0.017502392
76	0x3b5190e1	0.0031977224
77	0xbebde76f	-0.37090632
78	0x3e0cf028	0.13763487
79	0xbf131f9f	-0.57470125
80	0x3eb4e75c	0.35332763
81	0x3ec295b5	0.38004842
82	0xbdcb3413	-0.09922042
83	0xbdbda8c5	-0.09260706
84	0x3dbace3a	0.09121366
85	0x3dcffa61	0.10155178
86	0x3ec363bd	0.38162032
87	0xbf3f6a71	-0.7477179
88	0x3f004e9c	0.5011995
89	0xbeb95ae7	-0.36202165
90	0x3d234a68	0.03986588
91	0x3e289764	0.16464001
92	0xbcfe1598	-0.031016156
93	0x3e9f6649	0.31132725
94	0xbf235805	-0.6380618
95	0x3d5aac10	0.053386748
96	0xbedb6305	-0.42848983
97	0x3d5d6100	0.054047585
98	0xc08d54d3	-4.4166045
99	0x3dc44a76	0.09584515
100	0x3e2100d0	0.15722966
101	0xbf9c1c0d	-1.219606
102	0xbe637928	-0.22214186
103	0xbcf0d17a	-0.029396761
104	0x3eb9cf63	0.36291036
105	0xbf0e1f39	-0.5551639
106	0x3e9f5db0	0.31126165
107	0x3dd9f3ce	0.10642205
108	0xbdb2af1f	-0.08724808
109	0xbe0a6088	-0.13513386
110	0x3e063181	0.13104822
111	0xbe5ad2d1	-0.21369483
112	0xbeaeb2f5	-0.34120908
113	0x3e6ed4b1	0.23323323
114	0x3f78a43a	0.9712559
115	0x3e304a6f	0.17215894
116	0xbd550c82	-0.05201388
117	0x3dbf51ea	0.09341796
118	0x3d0bae34	0.03410168
119	0x3d0b30cd	0.033982087
120	0xbe897c66	-0.2685272
121	0x3e7bb023	0.2457891
122	0xbcacfe41	-0.021117331
123	0xbd88572d	-0.066572525
124	0x3e8c7d35	0.27439275
125	0x3f0f8cb0	0.5607405
126	0x3f0bbe46	0.5458721
127	0xbe8fac97	-0.28061363
128	0xbe1e3e75	-0.15453513
129	0xbf306ac6	-0.68912923
130	0xbcaf50a0	-0.02140075
131	0x40085332	2.1300778
132	0xbf06848e	-0.5254601
133	0xbeb817d8	-0.3595569
134	0x3d1cfcb5	0.038326938
135	0xbe23f8ee	-0.16012928
136	0x3e29d5ee	0.16585514
137	0x3f840f97	1.0317258
138	0xbf04e019	-0.51904446
139	0x3d15313e	0.036423914
140	0xbe241b7c	-0.1602611
141	0x3ca319e2	0.019909803
142	0xbdea70dc	-0.114473075
143	0x3ed763e4	0.42068398
144	0x3da52f57	0.0806567
145	0xbe42b3e1	-0.19013931
146	0x3f566e24	0.8376181
147	0x3e0cada0	0.13738108
148	0xbd5241c3	-0.051332247
149	0xbceb3c75	-0.028715352
150	0xbd13fbd9	-0.036128853
151	0x3d908087	0.07055765
152	0x3e8e2fbb	0.2777079
153	0x3cfdc80e	0.030979183
154	0xbeec9462	-0.46206957
155	0xbe89406d	-0.26806965
156	0x3e1d382d	0.1535346
157	0xbd5744e8	-0.05255595
158	0x3cb9937f	0.02265334
159	0x3e1d698d	0.15372296
160	0x3e937ebe	0.28807634
161	0xbe0e8c45	-0.13920696
162	0xbe1902c4	-0.14942461
163	0xbc93f1b8	-0.018059596
164	0xbf944f44	-1.158669
165	0xbeb1ef00	-0.34752655
166	0xbddefef1	-0.1088847
167	0x3bfb8fa5	0.007677036
168	0xbed663f8	-0.41873145
169	0xbea80a9f	-0.32820603
170	0xbe8fb995	-0.28071275
171	0x3e7db629	0.2477652
172	0x3d4a09c7	0.04932573
173	0x3f11e6ad	0.5699261
174	0x3f1a194c	0.6019485
175	0x3e51fade	0.20505854
176	0xbea2389e	-0.3168382
177	0xbe915d3f	-0.28391454
178	0x3cf9c9a1	0.030491652
179	0x3eb9242f	0.36160418
180	0x3da34d29	0.079737015
181	0xbbb4a3b9	-0.0055126813
182	0x3d8db872	0.06919946
183	0xbe3f4c27	-0.18681394
184	0xbde910e4	-0.11380175
185	0x3ce75502	0.028238777
186	0xbb3ea43a	-0.0029089586
187	0x3ea8b5c2	0.3295117
188	0x3e8e5431	0.27798608
189	0x3e186a0b	0.14884202
190	0xbdefd730	-0.11710966
191	0x3eb18692	0.34672982
192	0x3e0a4ec6	0.13506612
193	0xbe82d8a4	-0.2555591
194	0x3df1126c	0.11771092
195	0xbed6eecb	-0.4197906
196	0xbbfcd560	-0.007715866
197	0x3fb0891b	1.3791841
198	0xbf2eb6ca	-0.68247664
199	0x3f27b7ac	0.65514636
200	0x3e4f44e0	0.20241117
201	0xbd7cd9d5	-0.06173118
202	0x3de8e7e6	0.11372356
203	0xbf24d567	-0.64388126
204	0x3f071add	0.52775365
205	0xbd4b285a	-0.04959903
206	0x3dca03be	0.09863995
207	0x3ef5eafb	0.48030838
208	0x3e1d139e	0.15339515
209	0x3de8aeba	0.113614514
210	0x3ddec77d	0.10877893
211	0x3f2b3f83	0.66893786
212	0xbcefd599	-0.029276656
213	0xbe8d628e	-0.27614254
214	0xbe20588a	-0.15658775
215	0x3dbe99d1	0.09306682
216	0xbe97aff4	-0.2962643
217	0xbcdee443	-0.027208453
218	0xbe9d8876	-0.30768174
219	0xbf7894c9	-0.9710203
220	0xbec27d1c	-0.37986076
221	0x3e7298ca	0.23691097
222	0xbeeb14f2	-0.45914418
223	0xbcd47c7c	-0.025938265
224	0x3c80676c	0.015674315
225	0x3ecf82e6	0.40529555
226	0x3e8d00bc	0.27539623
227	0x3d8c1142	0.06839229
228	0xbeaaa90d	-0.333321
229	0x3e14dd98	0.14537656
230	0xbf686b93	-0.90789145
231	0x3ea4df6c	0.32201707
232	0x3e2530f6	0.16131958
233	0xbe364c3f	-0.17802523
234	0xbe405ded	-0.1878583
235	0x3e64cac4	0.22342974
236	0xbe618f00	-0.22027206
237	0xbe84185c	-0.25799835
238	0xbe3caeed	-0.18426104
239	0xbee35c36	-0.4440629
240	0x3cb13b8c	0.02163484
241	0x3eb0f145	0.34559074
242	0xbe8b4281	-0.27199176
243	0x3ed2114e	0.41028827
244	0xbe8d214d	-0.2756447
245	0x3ed5f26d	0.4178652
246	0xbe202a2f	-0.15641092
247	0xbe3496a3	-0.17635588
248	0x3da0b186	0.0784636
249	0x3e2792e0	0.16364622
250	0xbc6c12f7	-0.014408818
251	0xbdcac392	-0.09900583
252	0x3eb38f72	0.35070378
253	0x3f02c800	0.51086426
254	0xbeeacf5e	-0.45861334
255	0x3c892d6a	0.016745288

fc1.bias f4 [256]
0	0x3d6659e3	0.056238066
1	0xbee8baec	-0.4545511
2	0xbed77d8d	-0.42087975
3	0xbf1f7e55	-0.6230214
4	0xbc706782	-0.014673116
5	0xbe2f153b	-0.17097943
6	0xbf13f944	-0.57802224
7	0xbe5d2501	-0.21596147
8	0xbdd77cc0	-0.10521841
9	0xbe821883	-0.25409326
10	0xbf28286d	-0.65686685
11	0xbe2451b7	-0.16046797
12	0xbf069e31	-0.5258513
13	0xbef747e5	-0.4829704
14	0x3ea5b2c4	0.3236295
15	0xbdf8f6e3	-0.12156465
16	0xbea28f62	-0.31750017
17	0xbf076273	-0.52884597
18	0xbf6c822b	-0.9238612
19	0x3e8bed63	0.2732955
20	0xbfc1c729	-1.5138904
21	0x3ca82b9a	0.020528603
22	0xbebb772b	-0.36614355
23	0xbdd51f37	-0.104063444
24	0xbf9f9094	-1.2465997
25	0xbeef57ce	-0.46746677
26	0xbe9ce802	-0.30645758
27	0x3daa114e	0.08304082
28	0xbe8a0381	-0.26955798
29	0xbf367043	-0.7126505
30	0xbeccc56e	-0.39994377
31	0x3e6b2abe	0.22965524
32	0x3f2426ca	0.6412169
33	0xbec97a34	-0.39351046
34	0x3e1f04d4	0.15529186
35	0xbef1bc7a	-0.4721411
36	0x3e5a39fb	0.2131118
37	0xbf0a4c66	-0.54022825
38	0xbebf3976	-0.37348527
39	0x3e761fdd	0.24035592
40	0xbe762d09	-0.24040617
41	0x3e761853	0.24032716
42	0xbe038a8d	-0.12845822
43	0xbf582dc3	-0.84444827
44	0xbee1bd79	-0.4408987
45	0xbe214a60	-0.15751028
46	0xbf502606	-0.8130802
47	0xbe691b0d	-0.22764225
48	0x3d8f94ec	0.070108265
49	0x3ec02d61	0.3753462
50	0x3c8c91e3	0.017159408
51	0x3e8591fe	0.26087946
52	0xbedbea04	-0.42951977
53	0x3e11d64e	0.14241907
54	0xbee29cdc	-0.442603
55	0x3db9433c	0.09046027
56	0xbced7e2a	-0.028990824
57	0xbe85844d	-0.260775
58	0xbed60e29	-0.41807678
59	0xbde4c377	-0.111700945
60	0xbe8e75f4	-0.27824366
61	0xbf4db09c	-0.8034761
62	0xbde49bc2	-0.11162521
63	0xbe98d571	-0.29850343
64	0x3f0cfe49	0.5507551
65	0xbefc1941	-0.49238017
66	0xbe36ee24	-0.17864281
67	0xbdd6669f	-0.10468792
68	0xbea77ea7	-0.32713816
69	0x3e07a148	0.13245118
70	0xbf61e50c	-0.8824012
71	0xbf26ea45	-0.65201217
72	0xbf71a60f	-0.9439401
73	0x3f140ff2	0.5783683
74	0x3e960c26	0.29306144
75	0x3e43f035	0.191346
76	0xbe5bd5a3	-0.21468215
77	0xbf065e08	-0.5248723
78	0x3e69136a	0.22761312
79	0x3dcc26cd	0.09968338
80	0xbebf259c	-0.3733338
81	0xbe9d14cf	-0.30679938
82	0xbeb32b00	-0.34993744
83	0xbebc5659	-0.36784628
84	0xbe4f64f2	-0.20253351
85	0xbcc532fa	-0.02407216
86	0x3ea6d8e5	0.32587352
87	0xbea7a167	-0.32740328
88	0xbe5a9df1	-0.21349312
89	0xbf0a92a7	-0.54130024
90	0xbeb0b6c5	-0.34514442
91	0xbdd77f56	-0.10522334
92	0xbd9e60fd	-0.07733343
93	0xbe000b5a	-0.1250433
94	0xbe6aff06	-0.22948846
95	0x3edd8035	0.43261877
96	0xbe9c6265	-0.3054382
97	0xbe468d70	-0.19389892
98	0xbedb9626	-0.42887992
99	0xbe2801f3	-0.16406994
100	0xbe20a714	-0.15688735
101	0xbe2f02e2	-0.17090943
102	0x3d644584	0.055730358
103	0xbdef9ae7	-0.11699467
104	0xbead16a2	-0.3380633
105	0x3f0eb6bb	0.55747575
106	0xbf18ae71	-0.59641176
107	0xbe820866	-0.25397032
108	0xbe092112	-0.13391522
109	0xbb85568c	-0.004069155
110	0x3df12956	0.11775462
111	0x3dd63dc2	0.10460998
112	0xbe61da6b	-0.22055976
113	0xbf3e3446	-0.7429851
114	0xbea5d90e	-0.32392162
115	0xbeb51bdd	-0.3537282
116	0xbe226a66	-0.158609
117	0xbebda3c7	-0.37039015
118	0xbcf3781d	-0.02972036
119	0xbec26be1	-0.3797293
120	0x3e940f9d	0.28918162
121	0xbf0d66ad	-0.55234796
122	0xbf25c8b7	-0.6475939
123	0x3ee1d263	0.44105825
124	0xbe39b1f3	-0.18134288
125	0xbdf219ee	-0.11821352
126	0xbf05dc38	-0.5228915
127	0xbf00e04b	-0.50342244
128	0xbe56d4a5	-0.20979555
129	0x3e286a96	0.1644691
130	0xbe9f4d47	-0.31113645
131	0xbde8b9e6	-0.11363582
132	0xbf45e5a9	-0.7730356
133	0x3c53c2e5	0.012924884
134	0x3e02328f	0.12714599
135	0xbec58e64	-0.38585198
136	0xbf3f6076	-0.7475656
137	0x3e19568a	0.14974418
138	0x3e53aeed	0.20672198
139	0xbe69e2d1	-0.2284043
140	0xbe821384	-0.25405514
141	0xbf285bcf	-0.6576509
142	0xbf426ab8	-0.7594409
143	0xbef0debc	-0.47044933
144	0xbe28ee9f	-0.16497277
145	0x3e89671a	0.26836473
146	0xbf42aae4	-0.7604201
147	0xbdb24a87	-0.08705621
148	0xbf4848e1	-0.78236204
149	0xbeb3ae3e	-0.35093874
150	0xbea10cb0	-0.31454992
151	0xbf501a68	-0.8129029
152	0xbeff718d	-0.4989132
153	0xbf540dfa	-0.82833827
154	0xbea2be92	-0.3178602
155	0xbd0e25db	-0.03470407
156	0xbf291880	-0.6605301
157	0x3e449d6c	0.19200677
158	0xbe836aff	-0.2566757
159	0x3e05ceec	0.13067216
160	0xbf2859a8	-0.65761805
161	0xbc932a3a	-0.017964471
162	0x3ea1c8cc	0.31598508
163	0xbd7ef1e5	-0.062242407
164	0xbf1b3d0b	-0.6064002
165	0xbefab647	-0.48967192
166	0x3e63afc3	0.22235017
167	0xbea202f3	-0.31642875
168	0xbc99481e	-0.018711146
169	0xbda4cd01	-0.08046914
170	0xbf33b541	-0.70198447
171	0xbf1dc575	-0.6162942
172	0x3e08ca2d	0.13358374
173	0x3eb3ac74	0.3509251
174	0xbe8cd7e2	-0.27508456
175	0x3ec3f73d	0.38274565
176	0xbeca6579	-0.39530542
177	0x3de8b12c	0.11361918
178	0xbed7fcc2	-0.42185026
179	0xbf321521	-0.6956349
180	0x3df7cd85	0.120997466
181	0x3e988bf3	0.29794273
182	0x3e764e49	0.24053301
183	0xbe57660c	-0.21035022
184	0xbf5e1b04	-0.8675997
185	0xbe913c53	-0.28366336
186	0xbda49d0b	-0.08037766
187	0xbee13b32	-0.43990475
188	0xbf3f3d9d	-0.7470339
189	0xbe30e326	-0.1727415
190	0xbeedaa5f	-0.46419045
191	0xbe821a33	-0.25410613
192	0xbf672d63	-0.9030363
193	0xbe2ebfa2	-0.1706529
194	0xbf0a6d6d	-0.5407322
195	0x3d832ad2	0.06404652
196	0xbede5952	-0.4342752
197	0xbee3b534	-0.44474185
198	0x3bec48f4	0.007210845
199	0xbcc61b87	-0.024183048
200	0xbec080dc	-0.37598312
201	0xbe160013	-0.14648466
202	0xbec8d7d8	-0.39227176
203	0xbf1cf3d5	-0.6130956
204	0xbeebb6b5	-0.46037832
205	0xbe25339c	-0.16132969
206	0xbe3bcfbe	-0.18340966
207	0xbeeb297d	-0.4593009
208	0xbf6a3114	-0.9148114
209	0xbf13b193	-0.5769283
210	0x3dc993ac	0.09842619
211	0xbeae49be	-0.34040636
212	0xbe394bbb	-0.18095295
213	0xbe9e48ab	-0.30914816
214	0xbdfc5aaf	-0.12321984
215	0xbe323ff8	-0.17407215
216	0xbeee8871	-0.46588472
217	0xbe1b7362	-0.15180734
218	0x3e8f5df4	0.28001368
219	0x3df77b5c	0.12084076
220	0xbf62d4d9	-0.8860603
221	0xbec815c4	-0.39079106
222	0xbf567d1e	-0.83784664
223	0xbeb69cf7	-0.3566663
224	0xbed6eeb8	-0.41979003
225	0xbdef00d7	-0.11670082
226	0x3d1cb5a5	0.038259167
227	0xbf479fb5	-0.7797807
228	0xbf90eb67	-1.1321839
229	0xbdf5ad35	-0.11995927
230	0x3c59ccd6	0.013293466
231	0x3e1974b1	0.1498592
232	0xbc97217e	-0.018448588
233	0x3e5c743a	0.21528712
234	0xbf7e982d	-0.9945095
235	0xbe862be7	-0.2620537
236	0x3e68c39b	0.22730868
237	0xbe89099c	-0.26765144
238	0x3de398c5	0.11113123
239	0x3d3c29eb	0.045938414
240	0x3e304edd	0.17217584
241	0xbe6b73fc	-0.22993463
242	0xbeec84f2	-0.4619518
243	0xbf5bf051	-0.8591357
244	0xbebe4217	-0.37159798
245	0xbe6a922e	-0.22907326
246	0xbe65635c	-0.22401184
247	0x3e0f41c3	0.1398993
248	0xbe809aa7	-0.2511799
249	0x3d265a2f	0.04061335
250	0xbf0a71de	-0.5408
251	0x3e4d4fc9	0.20049967
252	0xbec8cec6	-0.39220256
253	0xbe5ecc61	-0.21757652
254	0x3e0d2be7	0.13786279
255	0xbe747933	-0.23874359

fc2.weight f4 [4, 256]
0	0x3d77c9fd	0.060495365
1	0xbb0ea8ae	-0.0021768021
2	0x3df81689	0.12113673
3	0x3f60fd00	0.8788605
4	0x3e01d574	0.12679082
5	0x3f4585f0	0.771575
6	0xbef095cc	-0.46989286
7	0x3d6a9197	0.05726775
8	0xbe79b187	-0.24384128
9	0xbdf12e4f	-0.11776411
10	0x3ec0b446	0.37637538
11	0x3f16a612	0.58847153
12	0x3ef1517a	0.47132474
13	0xbf25b23f	-0.64725107
14	0x3d299e88	0.041410953
15	0x3e27e835	0.16397174
16	0x3e263de7	0.16234551
17	0xbcb5de5d	-0.022200758
18	0x3e59b256	0.21259436
19	0xbe1362c8	-0.14393151
20	0x3d433ff5	0.047668416
21	0xbe41aab6	-0.18912777
22	0xbdf76339	-0.12079472
23	0x3ebcf284	0.36903775
24	0x3ffa750c	1.956697
25	0x3f4e07fc	0.80480933
26	0x3dae7b4c	0.08519611
27	0x3c98bac2	0.01864374
28	0xbdee9217	-0.11648958
29	0x3ea0ee68	0.3143189
30	0xbe9634b2	-0.29337078
31	0x3e7986f7	0.24367891
32	0xbde2bc0d	-0.11071024
33	0xbe91eb9a	-0.28500062
34	0xbc03e50a	-0.008050213
35	0xbd8d1cbc	-0.06890246
36	0x3f75358c	0.9578483
37	0x3e0df84f	0.13864253
38	0xbe1a240b	-0.15052812
39	0x3e6f32b6	0.23359188
40	0x3e1486c3	0.14504533
41	0x3e0abfde	0.13549754
42	0x3e9190c3	0.28430757
43	0x3fdf88f7	1.7463673
44	0xc010b5bd	-2.2610924
45	0xbeadffe2	-0.33984286
46	0x3ee791e7	0.45228502
47	0xbe05b7e4	-0.1305843
48	0xbdc40fa1	-0.095732935
49	0x3e52834e	0.20557901
50	0x3e827dbe	0.2548656
51	0xbf04e477	-0.5191111
52	0xbc236808	-0.009973533
53	0xbddc4870	-0.10756004
54	0x3d78b304	0.060717598
55	0xbd5b76bd	-0.053580035
56	0xbe82da1f	-0.25557038
57	0x3de9c5a9	0.11414654
58	0x3e3fb4ee	0.18721363
59	0x3dc0b52f	0.09409558
60	0x3ce3fe92	0.02783135
61	0xbea3bce0	-0.31980038
62	0xbe2013be	-0.15632531
63	0x3e142307	0.14466487
64	0xbe7285b2	-0.23683813
65	0x3faf3f84	1.3691258
66	0xbe7df24e	-0.24799463
67	0x3e0cd1a3	0.13751845
68	0x3d24901b	0.040176492
69	0x3d389865	0.04506721
70	0xbfa67177	-1.3003377
71	0xbbdb7ef4	-0.0066984836
72	0xbf861d2e	-1.0477655
73	0xbd157af9	-0.03649423
74	0xbba5fd6e	-0.0050656116
75	0xbfbf17b0	-1.4929104
76	0x3d1da003	0.038482677
77	0xbe95c526	-0.29251975
78	0xbc91cd50	-0.017798096
79	0x3bef4324	0.007301705
80	0xbcbd3ad5	-0.023099342
81	0x3e93abe4	0.2884208
82	0xbdd31b3e	-0.103079304
83	0x3e167ff5	0.14697249
84	0xbf624c0d	-0.88397294
85	0x3c33e339	0.010979467
86	0x3de0e457	0.10981052
87	0xbf25061f	-0.64462465
88	0x3e3f4077	0.18676935
89	0x3ecab987	0.3959467
90	0x3c118abb	0.008883174
91	0xbe82caeb	-0.2554544
92	0x3daabfef	0.0833739
93	0x3c86590b	0.01639988
94	0xbe379f41	-0.17931844
95	0xbf6b1d54	-0.91841626
96	0x3eeef509	0.46671322
97	0xbed47c96	-0.41501302
98	0xba99f6d0	-0.001174653
99	0xbe59d8e2	-0.2127414
100	0x3d688bae	0.056773834
101	0xbfcd6476	-1.6046283
102	0x3df9271a	0.12165661
103	0x3d7b6968	0.06137982
104	0xbe0c341f	-0.13691758
105	0xbe0aeed9	-0.13567676
106	0x3e7c9c91	0.246691
107	0x3e79ae57	0.24382912
108	0x3dda9a19	0.10673923
109	0xbee2037a	-0.44143277
110	0xbd72452b	-0.059147995
111	0x3cb43eee	0.022002663
112	0x3d9afc94	0.07567707
113	0x3fdbb021	1.7163125
114	0xbe074555	-0.13210042
115	0xbdacd464	-0.08438948
116	0x3e9300ef	0.2871165
117	0x3fb70bc3	1.4300464
118	0xbe81cc5e	-0.25351232
119	0x3e0831bb	0.1330022
120	0xbebdad53	-0.37046298
121	0x3dcf7385	0.101294555
122	0xbe100d76	-0.14067635
123	0xbe9e2670	-0.308887
124	0xbd1320a2	-0.035919793
125	0x3e31e92f	0.17374109
126	0x3ddc52af	0.10757958
127	0x3e49d8b5	0.19711573
128	0xbee7ea12	-0.4529577
129	0x3e793839	0.24337853
130	0xbd001475	-0.03126951
131	0x3d5a446f	0.05328792
132	0x3dce505a	0.100739196
133	0xbd0ab655	-0.03386529
134	0xbd344e29	-0.04401985
135	0x3e8d37a9	0.27581528
136	0x3e5ac3ab	0.21363704
137	0x3e0f0b1d	0.13969083
138	0x3e8d2fd5	0.27575555
139	0x3d6ccf88	0.057815105
140	0xbe04b6e9	-0.129604
141	0x3d5ee3df	0.054416534
142	0xbf169a99	-0.5882965
143	0xbdaf27d4	-0.085525185
144	0x3c1808a3	0.009279403
145	0xba166745	-0.0005737434
146	0xbd4be780	-0.049781322
147	0x3d5058b1	0.050865833
148	0x3ed2a7c3	0.41143617
149	0xbeae3166	-0.34022063
150	0xbfc8a7cb	-1.5676206
151	0x4043e73d	3.0609887
152	0xbd1aa50d	-0.03775506
153	0xbe8a8e8a	-0.27061874
154	0xbef02c3a	-0.46908742
155	0xbe02d1dd	-0.12775369
156	0x3c1abbda	0.009444201
157	0xbd19f859	-0.03759036
158	0x3e14e239	0.14539422
159	0xbe90332c	-0.2816404
160	0x3ed45c04	0.41476452
161	0xbd526e1c	-0.05137454
162	0x3eb6b09e	0.35681623
163	0xbf2d7f48	-0.6777234
164	0xbe7c19e2	-0.24619249
165	0x3f339448	0.70148134
166	0xbe507931	-0.20358731
167	0x3e659fd0	0.22424245
168	0x3e15a88d	0.14615078
169	0x3c4d225c	0.012520399
170	0xbfc5a0c6	-1.5439689
171	0x40023579	2.0345137
172	0x3e9532fc	0.2914046
173	0xbdb30a5b	-0.087422095
174	0xbf842ae1	-1.0325586
175	0xbda54106	-0.08069043
176	0x3ee772d9	0.4520481
177	0xbd62d09a	-0.05537472
178	0xbdb74abd	-0.08949802
179	0xbffbd56e	-1.9674509
180	0xbec2a46b	-0.38016066
181	0xbcbf4be9	-0.023351626
182	0xbe8cd38b	-0.27505144
183	0x3dbbb5ca	0.09165533
184	0xbcea5ded	-0.02860924
185	0xbe1b508d	-0.15167446
186	0x3ebe5236	0.37172097
187	0x3d85d090	0.06533921
188	0xbe80ab57	-0.25130722
189	0x3eced20e	0.40394634
190	0x3dd22d9d	0.10262606
191	0xbd5ba479	-0.05362365
192	0xbd717076	-0.05894514
193	0xbf63a94c	-0.889302
194	0x3f035f9e	0.51317775
195	0x3e705d26	0.23473033
196	0xbe1c9139	-0.15289773
197	0xbf0fc2fd	-0.56156904
198	0xbdd9bdb3	-0.106318854
199	0x3e019a76	0.12656578
200	0xbee1a165	-0.44068447
201	0xbe11c2b6	-0.14234433
202	0x3fa1f4dd	1.2652851
203	0xbe302557	-0.17201744
204	0xbef70aa0	-0.48250294
205	0x3e0e9c10	0.1392672
206	0x3dab5e86	0.08367638
207	0x3e5d92ea	0.21638075
208	0xbeb0c348	-0.34523988
209	0xba9b2894	-0.0011837655
210	0x3e226c99	0.15861739
211	0x3ecd9bf9	0.4015806
212	0xbe8f175c	-0.2794751
213	0x3e9a5d91	0.3014951
214	0x3e1858df	0.14877652
215	0xbceb7a98	-0.02874498
216	0x3e8adb97	0.2712066
217	0x3f0e85bf	0.5567283
218	0xbe84f161	-0.25965407
219	0x3b7ce4f2	0.003858861
220	0xbcb345d8	-0.02188389
221	0x3e5c6e98	0.21526563
222	0xc0194406	-2.3947768
223	0xbe00d71e	-0.1258206
224	0x3e658d5d	0.22417207
225	0xbf709144	-0.9397166
226	0xbe116b1f	-0.1420102
227	0x3ee17ed6	0.4404208
228	0x3ea013ef	0.31265208
229	0xbd099052	-0.0335849
230	0xbd3ed9b0	-0.04659432
231	0xbe85573f	-0.26043126
232	0xbe3a8194	-0.18213493
233	0xbe17acbe	-0.1481199
234	0xc055f7e2	-3.3432546
235	0x3dbff310	0.09372532
236	0x3df3ebf0	0.11910236
237	0xbcca1abf	-0.024670957
238	0xbb0c08f7	-0.0021367648
239	0x3ea7193f	0.3263645
240	0x3ed74601	0.42045596
241	0x3de66158	0.112490356
242	0xbf12b920	-0.5731373
243	0x3e90f8cb	0.28314814
244	0xbe72e8d0	-0.23721623
245	0x3e88323a	0.2660082
246	0xbd2021a5	-0.039094586
247	0xbe78da7a	-0.24302092
248	0x3dae1290	0.08499634
249	0xbe4a44cd	-0.19752808
250	0xbeaaa39c	-0.3332795
251	0x3daf8a75	0.085713305
252	0xbed60262	-0.41798693
253	0x3bcb0187	0.0061952504
254	0xbda60171	-0.08105744
255	0xbc484d2c	-0.01222543

fc2.bias f4 [4]
0	0x3e217f73	0.15771274
1	0xbda9ce15	-0.0829126
2	0xbe0a0ec6	-0.13482198
3	0xbe0bdc8b	-0.13658349
