project2-continous_control/checkpoint/actor_local.pth (torch_old, 39778 bytes, 4 tensors)

fc1.weight f4 [256, 33]
0.22171548 -0.052940715 -0.32053006 -0.057930853 0.072738074 0.08285063 0.08073976 0.1469896
-0.19741486 -0.15522066 -0.09752562 0.57659554 -0.08146887 0.03267214 -0.38825732 0.7121518
-0.13416009 -0.31487113 0.6614207 0.087004706 0.41865483 -0.84154683 -0.6666448 -0.1805332
0.163163 -0.0966543 -0.21550055 -0.5141935 -0.8308052 0.07631025 0.46396104 0.117628485
0.3047399 -0.04490722 0.23187229 0.73676485 0.12131511 0.4263618 -0.11174455 0.3428478
-0.17183407 0.35655147 0.22420698 -0.029366298 0.4246111 -0.12755871 -0.7824913 0.02534714
0.05124787 -0.050853744 0.038959425 0.21656138 0.08608765 -0.44362557 -0.08903162 0.16750701
-0.4759831 -0.45839956 0.12935542 0.29339695 0.7256872 -0.6596479 0.014508083 -0.7971884
0.03972958 -0.32704148 -0.25551042 0.10234574 0.21703435 -0.019512294 0.36784995 -0.00562008
0.07955923 -0.25638646 0.61630654 -0.0299909 -0.13339205 -0.03333979 0.14467925 0.22632654
-0.11903148 0.3310721 0.014858434 0.12133542 0.12854162 0.3370829 -0.16972889 -0.21710163
0.16020934 -0.12058028 -0.19252892 0.3610467 0.6024636 0.3548807 0.008975353 0.053386748
-0.47206998 0.054047585 0.5751699 -0.5183123 -0.50979316 0.3150742 0.04687557 -0.6072211
-0.38142124 0.07409047 -0.2736709 0.44906753 -0.6986493 -0.0661856 -0.22468317 0.34719938
0.14132392 -0.62472874 0.8076279 -0.053979754 -0.17802344 0.13619491 -0.05112696 -1.1649218
0.07588199 0.33699417 0.36701855 0.27408418 -0.01123066 0.019460263 -0.52981514 0.2086239
-0.15453513 0.38656223 -0.02140075 -0.22846134 0.9299786 -0.03894121 -0.24367408 -0.10958226
0.5339735 0.33738118 -0.27719325 0.61056674 -0.72098726 0.6355927 0.38289648 -0.29001933
-0.12250158 -0.14686224 0.22978942 0.5063666 -0.333483 -0.026514994 0.2557846 0.1551366
0.049068682 0.62415963 0.7764182 -0.3907354 0.13505444 0.2724153 -0.26101577 0.3673481
-0.31403238 -0.13920696 -0.36304817 -0.018059596 -2.2189932 0.45817244 -0.27830642 0.5282732
-0.17633271 0.0012859901 -0.028570881 0.1320863 -0.6844875 0.7571166 0.4940182 0.0899058
1.0931123 0.17629904 0.082065724 0.22942896 0.17308092 -0.2282022 -0.32973155 0.06870551
-0.3260877 0.18799683 0.099086314 -0.8072948 0.4181159 -0.69387245 0.11271265 -0.32246175
0.13648522 0.62091297 0.11771092 -0.4212075 -0.007715866 -0.89883566 0.3619063 0.8970814
-0.18429524 0.12341987 0.73485816 0.24207576 -0.19959454 -0.058240063 0.37772763 -0.1373386
0.48259196 -0.24142997 -0.19660029 0.15416306 0.058444988 -0.15205827 0.37110564 0.20640129
0.07371227 0.110033125 -0.49103054 -0.20770076 0.008383885 0.11789975 0.18650217 0.23892112
-0.624337 0.35296264 0.17834814 0.06839229 -0.28100476 0.14537656 1.8647112 0.16051236
-0.7620511 -0.24610229 0.066016495 -0.14452016 -0.32576686 -0.43726847 0.047033515 -0.21444848
-0.71123046 -0.12591125 -0.20398653 -0.08027021 -0.61564004 0.8922774 -0.19798857 -0.088914774
0.020173103 0.15566225 0.05560778 0.006977936 0.51074135 -0.23477733 -0.4766268 0.042658627
00000000: 6209 633e 5dd8 58bd 841c a4be e748 6dbd
00000010: b3f7 943d 97ad a93d e35a a53d 7184 163e
00000020: 1f27 4abe 2af2 1ebe 83bb c7bd c49b 133f
00000030: 27d9 a6bd 39d3 053d aac9 c6be 954f 363f
00000040: 4361 09be ca36 a1be de52 293f 862f b23d
00000050: ed59 d63e 9d6f 57bf 3ca9 2abf b2dd 38be
00000060: 3414 273e b1f2 c5bd 2dac 5cbe 2fa2 03bf
00000070: a6af 54bf 8c48 9c3d 4d8c ed3e 34e7 f03d
00000080: de06 9c3e a2f0 37bd ee6f 6d3e 9f9c 3c3f
00000090: 0e74 f83d 184c da3e 54da e4bd bf89 af3e
000000a0: 45f5 2fbe ea8d b63e 8496 653e 9791 f0bc
000000b0: a066 d93e c09e 02be 5a51 48bf cea4 cf3c
000000c0: 49e9 513d 044c 50bd eb93 1f3d 44c2 5d3e
000000d0: b94e b03d e422 e3be 3656 b6bd f586 2b3e
000000e0: 0fb4 f3be 59b3 eabe bf75 043e 2038 963e
000000f0: a3c6 393f afde 28bf 50b3 6d3c 8a14 4cbf
00000100: 7cbb 223d fb71 a7be 43d2 82be a59a d13d
00000110: 413e 5e3e 3fd8 9fbc d456 bc3e a628 b8bb
00000120: f3ef a23d 1645 83be 44c6 1d3f 7aaf f5bc
00000130: ed97 08be 4e8f 08bd cc26 143e 25c2 673e
00000140: c7c6 f3bd 4882 a93e ca70 733c b47e f83d
00000150: 6aa0 033e 2196 ac3e 69cd 2dbe e44f 5ebe
00000160: eb0d 243e cbf2 f6bd 4d26 45be 1ddb b83e
00000170: 0e3b 1a3f ecb2 b53e 5c0d 133c 10ac 5a3d
00000180: 28b3 f1be 0061 5d3d 563e 133f 1db0 04bf
00000190: ce81 02bf 6851 a13e 9900 403d d872 1bbf
000001a0: a549 c3be bfbc 973d 981e 8cbe 2eec e53e
000001b0: aeda 32bf 518c 87bd 5813 66be 1ec4 b13e
000001c0: 38b7 103e 39ee 1fbf b4c0 4e3f e019 5dbd
000001d0: c74b 36be ae76 0b3e 816a 51bd 281c 95bf
000001e0: 0468 9b3d 808a ac3e dbe9 bb3e c354 8c3e
000001f0: cd00 38bc 216b 9f3c f7a1 07bf 81a1 553e
00000200: 753e 1ebe 7ceb c53e a050 afbc c5f1 69be
00000210: 1413 6e3f d180 1fbd b385 79be aa6c e0bd
00000220: 7db2 083f 3abd ac3e 46ec 8dbe 1a4e 1c3f
00000230: 9f92 38bf 34b6 223f 020b c43e 6a7d 94be
00000240: 1ce2 fabd 0e63 16be eb4d 6b3e 3ea1 013f
00000250: 49be aabe f935 d9bc 33f6 823e 21dc 1e3e
00000260: 3efc 483d edc8 1f3f 58c3 463f 780e c8be
00000270: b64b 0a3e 057a 8b3e dca3 85be 0d15 bc3e
00000280: dac8 a0be 458c 0ebe 73e1 b9be b8f1 93bc
00000290: fc03 0ec0 9495 ea3e 2e7e 8ebe ea3c 073f
000002a0: 9090 34be ab8e a83a 7b0d eabc a241 073e
000002b0: 933a 2fbf 65d2 413f f4ef fc3e 8820 b83d
000002c0: 1beb 8b3f bc87 343e 1312 a83d 6def 6a3e
000002d0: 203c 313e d6ad 69be 93d2 a8be 79b5 8c3d
000002e0: f8f4 a6be 3e82 403e c4ed ca3d dfaa 4ebf
000002f0: 4a13 d63e a0a1 31bf e4d5 e63d b519 a5be
00000300: c8c2 0b3e 27f4 1e3f 6c12 f13d 82a8 d7be
00000310: 60d5 fcbb 181a 66bf c84b b93e 20a7 653f
00000320: e4b7 3cbe 8fc3 fc3d aa1f 3c3f b5e2 773e
00000330: 8362 4cbe 228d 6ebd 8465 c13e 7da2 0cbe
00000340: 4b16 f73e 6b39 77be 9651 49be ecdc 1d3e
00000350: 0364 6f3d 2ab5 1bbe 8f01 be3e dc5a 533e
00000360: 75f6 963d 0c59 e13d 5b68 fbbe 82af 54be
00000370: 905c 093c 6d75 f13d 6dfa 3e3e bda7 743e
00000380: 8dd4 1fbf 85b7 b43e e5a0 363e 4211 8c3d
00000390: dbdf 8fbe 98dd 143e dbae ee3f 5a5d 243e
000003a0: c815 43bf 3d02 7cbe a833 873d 18fd 13be
000003b0: eaca a6be a7e1 dfbe 37a6 403d 6298 5bbe
000003c0: 3313 36bf e1ee 00be d8e1 50be b564 a4bd
000003d0: 969a 1dbf 4b6c 643f 84bd 4abe f318 b6bd
000003e0: 1042 a53c ed65 1f3e fcc4 633d 2ba7 e43b
000003f0: f2bf 023f 7869 70be 6e08 f4be d0ba 2e3d

fc1.bias f4 [256]
0.49197295 -1.0176499 -0.46445355 0.45267588 -0.22828932 -0.1724121 -0.5256875 0.13353248
-0.2919702 -0.8900495 0.0166706 -0.29140258 -0.72169155 0.58292526 -0.6578589 -0.6345411
0.17452785 -0.47769257 -0.6328626 -0.15450959 -0.010909821 -0.13734809 -0.5828532 0.50118357
-0.47082633 0.24700634 0.3552498 0.692706 -0.5581733 -0.19363593 -0.6184398 0.19811007
0.47014913 0.36479816 -0.3525197 0.6769697 0.3843278 -0.05094616 -0.20953059 -0.47007582
-0.9751048 0.84322155 -0.36030984 0.16778807 -0.43240777 0.2768623 -0.8441952 0.21534781
-0.85230756 -0.2294638 0.5249658 0.22531834 -0.9937913 0.67596304 0.44592825 0.048356723
-0.0030038068 -0.5810018 -0.51807094 0.57535034 0.2843693 -0.26484415 -0.10233701 -0.3736826
0.6390667 0.12677646 -0.40082926 -0.32375774 -0.46692407 -1.0887198 -1.2627404 -0.70998895
0.9623445 0.22197177 0.56447834 0.1429749 0.32537988 -0.5569618 0.23553498 -0.36332694
-0.9467135 0.56866324 -0.9211776 -0.38992262 -0.14687625 -0.026609182 -0.973213 0.25122407
-0.004535827 0.22806555 0.024719829 0.42256057 0.03425704 -0.7199162 0.7239197 -0.32907787
0.30448756 -0.444533 -0.1512534 0.10924304 0.1981911 -0.1700948 -0.58956164 -0.40639418
0.29341376 -0.036763426 -0.680525 0.36387974 0.09139957 0.34206617 0.06148559 0.051810585
-0.31396967 -0.6960498 0.15951897 0.38381287 -1.1822706 -0.05986109 -0.49291503 0.28733465
0.008558719 -0.76393 -0.6842024 0.27655807 -0.67347246 -0.9419654 -0.5090344 -1.200696
-0.25166708 0.0028389718 0.26029444 0.00060939876 0.21138501 0.07653461 -0.54220766 -0.7760604
0.41969123 -0.07508321 0.41464403 -0.006326931 -0.985421 -0.6374422 0.32912555 -0.29555428
0.3436334 0.47491798 0.64214253 0.3796185 -0.104444474 -0.48797753 0.27160314 -0.024115799
0.21511927 -0.40932286 0.21738647 -0.70377344 0.36905193 -0.6456011 0.16707395 -1.1310164
-0.53615713 -0.049604103 0.097820066 -0.5530852 -0.037663154 0.24361876 -0.8606701 -0.08683703
0.050343465 -0.2072734 -0.12901764 -0.5270887 -0.36566237 0.48998672 -0.66548723 0.060428716
-0.33496147 1.0126922 0.22180037 0.27784917 0.53481436 0.41674623 0.5913115 -0.13751514
-0.36031592 -0.43766102 -0.34452888 0.32080868 -0.24039908 -0.49614757 -0.22362617 0.1259237
-0.06266829 -1.5975837 -1.1036456 0.21623074 0.040820446 0.2566239 0.26187947 0.47164956
0.17862755 -0.47474593 0.26599857 -0.53913015 -0.08072913 0.23786329 0.0002636287 0.37590033
0.40206566 0.39548895 0.5280093 0.06974444 0.9209827 0.099507794 0.21336307 0.09991705
-0.6087896 -0.1234573 0.48630583 -0.06942176 0.22800966 -0.39966553 -0.4817549 -0.07014821
-0.49708524 0.15310708 0.21229091 -0.014787195 0.31180128 0.45630786 0.2848416 -1.1369627
-0.17379658 -1.2747188 0.87537646 0.33040592 0.2916751 -0.6429007 -0.20796342 -0.5494388
-0.14467451 0.63575816 0.62098473 0.029725105 -0.031297702 -0.73553705 -0.09966169 0.6339686
-0.3020434 -0.16158687 -0.37261847 -0.23208049 0.76709306 -0.31482002 -0.7486295 0.25242984
00000000: e1e3 fb3e 5a42 82bf dbcc edbe 22c5 e73e
00000010: adc4 69be cc8c 30be 7593 06bf bdbc 083e
00000020: 1e7d 95be 49da 63bf c890 883c b832 95be
00000030: c7c0 38bf 973a 153f 7169 28bf 4971 22bf
00000040: 6eb7 323e 1f94 f4be 4903 22bf c337 1ebe
00000050: 1bbf 32bc faa4 0cbe de35 15bf 914d 003f
00000060: 2610 f1be 3bef 7c3e 4de3 b53e 2e55 313f
00000070: 72e4 0ebf 7f48 46be 1252 1ebf 5edd 4a3e
00000080: 63b7 f03e d3c6 ba3e 767d b4be e34d 2d3f
00000090: 9dc6 c43e ecac 50bd 308f 56be c7ad f0be
000000a0: 78a0 79bf 5edd 573f 887a b8be a3d0 2b3e
000000b0: 8d64 ddbe e5c0 8d3e 2d1d 58bf 2384 5c3e
000000c0: d430 5abf 8ff8 6abe 2964 063f dab9 663e
000000d0: 1b69 7ebf ea0b 2d3f b550 e43e b311 463d
000000e0: 84db 44bb 89bc 14bf 4ca0 04bf 294a 133f
000000f0: da98 913e a799 87be 1196 d1bd 5353 bfbe
00000100: e099 233f b0d1 013e 7e39 cdbe 93c3 a5be
00000110: ac10 efbe 2c5b 8bbf 7aa1 a1bf d6c1 35bf
00000120: 365c 763f 914c 633e a781 103f 0368 123e
00000130: 3198 a63e 0c95 0ebf 1530 713e fd05 babe
00000140: d15b 72bf ea93 113f 4cd2 6bbf f0a3 c7be
00000150: ba66 16be 80fb d9bc 7d24 79bf 71a0 803e
00000160: 46a1 94bb 048a 693e 3d81 ca3c dc59 d83e
00000170: 1c51 0c3d 6e4c 38bf cd52 393f e57c a8be
00000180: cbe5 9b3e d499 e3be 2ce2 1abe d1ba df3d
00000190: 9cf2 4a3e 552d 2ebe 83ed 16bf e612 d0be
000001a0: 543a 963e 3f95 16bd e336 2ebf 724e ba3e
000001b0: b32f bb3d 4c23 af3e 50d8 7b3d 5637 543d
000001c0: a2c0 a0be 5230 32bf f158 233e 1f83 c43e
000001d0: a554 97bf e730 75bd 5c5f fcbe 871d 933e
000001e0: df39 0c3c eb90 43bf e327 2fbf 0599 8d3e
000001f0: b168 2cbf a524 71bf 1450 02bf 68b0 99bf
00000200: 82da 80be 0b0e 3a3b 5045 853e 0fc0 1f3a
00000210: 5075 583e 2dbe 9c3d 1fce 0abf e5ab 46bf
00000220: c5e1 d63e 3ac5 99bd 394c d43e 2552 cfbb
00000230: 8d44 7cbf 692f 23bf 2583 a83e e452 97be
00000240: b8f0 af3e 7328 f33e 7463 243f 5b5d c23e
00000250: fce6 d5bd 31d8 f9be 910f 8b3e 7f8e c5bc
00000260: 3a48 5c3e c492 d1be 8f9a 5e3e 7f2a 34bf
00000270: 60f4 bc3e 1d46 25bf 6f15 2b3e 25c5 90bf
00000280: 9841 09bf ac2d 4bbd e355 c83d fe96 0dbf
00000290: ae44 1abd 3277 793e e054 5cbf 9dd7 b1bd
000002a0: f334 4e3d 7a3f 54be 331d 04be 49ef 06bf
000002b0: 1938 bbbe 8adf fa3e 5f5d 2abf 1a84 773d
000002c0: 1280 abbe e69f 813f a31f 633e 3f42 8e3e
000002d0: 98e9 083f c35f d53e 3160 173f c5d0 0cbe
000002e0: 547b b8be 1b15 e0be 1766 b0be 0941 a43e
000002f0: 2d2b 76be 0e07 febe 42fe 64be 24f2 003e
00000300: 3c58 80bd 9f7d ccbf 4244 8dbf 976b 5d3e
00000310: 5733 273d 3564 833e 1115 863e 0d7c f13e
00000320: 24ea 363e e611 f3be f730 883e 6f04 0abf
00000330: 5055 a5bd 6f92 733e a537 8a39 0276 c03e
00000340: 8ddb cd3e 877d ca3e 9e2b 073f 2cd6 8e3d
00000350: 86c5 6b3f beca cb3d d97b 5a3e 4fa1 cc3d
00000360: a3d9 1bbf 2ed7 fcbd 14fd f83e ff2c 8ebd
00000370: 5d7b 693e f6a0 ccbe 94a8 f6be dda9 8fbd
00000380: f581 febe 1ac8 1c3e ca62 593e fe45 72bc
00000390: 6ba4 9f3e 2fa1 e93e c2d6 913e fe87 91bf
000003a0: bbf7 31be fc29 a3bf ac18 603f f72a a93e
000003b0: 7056 953e 2495 24bf 5df4 54be 05a8 0cbf
000003c0: 8e25 14be 0cc1 223f dbf8 1e3f 1082 f33c
000003d0: 0532 00bd 284c 3cbf 6e1b ccbd c44b 223f
000003e0: 6fa5 9abe 0777 25be d9c7 bebe 82a6 6dbe
000003f0: 3660 443f 1730 a1be 2fa6 3fbf 7c3e 813e

fc2.weight f4 [4, 256]
-0.06436726 0.5386733 0.20266391 0.94386727 1.1377347 -1.7485268 0.48202986 0.6742258
-1.1147658 0.68041915 0.15965863 1.4817173 0.40899163 0.036477055 -3.1111908 0.2635158
-0.09069574 1.1529104 -0.19394447 -0.044146497 0.023752593 -0.55978775 1.1983889 0.11194157
2.0070083 -1.6334146 0.6970057 -0.15016517 -1.1034873 -0.32605425 0.5855754 0.5313727
-0.3157729 0.6696696 1.4520687 -0.2854724 0.5271267 -0.9039157 1.2065858 1.8302114
1.1698261 0.5789716 -0.9037876 0.41185522 1.896289 -1.043057 -2.680684 -0.6485148
-4.059268 1.3937445 -0.118476294 0.5957139 -1.0101709 -0.09781075 0.87103444 -1.8340307
1.5596012 1.0181315 1.1975383 -1.3632064 -0.30614036 2.0141275 -0.63850737 -1.4475453
-0.36470696 0.19015408 0.8341471 -0.27839118 1.044744 -1.5028286 2.6974971 1.6620481
-0.75041395 0.28176466 -0.5094758 -0.060637034 -0.60561585 -0.8777051 1.2548832 -0.6356271
0.4309812 -1.2682137 -1.482845 0.0057684616 2.9467168 0.7787284 0.82265806 -0.03782813
0.26794124 0.8850799 0.3795941 1.1720202 -1.2906839 -2.1683478 -0.0043887943 1.4618747
-1.7435051 -1.1343881 -0.97709405 -0.46773756 0.21835901 -0.7617561 1.6023635 -0.45913815
-0.13171497 -1.1274554 1.0724195 0.43291974 0.52761966 -0.36131376 0.60348856 -0.2598464
0.25406015 1.6275228 -0.83194554 0.4504547 -4.343056 -0.042128865 -0.30134785 -0.53602815
-0.508528 -2.6262026 0.33885702 -0.6747211 -0.3601494 -1.5705326 -0.33473864 -0.80817956
-2.3609204 0.7047093 0.29952413 -0.8169901 1.3239683 0.6950973 -0.33396545 1.6852142
-0.8186419 0.1668115 -0.47103906 -0.9021671 -1.7729104 -0.59849685 -0.46856016 0.2938352
-0.63912636 1.4867529 -0.91766715 0.3106645 0.51831704 -0.028529128 -0.7141368 0.30916128
-0.17988251 1.8291907 0.19521669 1.3937402 -0.12637356 2.540513 -1.224457 0.9447814
-0.57859945 -1.6246067 -1.8361061 -0.7263017 0.76554 -0.40562648 0.9828729 -0.40334266
1.3542203 0.29746374 -0.9483763 1.5450695 0.9716283 -0.2854701 -0.38480988 0.663656
-0.121187724 -0.19790521 -0.36839128 -0.46983722 0.50937396 -0.31386197 -0.4676685 -0.26350665
0.31728688 -0.07626237 -0.244794 0.9032129 0.1477508 0.35605434 -1.5456558 0.28881302
-1.4847761 2.6904736 -0.049729772 -0.33820274 -1.2201577 0.4142549 0.93417436 0.49998567
0.4432224 1.2483718 0.23005946 -2.0107393 -0.38305292 -1.176267 -0.32376963 0.2964604
-0.115309276 0.41047385 0.10382294 0.30598524 -0.15043443 -0.27583823 0.9635721 0.27062955
0.39360732 0.9852338 -0.35959002 -1.0501181 0.4416172 1.3882377 0.8529857 -0.41758093
-0.62540096 -0.21667649 -0.18405598 0.5069805 -0.40074196 1.0564866 0.6997641 0.8622426
-0.12435175 -3.648966 -0.84034294 0.615693 0.09995511 -0.026769668 0.58617455 0.9187141
1.4540393 0.038919404 -1.3958238 0.45076424 -0.290824 1.2948909 -1.7552472 -0.8844156
0.61094636 -0.62925947 2.2660654 -0.23334996 0.28648856 -1.5877913 1.16876 1.3561188
00000000: fbd2 83bd 7ee6 093f 2187 4f3e 49a1 713f
00000010: 4aa1 913f bacf dfbf 9ecc f63e 109a 2c3f
00000020: a5b0 8ebf f32f 2e3f 8d7d 233e eaa8 bd3f
00000030: 5a67 d13e f768 153d c01d 47c0 8beb 863e
00000040: b0be b9bd 9192 933f 6199 46be f5d2 34bd
00000050: cc94 c23c 404e 0fbf cf64 993f 9f41 e53d
00000060: d372 0040 bb13 d1bf f76e 323f e6c4 19be
00000070: 123f 8dbf 95f0 a6be 45e8 153f 0b08 083f
00000080: fcac a1be 786f 2b3f 63dd b93f 7029 92be
00000090: c7f1 063f 0567 67bf 6771 9a3f 5e44 ea3f
000000a0: ddbc 953f 7c37 143f a05e 67bf b0de d23e
000000b0: 99b9 f23f e482 85bf 5490 2bc0 1105 26bf
000000c0: 86e5 81c0 3866 b23f b3a3 f2bd b580 183f
000000d0: 484d 81bf 0151 c8bd 1dfc 5e3f 85c1 eabf
000000e0: 03a1 c73f 2252 823f ef48 993f 8c7d aebf
000000f0: 6ebe 9cbe 77e7 0040 3875 23bf 2a49 b9bf
00000100: dfba babe c0b7 423e aa8a 553f 4a89 8ebe
00000110: 2cba 853f b05c c0bf cba3 2c40 febd d43f
00000120: 211b 40bf 7543 903e 026d 02bf 8a5e 78bd
00000130: a409 1bbf 48b1 60bf 03a0 a03f 75b8 22bf
00000140: 91a9 dc3e d454 a2bf ddcd bdbf 5d05 bd3b
00000150: 0297 3c40 bf5a 473f b899 523f abf1 1abd
00000160: 982f 893e 9994 623f 285a c23e c204 963f
00000170: 2135 a5bf 36c6 0ac0 e0cf 8fbb b61e bb3f
00000180: 2d2b dfbf a133 91bf d622 7abf 4c7b efbe
00000190: 8199 5f3e 7302 43bf 3f1a cd3f 2814 ebbe
000001a0: 4ae0 06be 7550 90bf 0b45 893f a8a7 dd3e
000001b0: 1512 073f 1efe b8be 3a7e 1a3f 960a 85be
000001c0: 2c14 823e ab52 d03f 62fa 54bf 00a2 e63e
000001d0: 51fa 8ac0 518f 2cbd 444a 9abe 2439 09bf
000001e0: e42e 02bf b413 28c0 ab7e ad3e 86ba 2cbf
000001f0: 8165 b8be 3607 c9bf dd62 abbe dbe4 4ebf
00000200: 5219 17c0 d467 343f 3a5b 993e 4326 51bf
00000210: cb77 a93f e6f1 313f 85fd aabe 19b5 d73f
00000220: 8492 51bf a2d0 2a3e 082c f1be 6cf4 66bf
00000230: baee e2bf 1737 19bf 1ee7 efbe 9171 963e
00000240: c99d 23bf eb4d be3f 3cec 6abf 6b0f 9f3e
00000250: 6db0 043f ebb5 e9bc abd1 36bf 634a 9e3e
00000260: 1f33 38be ec22 ea3f e2e6 473e 1466 b23f
00000270: 1268 01be c497 2240 02bb 9cbf 32dd 713f
00000280: 181f 14bf 1df3 cfbf 8605 ebbf e9ee 39bf
00000290: 6efa 433f 46ae cfbe 8f9d 7b3f ee82 cebe
000002a0: 1757 ad3f 2b4d 983e cac8 72bf d6c4 c53f
000002b0: a2bc 783f 2329 92be cd05 c5be 5ce5 293f
000002c0: 4531 f8bd aaa7 4abe c89d bcbe 818e f0be
000002d0: 5566 023f 84b2 a0be 3f72 efbe 58ea 86be
000002e0: 6d73 a23e 722f 9cbd 47ab 7abe f638 673f
000002f0: fc4b 173e c14c b63e 0dd8 c5bf 4ddf 933e
00000300: 250d bebf b830 2c40 72b1 4bbd e928 adbe
00000310: 212e 9cbf 3819 d43e 0d26 6f3f 1ffe ff3e
00000320: 0cee e23e a6ca 9f3f b594 6b3e f4af 00c0
00000330: 831f c4be eb8f 96bf 22c5 a5be a8c9 973e
00000340: 4527 ecbd a129 d23e 1fa1 d43d 19aa 9c3e
00000350: 7c0b 1abe ab3a 8dbe a9ac 763f f58f 8a3e
00000360: e686 c93e 4838 7c3f 2f1c b8be 456a 86bf
00000370: a61b e23e c6b1 b13f 455d 5a3f 2bcd d5be
00000380: 471a 20bf 71e0 5dbe 2c79 3cbe 79c9 013f
00000390: 0d2e cdbe f43a 873f bd23 333f eebb 5c3f
000003a0: 21ac febd a988 69c0 b720 57bf 0e9e 1d3f
000003b0: 44b5 cc3d 104c dbbc 890f 163f d930 6b3f
000003c0: f61d ba3f f469 1f3d 5baa b2bf 92ca e63e
000003d0: e2e6 94be fcbe a53f f1ab e0bf 1069 62bf
000003e0: fb66 1c3f 2617 21bf 3707 1140 4bf3 6ebe
000003f0: a1ae 923e bf3c cbbf ed99 953f 4d95 ad3f

fc2.bias f4 [4]
-0.096622705 -0.1047499 -0.102905326 -0.03582537
00000000: 20e2 c5bd 1e87 d6bd 07c0 d2bd a0bd 12bd
