project2-continous_control/checkpoint/actor_target.pth (torch_old, 39778 bytes, 4 tensors)

fc1.weight f4 [256, 33]
0	0x3f2935c0	0.6609764
1	0x3eb1fdb1	0.34763864
2	0xbf3cc4d3	-0.7373783
3	0xbeabee44	-0.3358022
4	0x3e3f8be1	0.18705703
5	0x3f13c152	0.5771686
6	0xbc06f837	-0.00823789
7	0x3eff8932	0.4990936
8	0x3f073f0b	0.5283057
9	0x3dc52bb9	0.0962748
10	0x3e42a1d5	0.19007047
11	0xbe21d16f	-0.15802549
12	0xbe6e5d1e	-0.23277709
13	0xbf2b7224	-0.6697104
14	0x3eaa6ffe	0.33288568
15	0x3f8a7284	1.0816197
16	0xbc4320b5	-0.011909653
17	0xbd09d5b1	-0.033651058
18	0x3dac13f6	0.08402245
19	0xbd7b42dd	-0.061343063
20	0xbf0584b8	-0.5215564
21	0x3f170061	0.58984953
22	0x3ed72952	0.42023712
23	0xbd67cef7	-0.05659386
24	0x3e510e36	0.20415577
25	0x3ee6f128	0.45105863
26	0x3e5f4fd6	0.21807799
27	0xbda16e2f	-0.07882344
28	0xbe429f99	-0.19006194
29	0x3d9c488c	0.07631025
30	0x3cea330a	0.02858879
31	0x3df0e734	0.117628485
32	0xbf87c2c9	-1.0606319
33	0xbf025cc5	-0.50922805
34	0x3f5e65e5	0.8687423
35	0xbea27581	-0.31730273
36	0xbe511b38	-0.2042054
37	0xbf45b8e3	-0.7723524
38	0xbe5ca7fd	-0.21548457
39	0x3d415f32	0.047209926
40	0x3c3294f8	0.010899775
41	0xbf31eba9	-0.69500214
42	0xbe0e1b71	-0.13877656
43	0x3e90b346	0.28261775
44	0x3d317257	0.043321934
45	0xbda0f265	-0.07858733
46	0x3f32c154	0.69826245
47	0x3e70795b	0.23483793
48	0x3f15ed0a	0.5856482
49	0x3e3cd20f	0.18439506
50	0xbd2f9b41	-0.04287267
51	0xbda78951	-0.08180488
52	0xbcb8c64f	-0.022555498
53	0x3da7f2e0	0.082006216
54	0x3d00ed58	0.03147635
55	0xbe9400dc	-0.28906906
56	0x3e6271bc	0.22113699
57	0xbe787c6e	-0.24266216
58	0x3eb15227	0.3463299
59	0x3ee34290	0.4438672
60	0x3e268e26	0.16265163
61	0xbe9cc142	-0.30616194
62	0x3c6db350	0.014508083
63	0xbe6fc6fb	-0.23415749
64	0x3d22bb7c	0.03972958
65	0x3fc653cc	1.5494323
66	0x3ece8348	0.40334535
67	0x3dccdb14	0.10002723
68	0xbe243bad	-0.1603839
69	0xbdaf2889	-0.08552653
70	0x3e8f38c7	0.27973005
71	0x3d7f307c	0.062302098
72	0x3e2c140a	0.1680452
73	0xbc8a2ce4	-0.016867109
74	0xbeca0f80	-0.3946495
75	0xbc87d579	-0.016581284
76	0x3b8efe61	0.0043638204
77	0xbebd5382	-0.36977774
78	0x3e0ce926	0.13760814
79	0xbf131702	-0.5745698
80	0x3eb441dd	0.352065
81	0x3ec26632	0.37968594
82	0xbdcb1794	-0.099166065
83	0xbdbcb8e2	-0.09214951
84	0x3db93bc1	0.090446
85	0x3dcddd6b	0.10051998
86	0x3ec44001	0.3833008
87	0xbf3fbcbf	-0.7489738
88	0x3f0035b2	0.5008193
89	0xbeb90909	-0.36139706
90	0x3d257553	0.040395092
91	0x3e28c106	0.16479883
92	0xbcfcbe64	-0.030852504
93	0x3e9eceb5	0.3101708
94	0xbf236aed	-0.6383503
95	0x3d5aac10	0.053386748
96	0xbedacb75	-0.4273335
97	0x3d5d6100	0.054047585
98	0xc08d6603	-4.4187026
99	0x3dc85bd1	0.097831376
100	0x3e1fcffa	0.1560668
101	0xbf9c34de	-1.2203634
102	0xbe620d0d	-0.22075291
103	0xbce0388e	-0.027370717
104	0x3ebaa1b1	0.36451486
105	0xbf0e5b49	-0.5560804
106	0x3e9f8784	0.31158078
107	0x3ddc7893	0.10765185
108	0xbdb4a6d5	-0.08820883
109	0xbe0b7500	-0.1361885
110	0x3e05d93e	0.13071153
111	0xbe5b8578	-0.21437633
112	0xbeadd184	-0.3394891
113	0x3e6d8b70	0.23197722
114	0x3f78b1b6	0.97146165
115	0x3e3104cd	0.17286988
116	0xbd50e022	-0.050995
117	0x3dc05921	0.09392
118	0x3d0ddef2	0.034636445
119	0x3d0c25fd	0.034215916
120	0xbe894182	-0.2680779
121	0x3e7bcfc4	0.24590975
122	0xbcb4a8b0	-0.022053093
123	0xbd86ad77	-0.065760545
124	0x3e8c53e7	0.27407762
125	0x3f0fe884	0.56214166
126	0x3f0b5f27	0.54442066
127	0xbe8f0052	-0.27929932
128	0xbe1e3e75	-0.15453513
129	0xbf300bae	-0.6876782
130	0xbcaf50a0	-0.02140075
131	0x40085f38	2.1308117
132	0xbf06b3d2	-0.52618134
133	0xbeb8b256	-0.3607356
134	0x3d1cfe87	0.038328674
135	0xbe22ac21	-0.15885974
136	0x3e29565e	0.16536853
137	0x3f83fcf1	1.0311567
138	0xbf04d976	-0.5189432
139	0x3d1267fc	0.0357437
140	0xbe242ff8	-0.16033924
141	0x3ca150aa	0.019691784
142	0xbdeab353	-0.11459985
143	0x3ed7ce7b	0.4214972
144	0x3da650c2	0.08120872
145	0xbe43cd29	-0.19121231
146	0x3f5620e4	0.8364394
147	0x3e0d2f67	0.13787614
148	0xbd531012	-0.051528998
149	0xbce73763	-0.028224653
150	0xbd1560f9	-0.036469433
151	0x3d9049f3	0.07045355
152	0x3e8e019b	0.277356
153	0x3ced8d2a	0.028997976
154	0xbeec6df6	-0.46177644
155	0xbe89b38e	-0.26894802
156	0x3e1de5ef	0.15419744
157	0xbd581dd3	-0.052762818
158	0x3cad9e68	0.021193698
159	0x3e1c4a6f	0.15262769
160	0x3e93db92	0.28878456
161	0xbe0e8c45	-0.13920696
162	0xbe17e3a5	-0.14832933
163	0xbc93f1b8	-0.018059596
164	0xbf945d68	-1.1591005
165	0xbeb16e26	-0.3465435
166	0xbde1c35b	-0.11023589
167	0x3bcd21ec	0.0062601473
168	0xbed5b959	-0.41742972
169	0xbea789c3	-0.3272229
170	0xbe8f0a44	-0.2793752
171	0x3e7c546d	0.24641581
172	0x3d4d543a	0.050129153
173	0x3f127ba2	0.572199
174	0x3f19e10b	0.60109013
175	0x3e50e01d	0.20397992
176	0xbea23ae7	-0.31685564
177	0xbe921af4	-0.2853619
178	0x3d019910	0.031640112
179	0x3eb89a8e	0.36055416
180	0x3da15d25	0.07879094
181	0xbba98317	-0.005173098
182	0x3d8d3b1e	0.06896041
183	0xbe4021f1	-0.18762948
184	0xbde88eff	-0.11355399
185	0x3ce55f3b	0.027999511
186	0xbb759298	-0.003747141
187	0x3ea88a03	0.32917795
188	0x3e8d885b	0.27643093
189	0x3e181aa2	0.1485391
190	0xbdf16533	-0.1178688
191	0x3eb23a71	0.34810212
192	0x3e08fee3	0.13378482
193	0xbe83533e	-0.25649446
194	0x3df1126c	0.11771092
195	0xbed646e0	-0.41850948
196	0xbbfcd560	-0.007715866
197	0x3fb0b010	1.380373
198	0xbf2edf21	-0.6830922
199	0x3f27f2c7	0.65604824
200	0x3e5076e6	0.20357856
201	0xbd805a2e	-0.062672004
202	0x3de7bee1	0.11315704
203	0xbf24f09b	-0.64429635
204	0x3f07611f	0.5288257
205	0xbd4abcd2	-0.04949648
206	0x3dc9f962	0.09862019
207	0x3ef5ae1a	0.4798439
208	0x3e1c99ef	0.15293096
209	0x3de7ec10	0.11324322
210	0x3ddeb41d	0.10874198
211	0x3f2b0f14	0.6681988
212	0xbce721ce	-0.028214362
213	0xbe8cce2e	-0.27501053
214	0xbe1f7f56	-0.15575919
215	0x3dc019ca	0.09379919
216	0xbe9783aa	-0.2959264
217	0xbcdad08c	-0.026710771
218	0xbe9d3947	-0.30707762
219	0xbf78ab37	-0.97136253
220	0xbec244c1	-0.3794308
221	0x3e71becb	0.23607938
222	0xbeeafc8c	-0.45895803
223	0xbcd0b794	-0.025478162
224	0x3c71b866	0.014753437
225	0x3ed00317	0.40627357
226	0x3e8d7ce2	0.2763434
227	0x3d8c1143	0.0683923
228	0xbeab2939	-0.33429888
229	0x3e14dd9c	0.14537662
230	0xbf685ec1	-0.90769583
231	0x3ea52504	0.32254803
232	0x3e26650e	0.16249487
233	0xbe366098	-0.17810285
234	0xbe418903	-0.18899922
235	0x3e6524ed	0.22377367
236	0xbe6154f0	-0.22005057
237	0xbe842450	-0.25808954
238	0xbe3e7136	-0.18597874
239	0xbee35856	-0.44403332
240	0x3cb258b9	0.021770822
241	0x3eb10f26	0.3458187
242	0xbe8bc9a4	-0.27302277
243	0x3ed2eec9	0.41197804
244	0xbe8cada8	-0.2747624
245	0x3ed68ec4	0.41905797
246	0xbe20a2fe	-0.15687177
247	0xbe3440d9	-0.17602862
248	0x3d9db9d1	0.07701457
249	0x3e273226	0.16327724
250	0xbc7af4d4	-0.015317161
251	0xbdcc02c0	-0.09961462
252	0x3eb44355	0.3520762
253	0x3f02dd79	0.5111919
254	0xbeea349b	-0.4574326
255	0x3c91485c	0.017734699

fc1.bias f4 [256]
0	0x3d67dd1b	0.056607347
1	0xbee8bf43	-0.4545842
2	0xbed6e5fd	-0.41972342
3	0xbf1f1f37	-0.62157005
4	0xbc5e74fb	-0.013577695
5	0xbe2dc559	-0.16969813
6	0xbf14395e	-0.57900035
7	0xbe5e2f87	-0.21697818
8	0xbdda3c0d	-0.10655985
9	0xbe822cf9	-0.25424936
10	0xbf28435b	-0.65727776
11	0xbe22d7c3	-0.15902619
12	0xbf0696cc	-0.5257385
13	0xbef84d0f	-0.4849629
14	0x3ea66471	0.32498506
15	0xbdf7eedf	-0.12106108
16	0xbea1fd2f	-0.31638476
17	0xbf07bd12	-0.53022873
18	0xbf6c4595	-0.92293674
19	0x3e8ba7df	0.27276513
20	0xbfc1cb1d	-1.514011
21	0x3c9ad406	0.018899929
22	0xbeba8d9d	-0.36436167
23	0xbdd24981	-0.10267926
24	0xbf9fbefd	-1.248016
25	0xbeeede7b	-0.46654114
26	0xbe9c6813	-0.30548152
27	0x3da8d54c	0.08243808
28	0xbe8ab073	-0.27087745
29	0xbf36684d	-0.712529
30	0xbeccd46e	-0.4000582
31	0x3e6bf859	0.23043956
32	0x3f244381	0.641655
33	0xbecb9759	-0.39763907
34	0x3e1d1502	0.15340045
35	0xbef1d5e0	-0.47233486
36	0x3e5e9896	0.21737894
37	0xbf0a2aeb	-0.5397174
38	0xbebe6215	-0.37184206
39	0x3e77baa0	0.24192286
40	0xbe749b74	-0.23887426
41	0x3e779331	0.24177243
42	0xbe029be3	-0.12754779
43	0xbf57786f	-0.8416814
44	0xbee2dc6f	-0.44308802
45	0xbe211182	-0.15729335
46	0xbf5077cf	-0.81432813
47	0xbe699ec5	-0.22814472
48	0x3d90d265	0.070713796
49	0x3ec14868	0.37750554
50	0x3c8e401a	0.01736455
51	0x3e84b540	0.25919533
52	0xbedb7b7e	-0.42867655
53	0x3e12166f	0.1426637
54	0xbee38daf	-0.44444034
55	0x3db94871	0.0904702
56	0xbcef6768	-0.029224113
57	0xbe85855f	-0.26078317
58	0xbed61aef	-0.41817424
59	0xbde323d6	-0.110908195
60	0xbe8ed4cb	-0.27896723
61	0xbf4d3f71	-0.8017493
62	0xbde4e632	-0.11176719
63	0xbe97b0cc	-0.29627073
64	0x3f0cbf0d	0.5497902
65	0xbefbd345	-0.49184623
66	0xbe3893aa	-0.1802508
67	0xbdd63288	-0.10458857
68	0xbea6470f	-0.32476088
69	0x3e064531	0.13112332
70	0xbf61c335	-0.8818849
71	0xbf26cc8e	-0.65155876
72	0xbf71d3f1	-0.9446402
73	0x3f1435c3	0.57894534
74	0x3e953531	0.29142144
75	0x3e40efed	0.18841524
76	0xbe5c18d0	-0.2149384
77	0xbf0608e0	-0.5235729
78	0x3e68b21e	0.22724196
79	0x3dc997b4	0.09843388
80	0xbebf8b01	-0.3741074
81	0xbe9c4a25	-0.30525318
82	0xbeb23b9c	-0.34811103
83	0xbebc4767	-0.36773226
84	0xbe5056bf	-0.20345591
85	0xbcd3e95d	-0.025868112
86	0x3ea6c080	0.3256874
87	0xbea8c037	-0.32959148
88	0xbe5b9fb8	-0.21447647
89	0xbf0a0cfa	-0.5392605
90	0xbeb00d38	-0.34385085
91	0xbdda5e1f	-0.106624834
92	0xbd9bbef3	-0.0760478
93	0xbe031daf	-0.12804292
94	0xbe6b31ea	-0.2296826
95	0x3edc3005	0.43005386
96	0xbe9c6801	-0.305481
97	0xbe4557cb	-0.19271772
98	0xbedb8a4a	-0.42878944
99	0xbe284a8f	-0.16434692
100	0xbe24490c	-0.1604349
101	0xbe2f8bfc	-0.17143244
102	0x3d678407	0.056522395
103	0xbded56f4	-0.115888506
104	0xbead8c85	-0.3389627
105	0x3f0efe8c	0.5585716
106	0xbf187b59	-0.59563214
107	0xbe81ac29	-0.2532666
108	0xbe0abe1a	-0.1354908
109	0xbb9b550e	-0.004740364
110	0x3ded4d99	0.11587066
111	0x3dd6204c	0.10455379
112	0xbe6158d0	-0.22006536
113	0xbf3dc32f	-0.7412595
114	0xbea62f8b	-0.32458147
115	0xbeb5bb49	-0.3549445
116	0xbe22bcd0	-0.15892339
117	0xbebe2132	-0.371347
118	0xbce4b9af	-0.027920572
119	0xbec21caa	-0.37912494
120	0x3e93932c	0.2882322
121	0xbf0d793e	-0.55263126
122	0xbf25b8f8	-0.64735365
123	0x3ee0e6e2	0.4392615
124	0xbe3a8fd9	-0.18218936
125	0xbdec9508	-0.11551863
126	0xbf068911	-0.52552897
127	0xbf00a402	-0.50250256
128	0xbe576502	-0.21034625
129	0x3e283b22	0.16428807
130	0xbe9f0c56	-0.310641
131	0xbde789c0	-0.113055706
132	0xbf45e20e	-0.7729806
133	0x3c55f952	0.013059931
134	0x3e02f5fc	0.12789148
135	0xbec5a039	-0.38598803
136	0xbf3ef62a	-0.74594367
137	0x3e1a1660	0.15047598
138	0x3e54a03f	0.20764254
139	0xbe684413	-0.22682218
140	0xbe828382	-0.25490957
141	0xbf28a57a	-0.658775
142	0xbf429688	-0.7601094
143	0xbef15c66	-0.47140807
144	0xbe28785f	-0.16452168
145	0x3e88cd9f	0.26719376
146	0xbf42d3dd	-0.7610453
147	0xbdb2f2bd	-0.08737705
148	0xbf482123	-0.7817556
149	0xbeb4bc22	-0.35299784
150	0xbea2eb99	-0.31820372
151	0xbf4f30d6	-0.8093389
152	0xbeff13b9	-0.49819735
153	0xbf54433f	-0.8291511
154	0xbea388cd	-0.31940308
155	0xbd106b6a	-0.035258688
156	0xbf290920	-0.6602955
157	0x3e43477c	0.19070238
158	0xbe82e2cb	-0.25563654
159	0x3e061953	0.13095598
160	0xbf280a87	-0.65641063
161	0xbc96f09a	-0.018425275
162	0x3ea35ae8	0.31905293
163	0xbd832d1c	-0.06405088
164	0xbf1b13ec	-0.60577273
165	0xbefad11a	-0.48987657
166	0x3e6218e1	0.22079803
167	0xbea1fb3a	-0.31636983
168	0xbc94d4f9	-0.01816796
169	0xbda346a7	-0.0797246
170	0xbf3403f3	-0.70318526
171	0xbf1c74c0	-0.61115646
172	0x3e0b713a	0.13617411
173	0x3eb3c7b3	0.35113296
174	0xbe8dced9	-0.27696875
175	0x3ec490e2	0.38391787
176	0xbeca6a44	-0.395342
177	0x3de5e088	0.112244666
178	0xbed808a0	-0.4219408
179	0xbf32c0d4	-0.6982548
180	0x3df7c6d5	0.12098471
181	0x3e98f03c	0.29870784
182	0x3e7671f9	0.24066915
183	0xbe56a43c	-0.20961088
184	0xbf5df7ca	-0.8670622
185	0xbe912fcf	-0.28356788
186	0xbda1731d	-0.07883284
187	0xbee0eebb	-0.43932137
188	0xbf3f437f	-0.74712366
189	0xbe30b28f	-0.17255615
190	0xbeee171b	-0.46502003
191	0xbe827f3c	-0.25487697
192	0xbf67133c	-0.90263724
193	0xbe301ebc	-0.17199224
194	0xbf0a7c94	-0.5409634
195	0x3d80ccfc	0.06289098
196	0xbede07d0	-0.43365335
197	0xbee4307f	-0.4456825
198	0x3beb7670	0.0071857497
199	0xbcc1213e	-0.023575421
200	0xbec04bf1	-0.3755794
201	0xbe1691d2	-0.14704064
202	0xbec8f7c5	-0.39251533
203	0xbf1d0668	-0.613379
204	0xbeebc511	-0.46048787
205	0xbe256303	-0.16151051
206	0xbe381fbd	-0.17980857
207	0xbee9fc8c	-0.4570049
208	0xbf6a17ca	-0.9144255
209	0xbf1423eb	-0.57867306
210	0x3dc7a39a	0.097480014
211	0xbeaeb3cb	-0.34121546
212	0xbe39ad2e	-0.18132469
213	0xbe9de0a9	-0.30835465
214	0xbdf70236	-0.120609686
215	0xbe32e1ca	-0.17468944
216	0xbeed70f5	-0.46375242
217	0xbe17a5cb	-0.14809339
218	0x3e8eb228	0.27870297
219	0x3df9098e	0.121600255
220	0xbf6310c0	-0.88697433
221	0xbec85d2f	-0.39133593
222	0xbf578b55	-0.8419698
223	0xbeb6cc03	-0.35702524
224	0xbed5cf16	-0.41759557
225	0xbdf1768e	-0.11790191
226	0x3d125895	0.03572901
227	0xbf47e54a	-0.7808424
228	0xbf90d8ac	-1.1316123
229	0xbdf59ea6	-0.119931504
230	0x3c59e5d6	0.013299426
231	0x3e15b5d4	0.14620143
232	0xbc93ee33	-0.018057918
233	0x3e5df811	0.21676661
234	0xbf7ece61	-0.9953366
235	0xbe85d393	-0.2613798
236	0x3e670a84	0.22562605
237	0xbe88acb3	-0.2669426
238	0x3de3a1b1	0.111148246
239	0x3d3ca07d	0.04605149
240	0x3e2fb937	0.17160498
241	0xbe6b1a10	-0.22959161
242	0xbeecb8cc	-0.4623474
243	0xbf5bec32	-0.8590728
244	0xbebecec2	-0.3726712
245	0xbe6b602f	-0.2298591
246	0xbe6631ed	-0.22479983
247	0x3e0ed176	0.1394709
248	0xbe7f17dd	-0.24911447
249	0x3d1d18a3	0.038353574
250	0xbf0a54a4	-0.540354
251	0x3e4e90aa	0.20172372
252	0xbec897ae	-0.39178222
253	0xbe61a775	-0.22036536
254	0x3e0c3f69	0.13696064
255	0xbe74e81a	-0.23916665

fc2.weight f4 [4, 256]
0	0x3d76b048	0.06022671
1	0xbab8040b	-0.0014039291
2	0x3e006466	0.12538299
3	0x3f61caec	0.8820026
4	0x3e03b66c	0.12862557
5	0x3f461313	0.77372855
6	0xbef0bc38	-0.470186
7	0x3d6e4f60	0.058181167
8	0xbe7ac990	-0.24490952
9	0xbdf0d0a7	-0.11758547
10	0x3ec0e536	0.37674874
11	0x3f16dbda	0.58929217
12	0x3ef167ac	0.47149408
13	0xbf25a3d1	-0.6470309
14	0x3d312810	0.043251097
15	0x3e29feb5	0.1660107
16	0x3e28c14c	0.16479987
17	0xbcaeed61	-0.021353425
18	0x3e5a7f4a	0.2133762
19	0xbe11329f	-0.14179467
20	0x3d4ce9ae	0.05002754
21	0xbe3f072e	-0.18655083
22	0xbdfa2189	-0.122134276
23	0x3ebd5ae7	0.36983415
24	0x3ffa6ab5	1.9563814
25	0x3f4e79e3	0.80654734
26	0x3daee592	0.08539881
27	0x3c996034	0.018722631
28	0xbde8509c	-0.113435
29	0x3ea11649	0.31462315
30	0xbe95e3a6	-0.29275244
31	0x3e7af098	0.24505842
32	0xbddd7b9f	-0.108145945
33	0xbe91c5c5	-0.284712
34	0xbbd0c9fd	-0.006371735
35	0xbd8858ea	-0.06657584
36	0x3f762849	0.9615522
37	0x3e0f7d66	0.1401268
38	0xbe16c89b	-0.14724962
39	0x3e704a11	0.23465754
40	0x3e153339	0.14570321
41	0x3e0b7160	0.13617468
42	0x3e923471	0.28555635
43	0x3fdfd614	1.7487206
44	0xc0108a91	-2.2584574
45	0xbeade5a7	-0.33964273
46	0x3ee7d7c0	0.45281792
47	0xbe0433d3	-0.12910394
48	0xbdc22b61	-0.0948093
49	0x3e532c3e	0.20622346
50	0x3e83709c	0.25671852
51	0xbf047e97	-0.5175566
52	0xbc36c85b	-0.011156167
53	0xbdd87fd4	-0.10571256
54	0x3d77d856	0.06050905
55	0xbd577279	-0.052599404
56	0xbe82c2e6	-0.2553932
57	0x3dec7cbf	0.11547231
58	0x3e414177	0.18872629
59	0x3dc2f6c1	0.09519721
60	0x3cea0f47	0.028571738
61	0xbea30608	-0.3184054
62	0xbe1f0fcc	-0.1553337
63	0x3e172195	0.14758904
64	0xbe717341	-0.23579122
65	0x3faf5e92	1.3700736
66	0xbe7b0566	-0.24513778
67	0x3e0cc60f	0.13747428
68	0x3d325c74	0.0435452
69	0x3d42d961	0.04757059
70	0xbfa6683b	-1.3000559
71	0xbbb66f54	-0.0055674706
72	0xbf85ed74	-1.046309
73	0xbd0a8528	-0.033818394
74	0xbb289b0b	-0.0025727178
75	0xbfbed276	-1.4907978
76	0x3d269ed2	0.040678807
77	0xbe9387b4	-0.2881447
78	0xbc83bb24	-0.016080447
79	0x3c272bba	0.010203296
80	0xbcbd391e	-0.023098525
81	0x3e942841	0.2893696
82	0xbdd0382a	-0.101669624
83	0x3e15d319	0.14631309
84	0xbf625e41	-0.8842507
85	0x3c73c991	0.0148796
86	0x3de1557d	0.11002634
87	0xbf24f12f	-0.64430517
88	0x3e3d9ae8	0.18516123
89	0x3ecb5b0c	0.397179
90	0x3c0ad9f9	0.00847482
91	0xbe82b0e1	-0.25525573
92	0x3dae46a9	0.08509571
93	0x3c8fc0e1	0.017548027
94	0xbe3640a1	-0.17798091
95	0xbf6a8b76	-0.9161905
96	0x3eee787c	0.46576297
97	0xbed3db93	-0.4137846
98	0x3b62f586	0.0034631207
99	0xbe5a01ad	-0.21289702
100	0x3d6b66f8	0.057471246
101	0xbfcd5909	-1.6042796
102	0x3dfb4cbb	0.122704946
103	0x3d81f397	0.06345289
104	0xbe0a9390	-0.13532853
105	0xbe08b628	-0.13350737
106	0x3e80488c	0.2505535
107	0x3e7a6a4d	0.24454613
108	0x3ddddf7f	0.10833644
109	0xbee19979	-0.44062403
110	0xbd62127c	-0.05519341
111	0x3cc3ec25	0.023916313
112	0x3d9d0fc6	0.07669024
113	0x3fdbf0cd	1.7182862
114	0xbe06b4b5	-0.13154872
115	0xbdaa6c52	-0.08321442
116	0x3e93ebb8	0.28890777
117	0x3fb6eda6	1.4291275
118	0xbe814602	-0.25248724
119	0x3e09b0e6	0.13446388
120	0xbebccd79	-0.36875513
121	0x3dd09638	0.10184902
122	0xbe0f342a	-0.13984743
123	0xbe9cb796	-0.30608815
124	0xbd10298b	-0.03519587
125	0x3e33848d	0.17531033
126	0x3de2177d	0.11039636
127	0x3e46e4af	0.19423173
128	0xbee5b48c	-0.4486431
129	0x3e7a7881	0.24460031
130	0xbcf7365e	-0.030177291
131	0x3d5e112d	0.0542156
132	0x3dd059d0	0.101733804
133	0xbd04534c	-0.032306
134	0xbd2d1694	-0.04225786
135	0x3e8e98d9	0.27850989
136	0x3e5b88ac	0.21438855
137	0x3e1053eb	0.14094512
138	0x3e8d9655	0.27653757
139	0x3d6cff3d	0.0578606
140	0xbe017ad9	-0.12644519
141	0x3d59852b	0.053105514
142	0xbf16a4e4	-0.58845353
143	0xbdaa1eda	-0.08306666
144	0x3c1b2a5b	0.009470548
145	0x3ad62800	0.0016338825
146	0xbd47f7d1	-0.04882032
147	0x3d4f45ed	0.050603796
148	0x3ed213b8	0.4103067
149	0xbeae5bae	-0.3405432
150	0xbfc85439	-1.5650703
151	0x4044094b	3.0630672
152	0xbd19f7b8	-0.03758976
153	0xbe8a1a8c	-0.2697338
154	0xbeefca8a	-0.46834213
155	0xbe01058c	-0.12599772
156	0x3c1ae249	0.009453365
157	0xbd083ad4	-0.033259228
158	0x3e14fdad	0.14549895
159	0xbe8fe3a8	-0.28103375
160	0x3ed4f5a3	0.41593656
161	0xbd475e21	-0.048673753
162	0x3eb7654b	0.35819468
163	0xbf2cc1d7	-0.67483276
164	0xbe7d3e94	-0.24730903
165	0x3f3404d5	0.70319873
166	0xbe4ec311	-0.201916
167	0x3e662398	0.22474515
168	0x3e16c390	0.14723039
169	0x3c58b9a7	0.013227857
170	0xbfc54b1c	-1.5413547
171	0x40028498	2.0393429
172	0x3e96635c	0.2937268
173	0xbdb13fee	-0.08654772
174	0xbf840133	-1.0312866
175	0xbda312cc	-0.079625696
176	0x3ee70861	0.4512358
177	0xbd611c2e	-0.054958515
178	0xbdb60347	-0.08887344
179	0xbffb97a9	-1.9655658
180	0xbec1bbd2	-0.37838608
181	0xbca05c24	-0.019575186
182	0xbe8ca198	-0.27467036
183	0x3dbfdeb3	0.093686484
184	0xbce44647	-0.027865542
185	0xbe1ade05	-0.15123756
186	0x3ebfa5cc	0.3743118
187	0x3d8559d3	0.06511273
188	0xbe80ab93	-0.251309
189	0x3ecebec8	0.4037993
190	0x3dd3766a	0.1032532
191	0xbd57f4ea	-0.052723803
192	0xbd6ca45f	-0.057773944
193	0xbf639e5c	-0.8891351
194	0x3f04033d	0.5156744
195	0x3e71b706	0.23604974
196	0xbe1b7f81	-0.15185358
197	0xbf0f6441	-0.5601235
198	0xbdd8edc0	-0.10592222
199	0x3e02d0d4	0.12774974
200	0xbee1b115	-0.44080415
201	0xbe1076f5	-0.14107879
202	0x3fa26cc6	1.2689445
203	0xbe2f88ad	-0.17141981
204	0xbef678cb	-0.48139033
205	0x3e10abc1	0.14128019
206	0x3dae2868	0.08503801
207	0x3e5e6038	0.21716392
208	0xbeb134f8	-0.34610724
209	0x3a08bbbd	0.00052159635
210	0x3e231349	0.15925325
211	0x3ecfa75e	0.4055738
212	0xbe8e16f9	-0.27751902
213	0x3e9a5c46	0.30148524
214	0x3e18ad95	0.14909966
215	0xbce9bb84	-0.028531797
216	0x3e8bd8ae	0.2731375
217	0x3f0ec95f	0.5577602
218	0xbe83b926	-0.25727195
219	0x3baf7f5b	0.005355758
220	0xbcb341a2	-0.021881882
221	0x3e5d73db	0.21626227
222	0xc018fda0	-2.39048
223	0xbdfdeb64	-0.12398413
224	0x3e6506ea	0.22365919
225	0xbf6fba9a	-0.93644106
226	0xbe0e58b6	-0.13901028
227	0x3ee10fa7	0.43957254
228	0x3e9ee437	0.3103349
229	0xbd07b6ed	-0.033133436
230	0xbd3bef96	-0.045882784
231	0xbe8410f6	-0.2579419
232	0xbe3b59c6	-0.18295965
233	0xbe17ee1f	-0.1483693
234	0xc055fc34	-3.3435183
235	0x3dc701f9	0.09717173
236	0x3df5fb72	0.1201085
237	0xbcc4e678	-0.024035677
238	0xba20e542	-0.00061376777
239	0x3ea7869b	0.32719883
240	0x3ed864eb	0.42264494
241	0x3de94eaf	0.11391961
242	0xbf1246fe	-0.57139575
243	0x3e9191f4	0.28431666
244	0xbe710846	-0.23538312
245	0x3e884a4b	0.2661918
246	0xbd1e402c	-0.038635418
247	0xbe78f6e6	-0.24312934
248	0x3dafa83b	0.08577009
249	0xbe4797d6	-0.19491515
250	0xbeaa1080	-0.33215714
251	0x3db1fbed	0.08690629
252	0xbed5f260	-0.4178648
253	0x3c1b141d	0.009465245
254	0xbda40b31	-0.08009947
255	0xbc3935ed	-0.011304361

fc2.bias f4 [4]
0	0x3e23cca8	0.15996039
1	0xbda3e6dc	-0.08003017
2	0xbe08bf7a	-0.13354293
3	0xbe0bda2d	-0.13657446
