project2-continous_control/checkpoint/actor_target.pth (torch_old, 39778 bytes, 4 tensors)

fc1.weight f4 [256, 33]
00000000: 4adf 2d3f f57b a23d f84d 61bf ebd7 0e3e
00000010: 225a 593e c86b d33e 404b 9dbe facd e73e
00000020: 05cb d03e c624 eb3d 62e1 b13e e916 4abe
00000030: 1c6c dcbe 4e35 a8be 61f4 d83e 19ed 943f
00000040: 5bdf 70be 9873 adbd f079 00be 71af 9f3d
00000050: a143 3bbe 8553 ce3d 33b3 143e d664 f03d
00000060: 9e36 e13d 42da 933e 02ca 9e3d db24 e2be
00000070: 71ac 32bf 8c48 9c3d 1b6d c83e 34e7 f03d
00000080: 8ecb febe 611b 03be b5e4 5c3f b539 29bf
00000090: c87b c6ba 6452 88be 2fb4 15bf 433a 05be
000000a0: bbe2 8cbd 18c9 d7be b4eb 623d 61a7 d63d
000000b0: 848c 263e 144c 05be f284 0a3f 1dff 0d3f
000000c0: 2cd4 b23e 73f1 763d e978 bebc 4fe7 a2be
000000d0: 8eb0 a6bb d1e0 e2bc c8b1 8a3e 3f25 00bf
000000e0: 3d01 cd3e 8919 fabc 0121 2b3f 0b09 6b3e
000000f0: a4d6 fbbd 9bea 90be 50b3 6d3c 88c9 523d
00000100: 7cbb 223d c1ef b43f ee9e f03d 63bb 95be
00000110: 0b58 adbe 74e2 4a3e efb6 ccbd 6e7f 5bbe
00000120: 75d3 be3d be2f 3a3e 66cd 06bf 69d6 e53c
00000130: eab8 a4bd eb51 043e d09d 1cbe d6f2 a2be
00000140: 752b 0ebd f668 a23e 4279 7e3d 194c 1bbd
00000150: 62bb a1bd 2195 e03d d862 abbd bb25 80be
00000160: a19a ccbd 5e83 133e 3348 9d3c f92a bdbe
00000170: 948c 063f 0204 513d 7052 abbe 10ac 5a3d
00000180: c83b 2cbe 0061 5d3d 8011 6cc0 163a 3c3e
00000190: 93d2 21bd 7b60 7bbf b2c3 ef3d 7298 4b3e
000001a0: f0e8 81be 8e51 72be 14ec 743e 2161 473e
000001b0: cbb1 cabb 011b 66bc 30af eebd 1bc2 acbe
000001c0: 8bf9 8ebe 2f6a cd3e a0c1 0e3f 321b d6bd
000001d0: 8fab c5bc 8ded 03be 55e2 b1bc cfb0 ffbb
000001e0: 8010 cd3d 9d3d ac3d 00f4 633e c741 a6be
000001f0: f08e 433f 716a cc3e 1759 983d 9592 603c
00000200: 753e 1ebe 97db 5ebe a050 afbc 6da7 2340
00000210: 5e01 11bf 0301 e7be 02b6 99bd 47a1 903e
00000220: c20c 373e c64d 433e 314c f7be 5f84 91bd
00000230: c9b4 40bf 3025 963e fcef 6bbd 3152 d1be
00000240: b376 023e dad6 6dbe 2a0e 233f d0d4 2abd
00000250: bd7e 11be 0b21 17bd 311e ef3d f0c1 b33d
00000260: 0c08 b83e d63a 1d3e d899 01be e906 88be
00000270: 57b7 063f 3830 2c3e ed42 573d 2565 1cbe
00000280: 0912 433e 458c 0ebe 70cc 203e b8f1 93bc
00000290: 62ea 68bf 394c 0b3e 63d9 7ebe d2f7 b4bd
000002a0: 8def a4bd 8ea9 80bb 4404 063c b5d4 6b3e
000002b0: 3123 15be c44b 283e e0c9 9d3e 1783 c6bd
000002c0: e565 e5bd 423d c0bd 947c eb3e a3a2 de3c
000002d0: 2e51 953e 35b8 fb3c 6b83 d23d da16 b73d
000002e0: 8ab6 e6bd 93ab f0bd df6f 583e 255c f23e
000002f0: 794f 7c3e 88b5 17be cf86 123e 5e2b 0e3f
00000300: 8f7b adbe 4afe 31be 6c12 f13d ccb0 5d3d
00000310: 60d5 fcbb aa97 723e 2dda 2abf 1bc9 be3e
00000320: 854f dbbe b32b 243e 306f c03d eff8 443d
00000330: fb6a 16be 445b 013d 9e89 023e 2c28 8e3e
00000340: 447c 0abe 6fc6 eabd 6c40 c5bb b39d 693e
00000350: 09ac c1be 1bec f0be 5da1 663e 7d54 433d
00000360: 1310 acbd 7583 383d 8264 aebd d678 d3be
00000370: f1cb cf3d bc6e 083d 1621 d03e 7e13 a4bd
00000380: 2710 2e3e 4576 a93c b843 a13e 4311 8c3d
00000390: dc05 523d 9cdd 143e ee5c 84be 6a72 743e
000003a0: cdd9 0cbf e492 f4bd 9050 b13e f29b 883e
000003b0: 8d80 3b3f 85d8 f9bd 8eb4 9cbd 4852 f9be
000003c0: 2f00 0abd 8804 973e 9091 bcbe 8b8a 8e3e
000003d0: 425a 25be cad9 aabc c366 1cbe af64 89bd
000003e0: 60b5 1cbe 09f0 6c3b b5bb 18bd f46c e43d
000003f0: 813a 553d f2d3 a23e f2d7 bebe 7242 c63d
0.6791884 0.07933799 -0.88009596 0.13949554 0.21225789 0.41293168 -0.30721474 0.45274335
0.40779892 0.11481623 0.34742266 -0.19735302 -0.4305123 -0.32853168 0.42373946 1.1634856
-0.23522703 -0.084693134 -0.12546515 0.07797135 -0.18287517 0.10074524 0.14521484 0.11737983
0.109967455 0.28877455 0.07753374 -0.44168743 -0.69794375 0.07631025 0.3914574 0.117628485
-0.49764675 -0.12803413 0.8628648 -0.6610368 -0.0015143091 -0.2662536 -0.58478063 -0.13010506
-0.06879183 -0.4214561 0.055400565 0.10481144 0.1626454 -0.13017303 0.5410911 0.55467397
0.349275 0.060288858 -0.023251014 -0.318171 -0.005086965 -0.027695091 0.2708876 -0.50056833
0.40040007 -0.030529754 0.66847235 0.22952668 -0.12296799 -0.2830399 0.014508083 0.051461726
0.03972958 1.4135667 0.117490634 -0.29244527 -0.33856234 0.19812948 -0.09995829 -0.2143533
0.09317676 0.18182275 -0.52657163 0.02805634 -0.08043082 0.12921874 -0.15294576 -0.31825894
-0.034709413 0.31720704 0.06212736 -0.03791437 -0.078970686 0.10965944 -0.08368462 -0.25028786
-0.099904306 0.14405581 0.019199466 -0.36946848 0.52558255 0.051029213 -0.33461332 0.053386748
-0.1681968 0.054047585 -3.688568 0.18381533 -0.03950746 -0.9819409 0.11707248 0.19882372
-0.2537303 -0.23663923 0.23918182 0.19470645 -0.0061857454 -0.014044524 -0.11654508 -0.3374184
-0.2792476 0.40120074 0.557642 -0.10454406 -0.024129657 -0.12883587 -0.021714369 -0.0078030596
0.10012913 0.08410189 0.22261047 -0.3247206 0.7638998 0.39924958 0.074388675 0.013706823
-0.15453513 -0.21763454 -0.02140075 2.5570939 -0.5664271 -0.4511796 -0.07505418 0.28248045
0.1787596 0.19072637 -0.48300317 -0.07105326 -0.75275856 0.29325247 -0.057601914 -0.4088302
0.12740593 -0.2322649 0.6369349 -0.04170686 -0.14208503 -0.036896747 0.116756804 0.08777225
0.3594364 0.15354475 -0.12656343 -0.26567772 0.52623504 0.16815269 0.05255406 -0.15272959
0.19049849 -0.13920696 0.15702987 -0.018059596 -0.9098264 0.13603295 -0.24887614 -0.088363305
-0.08053503 -0.0039264625 0.008179728 0.2303036 -0.14564206 0.16435152 0.3081808 -0.09692972
-0.112010755 -0.09386684 0.45993483 0.02717716 0.29163498 0.030727485 0.10278972 0.089399055
-0.11265285 -0.11751475 0.21136425 0.47335926 0.24639691 -0.14815342 0.14309238 0.55534923
-0.3388333 -0.1738216 0.11771092 0.054123685 -0.007715866 0.23690668 -0.6673916 0.37262806
-0.42834106 0.16032295 0.09396207 0.048088964 -0.14689247 0.03158118 0.1274781 0.27765024
-0.13523966 -0.114636295 -0.0060196426 0.22814064 -0.37826565 -0.47055134 0.22522493 0.047687996
-0.084015034 0.045047242 -0.08515264 -0.41303128 0.101463206 0.03330873 0.40650243 -0.0801153
0.16998349 0.020686278 0.31496978 0.0683923 0.05127512 0.14537662 -0.2585215 0.2387177
-0.5501984 -0.1194208 0.34631777 0.26681477 0.7324303 -0.12199501 -0.076516256 -0.48695588
-0.03369158 0.29495645 -0.36829805 0.27840075 -0.16147712 -0.020855803 -0.15273575 -0.06708657
-0.15303564 0.0036153814 -0.037288386 0.11153594 0.052057747 0.31802326 -0.37274128 0.09680642

fc1.bias f4 [256]
00000000: edc3 d63e 9d0b 2dbe d36f 24be 012a 1bbe
00000010: b962 953e 0518 9b3e d512 46be d1e8 a93e
00000020: 5972 963e 8ea2 a33b 370f afbe 4f2a 19be
00000030: 00b0 64be 04df b13d d4d5 853c b02b aa3e
00000040: 3d81 0abe 48b0 52be 5eb4 d1be 341f 223e
00000050: 7a60 52bf 3a3a b33d 9bbf 993d ac7c 943e
00000060: d4dd a5be fd65 75be 2ce4 713d f1c5 573d
00000070: 4d66 e93c 3a5a 02bf 48d5 c6be 23ae 793e
00000080: 282a 013f af09 1b3d ae4f ca3e 3bd0 64bd
00000090: 417f 2f3e 5356 5bbe 1c36 9abe 0f33 293e
000000a0: b7eb 8bbd 009f d33e b1a3 5bbe ac5f 85be
000000b0: 2b46 3cbe 9b1b c1bd 23cf 02bf 3cf9 b0bd
000000c0: 9e2b ddbc 6645 fd3e c938 b7bd 81b7 543e
000000d0: 07c4 093c 9cb5 883e f7aa cdbc aed5 343e
000000e0: 846f e33d 321c 3dbe a7a2 19bd 9f4a d63d
000000f0: 56dd eabd 4b16 f0be 11d0 50bc eb7a c3be
00000100: b1e2 df3e fd9c 813d b4c0 973d 5a52 023e
00000110: 0287 2ebe 018b b73e a067 d33c 9198 4ebe
00000120: fd62 f0be 6ad6 dc3e e74e 953e 842e a93e
00000130: df93 b23d 22ac 1ebf a066 db3e 75f8 853e
00000140: 5ad8 9fbe 919f e4be f469 f8bd adf2 83be
00000150: 7805 01be 08a8 aabb bbae b33e 30bf a33d
00000160: ea16 adbd 2205 98be c7ca 97bd 3241 2cbe
00000170: c67d 9fbc badc 89be 10eb 393e 5854 9c3e
00000180: 6308 46be aacf babe ead1 a2be 123b a5bd
00000190: 62e5 e5bd 8859 5e3e 4edb d93d 8f8a 103d
000001a0: 86f4 86be 35da f13e 3d76 e6be b5c1 79bc
000001b0: 802c 2cbe c78f 923d 4819 5b3e 63a5 d73e
000001c0: f7f8 ca3e c040 e0bd 2295 813d de08 bf3d
000001d0: d804 2bbe f4f2 86be 41c8 513e 8580 29be
000001e0: b6b9 4d3e fe5c a6be 6a7f babe 37a5 eb3e
000001f0: cee4 edbd f346 d43d 5232 79be 9959 c1be
00000200: e524 463d 879b d03e 0b11 b6be 60fb 53be
00000210: db09 28be bd7f 663e 7136 973e f01c d6bd
00000220: cda2 babe e991 a33e dedb 943e cb15 bbbd
00000230: 6e11 1cbe c8fd dcbe 5e96 b4be 1378 0bbe
00000240: b1d5 0e3e 7d7b 9d3e bb76 d8be 427e 25bd
00000250: bc83 1ebf 8f8b 93be e5ea 84bd fdcb 80bd
00000260: 1091 39be 1c1a fdbe e5fe b63e f74e 9e3e
00000270: 687f cfbe 3f70 3b3e 0f76 87be 26d3 bdbc
00000280: ee38 e0bd 0314 4d3e 7e58 b83e 397b e83d
00000290: 6468 523c 449d e0be 349c c63e d38e f6be
000002a0: d9ba f03d 4a43 ff3c 0843 8fbe feaf 96be
000002b0: 37bd e83d 1a03 c03d 2f0f a53d 9694 063f
000002c0: b011 c0be aa36 4c3e 7544 cabe a29b a3be
000002d0: 1aa8 653d 018f 943e fced 813e 5699 703e
000002e0: 9419 3bbf 8bcd 823e ce0e 7c3c 99de 1abe
000002f0: 0873 01bf 37f5 383d 5dfc 28bc b998 ad3e
00000300: 4cb7 29bf b3e2 203e 5398 39be ec37 b83e
00000310: b09a b7bd cc0f 37be 76bc 14bd 1b7b 893e
00000320: 4f18 e4bd dcc9 413e 43cb fe3c f2b0 84be
00000330: 9d49 bfbe c3fa 89bd 0c0a 6d3d 8e43 8bbe
00000340: 1d16 30bf c4e1 ccbe d922 523c a5a5 593d
00000350: 7077 843e 2993 f6bc f92d 80bd 4795 babd
00000360: d48c ccbe aa73 d7bd ac4c db3e 2e28 8a3e
00000370: df4b f3be ecac 39be 8643 abbe edaa 33be
00000380: d932 28bc 9869 c73d 22e0 7bbd 4edd 01bf
00000390: 48b3 4dbf fe4f 2a3e 5ef5 46bd 9271 713d
000003a0: 2c8c 843e 4a3f 84be 7d2d aebd c6ec c7bd
000003b0: ab21 b13e 41c5 1dbe 2043 553e 483a 073e
000003c0: 0aed 0e3e a45e f93b e82d 2cbe d846 05bf
000003d0: ecb3 dabe 945e b93c 06e3 2c3e 9dc8 493e
000003e0: 82e9 a4bd adef 88ba 8451 1cbc 6b57 9e3e
000003f0: 0b8b 59bd f3cf 78bd 44e5 a83d 87a8 2f3e
0.41946355 -0.16898961 -0.16058283 -0.15152742 0.29176882 0.30291763 -0.19343121 0.33185437
0.29384115 0.0049937433 -0.34191296 -0.14957546 -0.22332764 0.08685115 0.016337313 0.33236456
-0.13525863 -0.20575058 -0.40957922 0.15832216 -0.8217846 0.0875134 0.07507249 0.29001367
-0.32395804 -0.23964687 0.059055492 0.052679006 0.028491164 -0.50918925 -0.38834596 0.24382834
0.5045495 0.037851032 0.39513916 -0.055862647 0.17138387 -0.21419649 -0.30119407 0.16523384
-0.068320684 0.41332245 -0.21449162 -0.26049554 -0.18386142 -0.094290935 -0.51097316 -0.08641288
-0.026998337 0.4946701 -0.08946378 0.20773126 0.008408553 0.26701057 -0.025105936 0.17659637
0.11105254 -0.18467787 -0.037508633 0.104634516 -0.11467998 -0.46892008 -0.012744919 -0.38179716
0.4372764 0.06328771 0.07409802 0.12726727 -0.17043689 0.3584824 0.025806248 -0.20175387
-0.46950522 0.43132335 0.2916176 0.330433 0.087196104 -0.61981404 0.42851734 0.2616612
-0.3121975 -0.4465299 -0.12129584 -0.25771084 -0.12599742 -0.005208019 0.35094246 0.079954505
-0.08451636 -0.29691416 -0.074117236 -0.16821745 -0.019469153 -0.26926214 0.18156075 0.305331
-0.19339137 -0.3648656 -0.31800777 -0.080679074 -0.11225392 0.21713841 0.10637532 0.03528839
-0.26358432 0.4723679 -0.45012084 -0.015243937 -0.1681385 0.071563296 0.21396363 0.42118368
0.3964307 -0.1094985 0.06327273 0.09327863 -0.16701066 -0.26357234 0.20486547 -0.16552933
0.20090374 -0.32492822 -0.36425334 0.46024486 -0.11615907 0.10365095 -0.24335602 -0.3776367
0.04837503 0.40743658 -0.35559878 -0.2070136 -0.1641001 0.22509666 0.29533723 -0.10454738
-0.36452332 0.31947258 0.29073995 -0.09135016 -0.15241024 -0.4316237 -0.3527097 -0.13620023
0.13948704 0.30758277 -0.42278084 -0.040403612 -0.6191976 -0.28817412 -0.06490115 -0.06288908
-0.18121743 -0.49433982 0.35741344 0.3091962 -0.4052689 0.18304537 -0.2645726 -0.023171972
-0.109483585 0.20027165 0.36005014 0.11351628 0.0128422715 -0.43869984 0.3879105 -0.4815584
0.11754388 0.031160016 -0.27980828 -0.29431146 0.11364215 0.093755916 0.08059537 0.52570474
-0.37513494 0.19942728 -0.39505354 -0.31954676 0.056068517 0.29015353 0.2537688 0.23495993
-0.73085904 0.25547442 0.015384389 -0.15123977 -0.5056615 0.04515573 -0.010314074 0.3390558
-0.66295314 0.15711479 -0.18124513 0.35980165 -0.08965051 -0.1787712 -0.036312543 0.26851735
-0.11137449 0.1892466 0.031102782 -0.2591625 -0.3736085 -0.06737282 0.05787091 -0.27199978
-0.6878374 -0.40015996 0.012825691 0.053136487 0.25872374 -0.030099468 -0.062587686 -0.09110504
-0.39951193 -0.10520108 0.42831933 0.2698378 -0.47518823 -0.1813237 -0.33449954 -0.17545672
-0.010266029 0.09736937 -0.061493047 -0.5072831 -0.80351686 0.16632077 -0.048573844 0.0589462
0.25888193 -0.25829536 -0.0850477 -0.09761958 0.34596 -0.15407278 0.20826387 0.13205826
0.1395761 0.007610159 -0.16814387 -0.52061224 -0.42715394 0.022628106 0.16883478 0.19705434
-0.080523506 -0.0010447406 -0.009540919 0.3092607 -0.053111117 -0.06074519 0.08246854 0.17154132

fc2.weight f4 [4, 256]
00000000: 659f 7abf 2d69 75bf 7534 62be 141b 6d3f
00000010: 6baa 663e 33f3 ab3e 0ef3 d53b f585 01be
00000020: fdd6 cc3e d599 3b3e e1f7 a43f 147f aa3f
00000030: 23f4 533f 3745 81bf 86a2 943d c12c 743e
00000040: 55be 94bf ec5c cdbe e835 dc3e b380 f6be
00000050: 4b75 9abe 6ae3 39be ef1b 003e 3072 123f
00000060: 7c73 643f ff63 243e 6fe3 debe 0fac cebd
00000070: c05e 05bc 042a eb3d bb1a 5ebe 200a f13c
00000080: 1a18 8a3d 5eb6 6b3e 0f3f 983d 0dc2 b03e
00000090: 15cb ba3f 01b7 15be eace b1be a0d8 173f
000000a0: c2bd f23d dfca 10bf a756 673f 4231 1f3f
000000b0: 0134 5bc0 a388 013e e264 f03e 27f4 433d
000000c0: 01b8 69be f65a e33e 2a94 d83e c377 97bf
000000d0: df79 0a3f a185 013f 25ea cd3f 7e62 3abe
000000e0: 6d0a debe 3917 213f 055f a63f f8d5 bf3d
000000f0: f61a 573f 5d58 7abf 8779 b7be fff4 e03d
00000100: 8c3c 76bf 40b3 d53e 1465 b2be eeac 4e3f
00000110: 0400 64bd e795 cc3e d14e 1e3e b83c 9d3f
00000120: ed1d a5bf 3a45 393e 8569 69be 230f 8abf
00000130: 38bc 65be d233 a2bf 5772 0f3d ad27 833e
00000140: 8b00 403f 1e04 92be c790 923e b8d6 d63e
00000150: 5ce7 083f 5978 053f 3c28 8a3d b1f2 bc3f
00000160: 1e6f f5bd 49b8 b63d 8215 273f 65e5 41bf
00000170: 07b5 273f febc cabf b4da eebe e2da d9bf
00000180: 904b 18bf 9b94 f9be 1adf 78be b399 7fbf
00000190: 0a01 46bf 36af 1abf 0d9f 4b3e 672b 733d
000001a0: 9a7b 68be 9a13 39bf 6406 ddbf c030 10be
000001b0: e13c 9c3e 01f2 0d3e 44e8 003f 0301 b5bc
000001c0: 691a 09be 70cc 8e3f fd27 0bbf 5d44 673e
000001d0: f69b e43e 01d9 6e3f 1b02 aabe 23f1 443f
000001e0: 191c b8bf 486b 7cbf 7415 17c0 3435 5ebe
000001f0: 517e 8cbe a9d2 b33e 707f 523f eb1e 3dbf
00000200: 4090 e1be 5e5b c83e a091 863f b1f1 10be
00000210: 910a e53d a5e8 11bf cae9 1e3e e6b8 183f
00000220: d30a bb3d d4da 1bbf 33cc ebbe 06e7 383f
00000230: 87f2 83bd 1ea8 2cbc 421c 6ec0 6787 a13e
00000240: fd57 833e 13f6 a93d d6d7 123f 8d7c 00bf
00000250: d0a3 223f 8a46 75bf 7500 b3bf 2b43 be3f
00000260: 7cd2 4f3f 4ab6 50be 74c4 dd3e 4d10 46bf
00000270: 05e0 b9bd 9f52 2b3f 9ae3 3e3f 7492 25bf
00000280: de54 623e e845 60bf 2152 873f ac3b 51bf
00000290: d7e4 e13d a16e 3cbf af02 c9be b021 9cbe
000002a0: f098 a0bd 8e75 833e 8f00 41c0 2261 043f
000002b0: 34f9 693f 08ad 8bbe 704b 3bbf ade6 e6be
000002c0: c3cf 7a3f 812e 8fbe e02f 20bf 8bb0 95bf
000002d0: d053 48bc 8698 ab3d f754 4dbf 3915 4e3f
000002e0: 4d7c f4bc 7ee9 6abf 8f46 5a3f 5c1b ad3f
000002f0: 36fb c5bc bb5f f3be 998e a13e b2db c0be
00000300: a347 98bf 65e1 78bf f90b e13e 0b6e 093f
00000310: 87a9 f7bc ece6 593e 571b 353f f4c3 9e3e
00000320: 0570 183f 0ab8 6cbe 69f6 cabd eaa2 b2bf
00000330: f0da 1ebf b5c2 e63e 7c30 103f 71e6 9c3d
00000340: ab10 963c f9a2 44be d698 8b3f ef66 4c3f
00000350: 30de 95bd a361 8b3e d4af 733f 2589 263c
00000360: 42dd 5e3f c22b 0540 e998 393e e4b3 a0be
00000370: 434c 803e 49b7 223f e134 b0bf 9f4b 92be
00000380: f65d 903e e918 20bf 777f dd3e db59 1e40
00000390: 4f35 573f bedb 403c e69d 3ebf 079f 62bf
000003a0: 3098 78bf f34f 38bf f423 84c0 27cf ce3e
000003b0: f162 db3e a51a 933f 3f1d 1dbe 208d b93e
000003c0: 88ce 5e3f 03d4 bb3e defc 32be d7e6 56be
000003d0: c555 bdbf 7401 09bf b0b8 b4be 5e7c 77bf
000003e0: ee2a afbe f39e 513d 6ca0 373f 6c37 20be
000003f0: db80 a3bf 733e ca3e 9738 cdbe 9aa2 9b3e
-0.97899467 -0.9586361 -0.22090323 0.9261944 0.22525947 0.33583984 0.0065292185 -0.12648757
0.40007773 0.18320401 1.2888147 1.3320031 0.827944 -1.0099248 0.072575614 0.23845197
-1.1620585 -0.40109956 0.43009877 -0.48145065 -0.30167612 -0.18153158 0.12510656 0.57205486
0.89238715 0.1605377 -0.43532893 -0.10091411 -0.008140266 0.11482623 -0.21689884 0.029423773
0.06742878 0.23018786 0.074339025 0.3452305 1.4593226 -0.14620592 -0.34728175 0.5931492
0.118526 -0.56559557 0.90366596 0.62184536 -3.425049 0.12649779 0.46951967 0.047840264
-0.22824098 0.44405335 0.4230054 -1.1833423 0.5409221 0.50594527 1.608708 -0.18201634
-0.4336733 0.6292606 1.2997748 0.09366983 0.84025514 -0.9779108 -0.35834906 0.10984229
-0.9618614 0.4173832 -0.3484274 0.8073262 -0.055664077 0.39958116 0.15459754 1.2284155
-1.2899758 0.18092814 -0.22794159 -1.0785869 -0.22435081 -1.2672064 0.035021152 0.25616208
0.7500083 -0.28518766 0.2862608 0.41960692 0.53478026 0.5213676 0.06745955 1.4761564
-0.119840845 0.08921868 0.65267193 -0.75740653 0.655106 -1.5838926 -0.46651232 -1.7019923
-0.594903 -0.4874619 -0.24303856 -0.998439 -0.77345335 -0.604236 0.19884892 0.059367564
-0.227034 -0.72295535 -1.7267575 -0.14081097 0.30515197 0.13861848 0.5035441 -0.022095209
-0.13388981 1.1156139 -0.5435789 0.22584672 0.4465024 0.9329987 -0.3320473 0.76930445
-1.4383575 -0.986012 -2.3606844 -0.21699983 -0.27440122 0.35121658 0.82225704 -0.738753
-0.44055367 0.39132208 1.0513191 -0.14154698 0.11183656 -0.5699561 0.15518871 0.5965713
0.09132924 -0.6088078 -0.4605423 0.72227514 -0.06442743 -0.010538129 -3.7204747 0.31548616
0.25653067 0.08298888 0.5736059 -0.5019005 0.6353121 -0.9581076 -1.3984514 1.4864248
0.8118055 -0.20382038 0.43313944 -0.77368623 -0.090759315 0.66922945 0.7456604 -0.64676595
0.22102687 -0.8760667 1.0571939 -0.8173168 0.11029976 -0.73606306 -0.3925986 -0.30494452
-0.078416705 0.25675625 -3.015659 0.5171071 0.9139588 -0.2728045 -0.73161983 -0.45097867
0.9797327 -0.27965167 -0.6257305 -1.1694502 -0.012227014 0.08378701 -0.8020777 0.80501133
-0.029844427 -0.9176253 0.85263914 1.3523974 -0.024167638 -0.47533974 0.31554106 -0.37667614
-1.1896862 -0.97218925 0.43954447 0.5368354 -0.030232204 0.21279496 0.7074484 0.31008875
0.5954593 -0.2311708 -0.0991028 -1.3955967 -0.6205282 0.45070425 0.5632398 0.07661141
0.018318495 -0.19202794 1.0906017 0.79844564 -0.073177695 0.27222928 0.9519017 0.010164534
0.8705636 2.0807958 0.18124737 -0.31387246 0.25058183 0.6356092 -1.3766137 -0.2857332
0.28196687 -0.6253801 0.4326131 2.4742343 0.8406572 0.011771141 -0.74459684 -0.88523906
-0.9710722 -0.7199699 -4.129389 0.4039242 0.42848924 1.1492506 -0.15343188 0.36240482
0.8703389 0.3668519 -0.17479274 -0.20986496 -1.47918 -0.5351784 -0.35297155 -0.96674144
-0.3421244 0.051176976 0.7172916 -0.15646142 -1.2773699 0.3950077 -0.40082237 0.30397493

fc2.bias f4 [4]
00000000: 99e4 483e fd2f f3bd c6b6 09be 985c 04be
0.19618453 -0.118743874 -0.13448629 -0.12925947
