project2-continous_control/checkpoint/actor_target.pth (torch_old, 39778 bytes, 4 tensors)

fc1.weight f4 [256, 33]
000000 61 91 63 3e dd 5b 5a bd 65 09 a4 be 1d 5f 6b bd
       0.22223426 -0.053310264 -0.32038417 -0.057463754
000010 fa 1a 96 3d 36 5a ab 3d 68 d7 a5 3d 15 88 16 3e
       0.07329364 0.08366816 0.08097726 0.14700349
000020 ca 22 4b be b6 a6 1e be 91 37 c7 bd 6f 8d 13 3f
       -0.1983749 -0.15493283 -0.09727395 0.57637686
000030 95 7f a7 bd 9c eb 06 3d 10 13 c7 be 23 4d 36 3f
       -0.08178631 0.03293954 -0.3888173 0.7121145
000040 ac 6d 09 be 94 36 a1 be a1 4f 29 3f ed 4e b3 3d
       -0.13420743 -0.31486952 0.6613713 0.08755288
000050 b9 e0 d6 3e 8b 59 57 bf 7a b3 2a bf 9c e0 38 be
       0.41968325 -0.84121007 -0.6668011 -0.18054432
000060 ff 15 27 3e 89 b0 c7 bd 7a 6b 5c be 5f bd 03 bf
       0.16316985 -0.09750468 -0.21525374 -0.5146083
000070 92 ac 54 bf 8c 48 9c 3d ad c2 ed 3e 34 e7 f0 3d
       -0.8307582 0.07631025 0.46437588 0.117628485
000080 41 be 9b 3e 18 14 39 bd 3d 8f 6d 3e 3d a4 3c 3f
       0.3041859 -0.04518518 0.23199172 0.7368811
000090 85 89 f7 3d dc 08 da 3e 34 94 e2 bd e0 a6 af 3e
       0.12086777 0.42584884 -0.11063424 0.34307003
0000a0 d6 fb 2f be 68 d4 b6 3e 77 26 64 3e 4c cf f9 bc
       -0.17185912 0.35708928 0.22280298 -0.030494355
0000b0 03 2b d9 3e 9b b6 02 be a6 47 48 bf c0 45 d2 3c
       0.42415628 -0.12764971 -0.78234327 0.025668025
0000c0 41 e6 52 3d 0f 2f 50 bd 3c d9 1e 3d 0d 70 5d 3e
       0.05148912 -0.05082613 0.03878139 0.21624775
0000d0 21 6a b0 3d eb fe e2 be 65 8b b7 bd 5e af 2a 3e
       0.086139925 -0.44335112 -0.08962134 0.1666846
0000e0 c9 20 f4 be ac 2c ea be 6c 86 04 3e 51 10 96 3e
       -0.47681263 -0.45737207 0.12941903 0.29309323
0000f0 85 dd 39 3f 54 c5 28 bf 50 b3 6d 3c 70 2b 4c bf
       0.72603637 -0.659261 0.014508083 -0.7975378
000100 7c bb 22 3d e5 45 a7 be 87 81 82 be 34 08 d1 3d
       0.03972958 -0.32670513 -0.25489447 0.10206643
000110 8f f9 5d 3e 6b e9 9c bc 07 a7 bc 3e 73 84 b0 bb
       0.2167723 -0.019154271 0.36846182 -0.005386883
000120 f2 2d a2 3d b3 2c 83 be 2e 99 1d 3f 21 31 f4 bc
       0.079189196 -0.2562004 0.6156186 -0.029808583
000130 85 67 08 be 49 74 06 bd f6 c7 14 3e 6f 5b 68 3e
       -0.1332074 -0.032825742 0.14529404 0.22691129
000140 d5 0b f4 bd 65 5f a9 3e 63 19 66 3c ca 0f f5 3d
       -0.11916319 0.33080593 0.014044139 0.11965902
000150 b9 d6 03 3e df 14 ac 3e fc 6c 2d be 97 b2 5d be
       0.12874879 0.33609673 -0.16936105 -0.21650158
000160 5e ce 24 3e ee 0a f8 bd 7a 51 44 be 99 37 b9 3e
       0.16094348 -0.1211146 -0.19171706 0.3617523
000170 25 62 1a 3f 58 78 b5 3e 42 48 0f 3c 10 ac 5a 3d
       0.60306007 0.35443377 0.008745255 0.053386748
000180 94 78 f1 be 00 61 5d 3d 5c 32 13 3f e9 9e 04 bf
       -0.47162306 0.054047585 0.5749872 -0.5180498
000190 49 98 02 bf 6f 7d a1 3e 89 61 40 3d e7 69 1b bf
       -0.5101362 0.3154101 0.046968017 -0.6070847
0001a0 a2 34 c3 be ae 56 98 3d f6 6b 8b be ad c2 e6 3e
       -0.38126093 0.07438408 -0.27230805 0.450704
0001b0 fa 91 32 bf a1 e1 84 bd ff f1 64 be a2 3a b1 3e
       -0.6975399 -0.06488348 -0.22357939 0.34615046
0001c0 23 e5 10 3e 4c 04 20 bf d1 c2 4e 3f c2 69 5c bd
       0.14149909 -0.62506557 0.80766016 -0.053811796
0001d0 d5 bd 35 be 44 41 0a 3e af ab 52 bd 6f 0f 95 bf
       -0.17748196 0.1350146 -0.05143326 -1.1645335
0001e0 ad 23 9a 3d 4c 6a ac 3e 8f a4 bc 3e e9 a5 8c 3e
       0.07526336 0.33674848 0.36844298 0.2747033
0001f0 ed 5d 34 bc 8d de a0 3c 2d a9 07 bf c2 b9 55 3e
       -0.011008722 0.01963737 -0.52992517 0.20871642
000200 75 3e 1e be e7 f9 c5 3e a0 50 af bc 76 dd 69 be
       -0.15453513 0.38667223 -0.02140075 -0.22838387
000210 5b f7 6d 3f c2 1b 1f bd 9d 74 7a be ef 5b e0 bd
       0.9295556 -0.03884483 -0.24458547 -0.10955035
000220 cc 99 08 3f e7 96 ad 3e d9 5a 8e be ed 4a 1c 3f
       0.53359675 0.33904192 -0.27803686 0.6105183
000230 a8 ad 38 bf e9 cd 22 3f 27 1c c4 3e 8d 19 94 be
       -0.7213998 0.63595444 0.3830273 -0.28925744
000240 71 2f fc bd 27 eb 16 be fc 85 6b 3e 8b 43 01 3f
       -0.12313736 -0.14738141 0.2300033 0.5049369
000250 bc 5c aa be 8e 2b dc bc 31 66 82 3e 60 5e 1f 3e
       -0.33273876 -0.026876237 0.2546859 0.15563345
000260 e3 93 4c 3d a3 dd 1f 3f 00 ba 46 3f 95 fa c7 be
       0.049945723 0.62447566 0.77627563 -0.39058366
000270 66 13 0a 3e 33 11 8b 3e ab cf 85 be af 1e bc 3e
       0.13483962 0.2716156 -0.26135 0.3674216
000280 85 8a a1 be 45 8c 0e be 13 eb b9 be b8 f1 93 bc
       -0.31550995 -0.13920696 -0.3631216 -0.018059596
000290 d0 08 0e c0 96 db ea 3e 9f 5c 8e be b7 32 07 3f
       -2.2192879 0.45870656 -0.2780504 0.5281176
0002a0 98 7b 34 be 34 04 f2 3a d2 1a ea bc 61 e9 06 3e
       -0.17625272 0.0018464387 -0.028577242 0.13174964
0002b0 67 3c 2f bf b6 bb 41 3f b7 7c fc 3e 83 b3 b6 3d
       -0.6845154 0.7567705 0.493139 0.08920958
0002c0 77 01 8c 3f 55 95 35 3e 4c e3 a8 3d e8 4f 6b 3e
       1.0937947 0.17732747 0.082464784 0.229797
0002d0 09 45 31 3e 5b 21 6b be dc d5 a8 be 80 52 8c 3d
       0.17311491 -0.22961943 -0.32975662 0.06851673
0002e0 5a 70 a7 be 03 97 41 3e 88 96 c8 3d 99 ab 4e bf
       -0.32702905 0.18905263 0.097943366 -0.8073059
0002f0 d1 aa d5 3e 01 de 31 bf 6f 32 e8 3d d8 06 a5 be
       0.41731885 -0.69479376 0.113377444 -0.32231784
000300 f4 a9 0b 3e d1 ef 1e 3f 6c 12 f1 3d 22 9c d7 be
       0.1363905 0.6208468 0.11771092 -0.42111307
000310 60 d5 fc bb cb 27 66 bf 7e 53 b9 3e 9c a7 65 3f
       -0.007715866 -0.8990447 0.36196512 0.89708877
000320 62 43 3c be e1 7b fc 3d f1 38 3c 3f fa c1 77 3e
       -0.1838508 0.123283155 0.73524386 0.2419509
000330 c1 ef 4b be 39 7e 6c bd fd 3c c1 3e 33 f9 0b be
       -0.19915678 -0.057737563 0.37741843 -0.1366928
000340 e0 69 f7 3e da 5a 76 be ee c6 49 be 1b 14 1e 3e
       0.48322964 -0.24058095 -0.19704792 0.15437357
000350 87 d8 6e 3d 2f 25 1b be bf 7c bd 3e ae 1a 54 3e
       0.058311965 -0.15150903 0.37009236 0.20713302
000360 52 95 94 3d 3d 5f de 3d 94 e5 fb be b9 48 53 be
       0.07255043 0.10858009 -0.49198592 -0.2063321
000370 ba 12 1b 3c 30 a4 f2 3d 1c 7c 3e 3e 9c 0b 74 3e
       0.009464914 0.118477225 0.18602031 0.23832554
000380 75 b7 1f bf 31 be b4 3e dc 9f 37 3e 43 11 8c 3d
       -0.6238931 0.35301355 0.17932075 0.0683923
000390 83 e6 8f be 9c dd 14 3e d8 a8 ee 3f 2c 09 24 3e
       -0.28105554 0.14537662 1.8645277 0.16019124
0003a0 11 13 43 bf d3 a4 7a be eb db 86 3d 83 73 14 be
       -0.7620097 -0.24476938 0.06584915 -0.14497189
0003b0 1b 6d a6 be 33 43 df be b6 84 41 3d 0d fd 5b be
       -0.32505116 -0.43605956 0.047245704 -0.2148325
0003c0 c7 0c 36 bf 10 35 01 be 1c 61 51 be 84 90 a5 bd
       -0.71113247 -0.12617898 -0.204472 -0.08084205
0003d0 09 cc 1d bf 3a 62 64 3f 23 85 49 be 71 bb b5 bd
       -0.6163946 0.8921238 -0.19679694 -0.08873642
0003e0 3c 39 a7 3c 96 8a 1f 3e da 27 62 3d 41 a4 e1 3b
       0.020413034 0.1558021 0.055213787 0.0068860357
0003f0 f1 e2 02 3f 65 94 71 be e3 03 f4 be 0d 3f 2e 3d
       0.51127535 -0.23591764 -0.47659215 0.0425406

fc1.bias f4 [256]
000000 40 1a fc 3e d0 4d 82 bf 49 92 ed be 90 d3 e7 3e
       0.49238777 -1.0179996 -0.4640067 0.45278597
000010 e6 d7 69 be fc 73 30 be cb 96 06 bf 43 aa 08 3e
       -0.22836265 -0.17231745 -0.5257384 0.133462
000020 e7 06 95 be 06 22 64 bf a5 1e 8c 3c 08 98 95 be
       -0.2910683 -0.89114416 0.017104456 -0.29217553
000030 e7 8c 38 bf fb 53 15 3f 1f 96 28 bf b1 82 22 bf
       -0.7209 0.5833127 -0.65854067 -0.6348067
000040 34 79 32 3e 28 7c f4 be 20 f0 21 bf 77 85 1d be
       0.17429048 -0.47750974 -0.63257027 -0.15382944
000050 66 98 38 bc 34 a4 0b be ab 3c 15 bf 0e 3e 00 3f
       -0.011266803 -0.13636857 -0.58295697 0.5009469
000060 e0 5d f1 be 43 f9 7c 3e ca 31 b6 3e 5b 2e 31 3f
       -0.47141933 0.24704461 0.3558486 0.6921136
000070 2c c0 0e bf d6 39 46 be 1a 4b 1e bf 0c be 4a 3e
       -0.5576198 -0.19358 -0.61833346 0.1979906
000080 f0 ae f0 3e d8 4a bb 3e 47 7b b4 be 8e 66 2d 3f
       0.47008467 0.3658054 -0.35250303 0.6773461
000090 82 ca c4 3e 08 e2 4e bd 8e 4e 56 be 2f c0 f0 be
       0.3843575 -0.05050853 -0.20928404 -0.47021624
0000a0 92 a4 79 bf c5 94 57 3f c1 2a b8 be 33 bc 2c 3e
       -0.9751674 0.8421138 -0.3597012 0.16868667
0000b0 0a 16 de be bb 13 8e 3e 23 02 58 bf fe e7 5c 3e
       -0.4337619 0.27749428 -0.8437826 0.21572873
0000c0 10 ef 59 bf e6 fa 6b be b2 96 06 3f db 21 66 3e
       -0.85130405 -0.23044929 0.5257369 0.22473852
0000d0 92 74 7e bf 33 25 2d 3f cf 5d e4 3e 50 76 4a 3d
       -0.9939662 0.67634887 0.4460282 0.049429238
0000e0 d9 2f 8e bb eb 96 14 bf 48 d5 04 bf d1 5c 13 3f
       -0.0043392 -0.5804278 -0.5188794 0.575635
0000f0 58 67 91 3e 84 05 88 be ea 63 d1 bd 52 ef be be
       0.28399158 -0.26566708 -0.10224135 -0.37291962
000100 95 c1 23 3f 57 c2 01 3e df 36 cd be 15 82 a5 be
       0.6396726 0.12671791 -0.40080926 -0.32325807
000110 2f 00 ef be 4d 76 8b bf aa 9c a1 bf 58 9a 35 bf
       -0.46679828 -1.0895478 -1.2625935 -0.70938635
000120 e4 a5 76 3f 20 f1 62 3e 49 b4 10 3f 33 00 13 3e
       0.9634688 0.22162294 0.56525093 0.14355545
000130 25 44 a6 3e e0 7a 0e bf a6 91 70 3e f2 3f ba be
       0.32473865 -0.5565624 0.2349306 -0.3637691
000140 f3 43 72 bf 3e 80 11 3f e2 b3 6b bf 09 cd c7 be
       -0.9463493 0.5683631 -0.92071354 -0.39023617
000150 6c 4b 16 be 14 47 df bc a1 fd 78 bf cf ed 80 3e
       -0.14677209 -0.027255572 -0.97262007 0.25181434
000160 40 9b 9e bb a3 2d 69 3e 12 a4 d1 3c 6c 67 d8 3e
       -0.0048402846 0.22771315 0.02559093 0.42266405
000170 88 e4 0b 3d d9 f4 37 bf a3 4e 39 3f 57 3e a8 be
       0.03415349 -0.7185798 0.72385615 -0.32860062
000180 aa 14 9c 3e e1 d9 e3 be 5f c2 1a be 25 8e e1 3d
       0.30484515 -0.44502166 -0.15113209 0.1101344
000190 19 3b 4c 3e fd fb 2d be 4a ea 16 bf d8 71 d0 be
       0.19944419 -0.16990657 -0.58951247 -0.40711856
0001a0 90 bd 95 3e 21 7d 19 bd b1 36 2e bf 92 08 ba 3e
       0.29246187 -0.037472848 -0.680522 0.36334664
0001b0 0f 75 ba 3d 9c b4 ae 3e 1a aa 7e 3d e5 3a 55 3d
       0.091043584 0.3412217 0.06217394 0.05205812
0001c0 d6 6f a0 be d7 18 32 bf 3d ce 23 3e 1a 49 c4 3e
       -0.31335324 -0.6956915 0.15996642 0.38337022
0001d0 5f 53 97 bf 47 37 79 bd 9f b3 fc be af 71 92 3e
       -1.1822318 -0.060843732 -0.4935579 0.2860236
0001e0 7f 44 0c 3c 39 7a 43 bf 4e 1e 2f bf 39 36 8d 3e
       0.008561253 -0.7635837 -0.68405616 0.2758043
0001f0 f1 84 2c bf 4e d5 70 bf 58 44 02 bf a5 91 99 bf
       -0.6739035 -0.9407548 -0.50885534 -1.1997572
000200 8d 53 80 be 7e c0 42 3b ad 7d 85 3e 5b 23 06 3a
       -0.25063744 0.0029716785 0.26072446 0.0005116963
000210 1e 29 58 3e fd 72 9a 3d 0a d3 0a bf 78 cc 46 bf
       0.21109435 0.075414635 -0.5422827 -0.77655745
000220 99 5e d6 3e 4b e4 98 bd 96 df d4 3e f9 c2 ce bb
       0.41869047 -0.074654184 0.41576833 -0.0063098636
000230 18 28 7c bf c2 38 23 bf 56 a0 a8 3e 21 0f 97 be
       -0.9849868 -0.6375848 0.32934827 -0.2950373
000240 26 1c b0 3e 4e 7a f3 3e fa 4e 24 3f a6 98 c2 3e
       0.34396476 0.4755425 0.6418301 0.38007087
000250 41 56 d6 bd 3d 2f fa be 84 b2 8a 3e 26 52 cb bc
       -0.104656704 -0.48864165 0.27089322 -0.024819445
000260 81 a5 5b 3e 36 aa d1 be 50 54 5f 3e 71 17 34 bf
       0.21449853 -0.40950173 0.21809506 -0.7034827
000270 4e c0 bc 3e 18 37 25 bf 66 d2 2b 3e 6f be 90 bf
       0.36865467 -0.6453719 0.1677948 -1.1308116
000280 3f 30 09 bf 56 22 4e bd 65 f4 c7 3d 93 95 0d bf
       -0.5358924 -0.050325714 0.097634114 -0.5530636
000290 bf 5b 1c bd b9 c9 79 3e b6 16 5c bf b5 94 b1 bd
       -0.038173433 0.24393357 -0.85972154 -0.08670942
0002a0 ca b0 4f 3d 19 81 54 be 5e 4a 03 be ed 2a 07 bf
       0.05070571 -0.20752372 -0.12821338 -0.52799875
0002b0 53 9c bb be 69 c0 fa 3e 89 69 2a bf 2e ca 77 3d
       -0.36642703 0.48974922 -0.66567284 0.060495548
0002c0 be b9 ab be 7e c6 81 3f e6 ca 63 3e c5 a9 8e 3e
       -0.33540148 1.01387 0.22245368 0.278639
0002d0 ad e8 08 3f 52 04 d5 3e 9f 90 17 3f d7 fd 0c be
       0.53480035 0.4160486 0.5920505 -0.13768707
0002e0 60 c8 b8 be 01 99 e0 be 29 06 b0 be ca 04 a4 3e
       -0.36090374 -0.43866733 -0.343797 0.32034904
0002f0 d4 82 76 be 40 03 fe be a9 bd 63 be 51 2f 01 3e
       -0.24073344 -0.49611855 -0.22240318 0.12615706
000300 76 97 7e bd dc 7e cc bf 6e 49 8d bf 10 05 5e 3e
       -0.062156163 -1.5976214 -1.1038034 0.21681619
000310 3b 0b 29 3d 1b b1 83 3e fd ca 85 3e 18 43 f1 3e
       0.041270476 0.25721058 0.2613143 0.471215
000320 93 de 36 3e 9b 54 f3 be 4a c3 87 3e 21 b9 09 bf
       0.17858343 -0.47525486 0.2651618 -0.5379811
000330 66 cd a5 bd 0f b3 73 3e 1a 32 5e ba 00 61 c0 3e
       -0.08095817 0.23798774 -0.00084760936 0.37574005
000340 62 02 ce 3e ab 3c ca 3e 70 5d 07 3f 6a 57 8f 3d
       0.40236193 0.3949941 0.5287695 0.06999095
000350 1e ae 6b 3f 20 25 ca 3d 26 1a 5b 3e fc cd ce 3d
       0.92062557 0.09870362 0.21396694 0.10097882
000360 5a 03 1c bf 12 1d fe bd a6 78 f9 3e 9c cd 8e bd
       -0.60942614 -0.124078885 0.4872486 -0.069728106
000370 4e 52 6a 3e d0 c9 cc be 03 20 f7 be 31 bc 8f bd
       0.22882959 -0.3999772 -0.4826661 -0.070183165
000380 5d 9f fe be 90 1e 1c 3e c7 78 59 3e 57 cf 69 bc
       -0.4973096 0.15246034 0.21237479 -0.014270625
000390 5e 6e 9f 3e f2 c3 e9 3e ce 33 92 3e ab 71 91 bf
       0.3113889 0.45657307 0.2855515 -1.1362814
0003a0 1f 36 32 be b8 5a a3 bf 75 3b 60 3f 7d d3 a8 3e
       -0.17403458 -1.276206 0.87590724 0.32973853
0003b0 3a 47 95 3e cb 7c 24 bf 74 ea 53 be ef f6 0c bf
       0.29155904 -0.6425292 -0.20694906 -0.5506429
0003c0 1e 1d 13 be 9b c6 22 3f 49 35 1f 3f 85 3e f7 3c
       -0.14366576 0.635843 0.6219068 0.030181179
0003d0 51 fa fe bc 73 14 3c bf a0 e1 cc bd d5 36 22 3f
       -0.03112522 -0.73468703 -0.10003972 0.6336492
0003e0 03 6d 9a be e6 33 25 be c4 89 be be f5 33 6d be
       -0.30161294 -0.16133079 -0.37214482 -0.23164351
0003f0 d4 24 44 3f 92 1a a1 be a7 bd 3f bf ab 44 81 3e
       0.76618695 -0.31465584 -0.7489876 0.25247702

fc2.weight f4 [4, 256]
000000 bd 9e 84 bd bd b0 09 3f d4 0e 4f 3e 73 92 71 3f
       -0.064755894 0.53785306 0.202205 0.9436409
000010 63 94 91 3f 8b df df bf 64 80 f6 3e a3 20 2c 3f
       1.1373409 -1.7490095 0.4814483 0.672373
000020 79 e4 8e bf 52 ce 2d 3f 93 f2 22 3e c5 95 bd 3f
       -1.1163474 0.67892945 0.15912847 1.4811331
000030 74 db d1 3e 55 97 12 3d c4 1b 47 c0 ca 91 86 3e
       0.40987742 0.035788853 -3.1110697 0.26283103
000040 f2 2c ba bd a0 8e 93 3f e5 2e 46 be 97 eb 37 bd
       -0.09090604 1.1527901 -0.19353826 -0.04490241
000050 97 03 bc 3c d3 5d 0f bf 00 4d 99 3f 85 4f e4 3d
       0.02295093 -0.5600254 1.1976624 0.1114798
000060 54 68 00 40 cf 1d d1 bf 38 65 32 3f 80 56 1a be
       2.0063677 -1.6337222 0.696857 -0.1507206
000070 11 32 8d bf 8b 57 a7 be d4 cf 15 3f 3c dd 07 3f
       -1.1030904 -0.32683977 0.58520246 0.5307195
000080 51 06 a2 be 97 69 2b 3f 08 c6 b9 3f 13 97 92 be
       -0.31645444 0.6695799 1.4513559 -0.28630885
000090 22 c8 06 3f cf 83 67 bf cf 5e 9a 3f d1 37 ea 3f
       0.5264913 -0.904355 1.2060183 1.8298284
0000a0 75 a3 95 3f d1 0b 14 3f 13 50 67 bf 0b 78 d2 3e
       1.1690508 0.5783053 -0.9035656 0.4110721
0000b0 3e a5 f2 3f 63 7c 85 bf f3 97 2b c0 26 35 26 bf
       1.8956678 -1.0428585 -2.6811492 -0.6492485
0000c0 fd eb 81 c0 1f 65 b2 3f 4d 76 f3 bd a7 78 18 3f
       -4.060057 1.393711 -0.118877985 0.595591
0000d0 86 6f 81 bf ff 17 ca bd e2 f4 5e 3f e0 ca ea bf
       -1.0112159 -0.09867858 0.8709241 -1.8343163
0000e0 97 82 c7 3f 77 46 82 3f 54 41 99 3f f6 93 ae bf
       1.5586728 1.0177754 1.1973062 -1.3638904
0000f0 66 e9 9c be ce e0 00 40 23 83 23 bf d9 5a b9 bf
       -0.3064682 2.013721 -0.63871974 -1.448085
000100 cc fe ba be 90 d6 41 3e fb 73 55 3f 54 af 8e be
       -0.3652252 0.18929505 0.833801 -0.2786814
000110 b1 ae 85 3f 36 6b c0 bf cb a4 2c 40 07 99 d4 3f
       1.0443937 -1.5032718 2.6975582 1.66092
000120 dc 45 40 bf 33 3d 90 3e 14 70 02 bf 0a 3c 7a bd
       -0.75106597 0.2817169 -0.5095227 -0.061092414
000130 77 33 1b bf d0 c2 60 bf a7 80 a0 3f e4 c9 22 bf
       -0.60625404 -0.8779726 1.2539262 -0.6358931
000140 74 6d dc 3e e9 66 a2 bf 44 e7 bd bf 53 11 a3 3b
       0.43052256 -1.2687656 -1.4836202 0.0049764304
000150 81 91 3c 40 8f 35 47 3f ca 60 52 3f 6b cd 19 bd
       2.9463809 0.778161 0.8217894 -0.037549417
000160 81 2d 89 3e 82 45 62 3f 96 17 c2 3e 26 f8 95 3f
       0.2679253 0.8838731 0.3790862 1.1716354
000170 02 2f a5 bf fc c0 0a c0 75 47 ab bb 00 13 bb 3f
       -1.2904971 -2.1680288 -0.005227024 1.4615173
000180 aa 45 df bf ba 46 91 bf 3b 2a 7a bf 45 d1 ef be
       -1.7443135 -1.1349709 -0.9772069 -0.46839347
000190 4f a6 5f 3e 6a 37 43 bf 44 04 cd 3f 3f 2e eb be
       0.21840785 -0.7625643 1.6016927 -0.4593372
0001a0 6c 6b 07 be 55 57 90 bf df 15 89 3f e4 5a dd 3e
       -0.13224572 -1.1276652 1.07098 0.43233407
0001b0 a9 e0 06 3f f3 06 b9 be 10 22 1a 3f fd 20 85 be
       0.52686554 -0.36138114 0.60208225 -0.2600173
0001c0 61 d1 81 3e 52 47 d0 3f 06 10 55 bf 18 78 e6 3e
       0.25355056 1.6271765 -0.83227575 0.450135
0001d0 a9 03 8b c0 d0 28 2c bd 65 83 9a be af 4f 09 bf
       -4.344197 -0.04203111 -0.3017837 -0.5363721
0001e0 bb 47 02 bf 3b 15 28 c0 78 c9 ad 3e 0e dc 2c bf
       -0.508907 -2.6262958 0.3394277 -0.67523277
0001f0 41 0b b8 be 77 43 c9 bf 8c 04 ab be 59 e7 4e bf
       -0.35946086 -1.5723714 -0.33401906 -0.8082176
000200 09 13 17 c0 4a 4c 34 3f 5a f2 98 3e 54 46 51 bf
       -2.3605368 0.7042891 0.298724 -0.8174794
000210 b5 69 a9 3f 3c b2 31 3f 84 6e ab be 6b 98 d7 3f
       1.3235384 0.6941259 -0.33482754 1.6843389
000220 4a 7d 51 bf af 9f 2a 3e 3e 14 f1 be 15 06 67 bf
       -0.818318 0.16662477 -0.47085756 -0.90243655
000230 c0 ff e2 bf ce 23 19 bf f9 07 f0 be 21 1f 96 3e
       -1.7734299 -0.5982026 -0.46881083 0.29320624
000240 a8 af 23 bf 17 4d be 3f 88 0b 6b bf 64 b8 9e 3e
       -0.63939905 1.4867276 -0.9181447 0.31000054
000250 40 9c 04 3f 7b 7a e8 bc 99 d0 36 bf 02 fb 9d 3e
       0.5180092 -0.028378716 -0.71412045 0.30855566
000260 8a f4 38 be 75 13 ea 3f 35 56 47 3e 56 67 b2 3f
       -0.18062034 1.8287188 0.19466479 1.3937786
000270 21 10 02 be 28 9b 22 40 75 bc 9c bf ab 8c 71 3f
       -0.12701465 2.54072 -1.2245013 0.9435527
000280 19 4a 14 bf 84 f5 cf bf 85 05 eb bf 02 e0 39 bf
       -0.57925564 -1.62468 -1.836106 -0.72607434
000290 de ee 43 3f 8b c4 cf be d3 61 7b 3f df a4 ce be
       0.7653636 -0.40579638 0.9819614 -0.40360162
0002a0 e0 4c ad 3f eb f7 97 3e 78 c3 72 bf 6d ba c5 3f
       1.3539085 0.29681334 -0.9482951 1.5447518
0002b0 bb 9b 78 3f 78 77 92 be 06 2b c5 be e0 bd 29 3f
       0.97112626 -0.28606772 -0.38509387 0.6630535
0002c0 29 66 f9 bd 24 01 4b be 09 cb bc be 77 d0 f0 be
       -0.12177689 -0.19824654 -0.36873654 -0.47034046
0002d0 ca 44 02 3f 99 e7 a0 be e6 9f ef be b6 94 87 be
       0.50886214 -0.31426695 -0.4680168 -0.26480645
0002e0 04 e2 a2 3e 65 8c 9d bd cc e8 79 be d1 1e 67 3f
       0.3181306 -0.07692794 -0.24405211 0.902814
0002f0 09 fd 16 3e 86 47 b6 3e 7e dc c5 bf cf a0 93 3e
       0.14744963 0.35601443 -1.5457914 0.28833625
000300 66 3b be bf 46 21 2c 40 67 4e 49 bd 65 4f ad be
       -1.4861877 2.6895308 -0.049147036 -0.33849636
000310 ec 17 9c bf db da d3 3e 9c eb 6e 3f 18 f1 ff 3e
       -1.21948 0.4137791 0.9332826 0.49988627
000320 37 b5 e2 3e da c7 9f 3f 87 35 6b 3e c2 a7 00 c0
       0.4427888 1.2482865 0.22969638 -2.0102391
000330 c2 5c c4 be 8b a7 96 bf cc 41 a6 be 7b ca 97 3e
       -0.3835202 -1.176988 -0.32472074 0.29646668
000340 c4 46 ed bd 99 f7 d1 3e 04 d3 d3 3d a8 8f 9c 3e
       -0.11585763 0.41009215 0.103429824 0.3057835
000350 16 25 1a be 53 4d 8d be b9 b5 76 3f 94 fb 89 3e
       -0.1505321 -0.27598056 0.96371037 0.2694975
000360 6a 2b c9 3e 1d 0c 7c 3f 53 64 b8 be 29 6e 86 bf
       0.39290935 0.98455983 -0.3601404 -1.0502368
000370 3a 36 e2 3e a5 bd b1 3f 2a 44 5a 3f 23 03 d6 be
       0.44181997 1.3886 0.8526026 -0.41799268
000380 fd 2e 20 bf 67 41 5e be 5d 4c 3d be a5 7e 01 3f
       -0.625717 -0.21704637 -0.18486162 0.5058387
000390 da 2f cd be 4a 2d 87 3f 56 fe 32 3f fb c1 5c 3f
       -0.4007557 1.0560696 0.69919336 0.8623349
0003a0 a5 48 ff bd f9 6c 69 c0 e2 2a 57 bf a2 76 1d 3f
       -0.12465028 -3.6472762 -0.8404981 0.61509144
0003b0 20 d9 cb 3d 80 ec e6 bc 1b 1d 16 3f 3b 2a 6b 3f
       0.09953523 -0.028188944 0.5863816 0.91861314
0003c0 5c 04 ba 3f 3e 6a 1f 3d 48 b6 b2 bf 7d a0 e6 3e
       1.453258 0.03891968 -1.3961878 0.45044318
0003d0 ab 33 95 be 8e b8 a5 3f d2 8d e0 bf 5d 7a 62 bf
       -0.29140982 1.2946947 -1.754328 -0.8846796
0003e0 ad 55 1c 3f 52 61 21 bf 7d 04 11 40 44 16 70 be
       0.6106823 -0.63039124 2.265899 -0.23445994
0003f0 2d 86 92 3e 85 4a cb bf 1f a9 95 3f 7b 90 ad 3f
       0.28617993 -1.5882117 1.1692237 1.3559717

fc2.bias f4 [4]
000000 3c 0c c7 bd 9f d5 d8 bd cb 46 d4 bd 76 8d 12 bd
       -0.097191304 -0.1058762 -0.10365065 -0.03577944
