project2-continous_control/checkpoint/critic_local.pth (torch_old, 435694 bytes, 7 tensors)

state_layers.0.weight f4 [256, 33]
000000 de 86 5b ba 2e fb ce 3c ab 4e 27 bc 53 a0 18 bc
       -0.0008374284 0.025266256 -0.010211627 -0.009315568
000010 36 9c 27 bc 64 ef 88 3b 9f e5 ad bb 11 ca be 3c
       -0.010230115 0.004178928 -0.005306914 0.023289712
000020 de 62 2a 3a c1 5d 75 38 08 80 c0 bb 06 16 9f 3b
       0.0006499718 5.8499867e-05 -0.0058746375 0.0048549203
000030 f9 fc f0 3b 65 a1 d2 3c 90 d8 b2 bc e3 f4 01 3c
       0.0073543754 0.025711725 -0.02183178 0.007931921
000040 f3 39 e4 3b 41 ae 4a bb d6 7b 14 bc 5d 8d 0c 3c
       0.006964916 -0.0030926617 -0.009062728 0.0085786255
000050 6a 9f 93 3b 33 0c c8 3b 15 b7 26 bc 62 ae a1 3b
       0.0045050876 0.00610497 -0.010175486 0.004934118
000060 d1 e5 e7 bc b2 d9 16 bd 76 65 2a bb 4b 30 8a 3b
       -0.028307827 -0.036828704 -0.0026000417 0.0042171828
000070 51 ca 26 bc f1 f6 00 00 4b 30 8a bb 99 03 00 00
       -0.010180072 8.8586e-41 -0.0042171828 1.29e-42
000080 a0 bd 89 bc 7d ee 99 bb 99 ac 64 3d 46 77 9f bb
       -0.016814053 -0.0046976195 0.055828664 -0.0048665134
000090 c2 e1 83 b9 6b b5 63 3a fc ef e8 3b 40 09 15 3c
       -0.0002515447 0.0008686396 0.0071086865 0.009096444
0000a0 ed 1a 6c 3b d2 88 75 bc 54 7c a5 3b bb a4 8a 3a
       0.0036026791 -0.014986234 0.0050502215 0.0010577658
0000b0 a1 0f 71 3c fa 39 0f 3b be 38 22 bd a6 48 0c 3b
       0.014713199 0.0021854625 -0.039604895 0.0021405607
0000c0 e5 7f be 3c 27 d2 59 bd c0 78 f2 bc 47 4f d1 bc
       0.023254344 -0.053178933 -0.029598594 -0.025550498
0000d0 4d ba 87 bc d3 58 d3 ba 76 d1 72 bc 9a 59 8f 3b
       -0.016568327 -0.0016124494 -0.014820447 0.004374695
0000e0 0d cb 5a bc d8 e3 f2 3b 9a 65 17 3c bb 96 be 3c
       -0.013354075 0.007412415 0.009240532 0.023265233
0000f0 d5 d0 84 bc 37 ea 0a bd eb a3 01 80 d5 d0 84 3c
       -0.01621286 -0.03391477 -1.50638e-40 0.01621286
000100 f5 02 02 80 46 1d 62 3d 80 08 f2 3a dd 2a 0e 3c
       -1.84732e-40 0.0552037 0.0018465668 0.008677212
000110 7f f2 07 bc 7c b0 13 3c 45 a1 0b 3c 20 50 11 bc
       -0.008297562 0.009014245 0.008522336 -0.008869201
000120 77 ef 4f bc 9c d9 61 bb 80 b1 27 bb 7d b6 52 3c
       -0.01269137 -0.003446198 -0.0025587976 0.012860891
000130 2a f6 a9 3b d1 44 b4 bc 0f 71 de 3b 8d 7e d4 bb
       0.0051868157 -0.02200547 0.00678838 -0.0064848126
000140 7a 28 17 3d cc 38 d3 bc b4 80 39 3c 0a 37 08 bb
       0.036903836 -0.025783919 0.011322189 -0.002078476
000150 47 73 18 bc 84 47 49 3c 88 c7 b1 3c d2 c0 8d bc
       -0.009304828 0.012285117 0.02170159 -0.017303858
000160 c4 1b 0c 3b 4b 62 04 bc 3d 2a 4f 3c ff a7 c4 bc
       0.0021378854 -0.0080800755 0.012644348 -0.024005888
000170 14 15 53 bd 80 95 8e bc 60 f0 f3 3c 90 86 00 80
       -0.051533774 -0.017405272 0.029777706 -4.8272e-41
000180 80 95 8e 3c ea 1f 00 80 5a dd 16 3b 6e 3d 8f bc
       0.017405272 -1.1449e-41 0.002302012 -0.017485347
000190 8d 70 65 3c bf 0c b3 bc 58 4d 33 bb 7c 6c 48 bc
       0.014003885 -0.021856664 -0.0027359333 -0.012232896
0001a0 dd 6a 9f 3b 4e 32 21 bc 5e 0c 4b 3c 26 51 e3 3b
       0.004865034 -0.009838654 0.012393085 0.006937164
0001b0 75 47 6e 3b 39 0b 54 3a 9b 69 17 bc d9 04 9a bc
       0.003635851 0.00080888305 -0.009241487 -0.01880114
0001c0 82 20 63 3c 94 65 89 bb 4c 8f 21 3b 92 bc a3 3b
       0.013862731 -0.0041930173 0.0024652062 0.0049968446
0001d0 04 2d 05 bb 63 97 e1 b9 4d 3f 9d 3b 50 62 47 3c
       -0.002032102 -0.00043028136 0.004798806 0.012169436
0001e0 2f d4 c2 3c 4c 27 6e 3b bc b6 c1 3c 73 53 a2 3b
       0.023782818 0.003633934 0.023646705 0.0049537956
0001f0 13 16 6b 3c ca d7 a9 3b cb 36 11 3c 87 21 fa ba
       0.014348525 0.0051831948 0.008863161 -0.0019083478
000200 ee 15 01 80 cb 36 11 bc 47 85 00 80 8c 21 00 3d
       -9.9702e-41 -0.008863161 -4.7811e-41 0.031281993
000210 d3 34 ac bb 1a 22 6e bc 5f 3e 78 3b 17 4e a5 3a
       -0.0052553206 -0.014534498 0.0037878973 0.0012611774
000220 41 9a 13 bb ac cf 09 bc dd f8 7b 3a 98 53 b9 b9
       -0.0022522362 -0.008411329 0.00096119737 -0.00035348232
000230 f5 9e bc bb 72 e9 2b 3c 04 26 73 3c 66 3d 48 bc
       -0.005756254 0.010492669 0.014840607 -0.01222167
000240 e1 47 ba bb c9 d6 4e 3d f3 ea 82 3c 3f fd 67 b9
       -0.005684838 0.050497804 0.015981173 -0.00022124218
000250 d7 a4 91 3a 18 06 9c 3a e6 06 19 bb 74 28 7f bb
       0.0011111748 0.0011903672 -0.002335006 -0.0038934024
000260 80 ce 06 bc 60 a5 61 3c 28 ec c1 3a 0a b7 fc bb
       -0.008227944 0.013772339 0.0014795111 -0.0077122496
000270 07 74 eb 3b 2c cd c6 3a d9 52 0d bd 79 38 ad 3c
       0.0071854624 0.0015167347 -0.034502838 0.021145092
000280 8f 3c fa bb 3d a5 00 00 79 38 ad bc 8c 4c 01 00
       -0.0076366137 5.9276e-41 -0.021145092 1.19295e-40
000290 37 e7 e5 bc 89 18 95 bc 0a 24 bd 3c a6 49 02 bd
       -0.028064353 -0.018200176 0.023088474 -0.031808518
0002a0 cf 11 1a 3c 97 7c 9b 3a 4e 2b 8c ba 04 0f 46 3b
       0.00940366 0.0011862692 -0.0010694058 0.0030221352
0002b0 89 d9 7e ba 30 9e ce bb 4b fd 22 bc 04 c0 f9 bc
       -0.00097217463 -0.0063054785 -0.009948085 -0.030487068
0002c0 ad b3 db 3b d2 14 d5 bb 7e d1 ce bc 38 25 f1 3c
       0.0067047686 -0.006502726 -0.025246378 0.029436693
0002d0 e1 f7 28 bd 49 a8 f0 3b cb 15 1e bc 8d 33 07 3c
       -0.04125202 0.00734428 -0.009648751 0.008252037
0002e0 a6 4b bc bb 80 c6 a0 bb a1 e1 25 bc be ca b6 3c
       -0.0057463227 -0.0049064755 -0.010124595 0.022313472
0002f0 51 d3 8d ba 92 eb b6 3c 2a c3 10 3c 8c 39 fd 3c
       -0.0010820423 0.022329126 0.008835593 0.03091123
000300 dc d4 33 bc 00 52 84 bc a5 d4 00 80 dc d4 33 3c
       -0.010976043 -0.016152382 -7.6282e-41 0.010976043
000310 30 9e 00 00 7f f6 93 bc 35 a8 29 3c 12 3e 0f bc
       5.6747e-41 -0.018061874 0.010355045 -0.008742826
000320 97 f8 0d 3c f9 dd 95 3a 13 58 77 bb a7 72 ad 3b
       0.0086652255 0.0011433951 -0.0037741705 0.0052932086
000330 23 d3 87 3a 73 00 26 bc fc e5 ae bb b7 c4 e2 3b
       0.0010362606 -0.010131943 -0.005337475 0.006920423
000340 8d fa 13 3d 95 31 a8 bc 1b d0 fe 3b c8 67 9e 3c
       0.036127616 -0.020531455 0.007776273 0.019336596
000350 c4 26 ef 3b 49 54 11 bc 27 ce 22 3b 04 1a 20 bb
       0.0072983224 -0.008870193 0.0024842115 -0.002442957
000360 ec d9 9f 3c 17 f2 53 3c 9b 90 74 3c f7 97 4e 3c
       0.019513093 0.012936137 0.014927055 0.012609473
000370 9b cb b3 bc 69 b5 f8 3c d1 87 b0 bc ea b8 d8 bc
       -0.021947673 0.03035994 -0.021549137 -0.026455361
000380 61 e9 24 bb 07 71 a2 bb d1 62 9d bc 04 a4 01 00
       -0.0025163519 -0.0049573216 -0.019212158 1.50673e-40
000390 07 71 a2 3b 6e ce 00 80 d6 ea 99 3c 75 70 5b bc
       0.0049573216 -7.4053e-41 0.018788736 -0.013393511
0003a0 84 44 f9 3c 9d 85 b1 bc 74 ff 2d bc 9f d1 14 bc
       0.030428179 -0.021670157 -0.010619987 -0.009083181
0003b0 19 7d 84 bb f9 d5 92 39 9c 78 95 bb 0f 2c 8f 3c
       -0.004043233 0.00028006712 -0.004561497 0.017477063
0003c0 e7 bf 51 3b 6d ae 99 bb 39 7a 77 bc 1b 42 98 bc
       0.0032005252 -0.0046899826 -0.015104824 -0.018586209
0003d0 37 a4 a8 bd aa df 38 bd d6 b5 22 bd c2 54 a0 ba
       -0.082344465 -0.045135178 -0.039724194 -0.0012232291
0003e0 e2 49 93 ba 02 5d 1c 3c f7 03 17 bb 09 26 bf bb
       -0.0011237229 0.009543659 -0.0023043135 -0.0058333916
0003f0 d1 93 8a 3c 69 82 ce 3b 22 20 60 bc ff 25 f7 bc
       0.016916187 0.006302167 -0.013679536 -0.030169485

state_layers.0.bias f4 [256]
000000 5c 30 8a bb d8 d0 84 3c 7c 95 8e 3c bf 36 11 bc
       -0.0042171907 0.016212866 0.017405264 -0.00886315
000010 73 38 ad bc dc d4 33 3c fc 70 a2 3b 28 42 94 3c
       -0.021145081 0.010976043 0.0049573164 0.018097952
000020 3f cc 7b bc 30 0e 0f bb 95 a1 73 bc fd b8 07 3b
       -0.01536852 -0.0021828525 -0.014870067 0.0020709627
000030 52 c5 6e bb 3f 7a 4f 3c 6e 4a 7e bc 23 ce 08 3c
       -0.003643353 0.012663423 -0.015520675 0.008349928
000040 70 7c 95 bc 3a b1 b7 3a 82 fc 94 bb 08 6b 73 bc
       -0.018247813 0.001401461 -0.004546703 -0.014857061
000050 34 83 82 bc 06 8e a8 bc a9 2b d2 3c f9 02 3a 3c
       -0.015931703 -0.020575535 0.025655584 0.011353248
000060 83 8f 76 bb fd 75 c5 bc 09 bf 02 3b a3 e0 86 3b
       -0.003762216 -0.024104113 0.0019950292 0.0041161343
000070 b3 db d1 3b 0d 97 7d 3b c5 2a eb ba 0f 55 8a 3c
       0.006404364 0.003869477 -0.0017941823 0.016886262
000080 ac 6e be 3c b7 1d fa bb 37 79 aa bc 06 e3 cc b9
       0.023246132 -0.007632937 -0.020809753 -0.00039079058
000090 8d 9b e5 bc 19 42 ec ba 24 c4 87 3b cb 8b ef bb
       -0.028028274 -0.001802507 0.004143255 -0.007310366
0000a0 4c 0e 0c 3d fa 3e 9a bc e9 9d 37 3c 3a 23 be bc
       0.034193322 -0.018828858 0.011207082 -0.023210157
0000b0 67 b1 da bb 3b 83 80 bc d3 f5 70 3c 73 3a de 3c
       -0.00667398 -0.015687576 0.014707047 0.02712748
0000c0 60 7b b2 bc bd f2 52 3c 38 7e 3b bd 64 ab 0c 3c
       -0.021787345 0.012875256 -0.04577467 0.008585785
0000d0 0a 07 1d 39 e1 bd 57 3d ee d9 44 bc f0 92 4e bc
       0.00014975309 0.052671317 -0.012014849 -0.012608275
0000e0 74 7d c8 bc 18 33 ee 3b fd 9c 2a bb 96 d2 3b 3c
       -0.024473883 0.0072692744 -0.0026033514 0.011463782
0000f0 a7 87 f8 bc b3 69 25 bd 02 13 21 3a b8 b6 db 3c
       -0.030338122 -0.040384006 0.0006144495 0.026820526
000100 0d 85 c1 bc 58 01 57 bc 67 92 cf 3b 10 b5 6d bc
       -0.023623014 -0.013122879 0.006334591 -0.014508501
000110 22 05 16 3c eb d2 a9 3b 29 7c de 3c 1a 7a 0a 3c
       0.009156497 0.005182614 0.027158814 0.008451963
000120 b6 69 5b 3c 9c 99 1a 3d f6 8e 7e bc c0 fa 49 3c
       0.013391903 0.03774415 -0.015537014 0.01232785
000130 30 e3 64 bd f9 61 f1 3b e5 84 de 3b a1 1b e3 3b
       -0.055880725 0.0073664156 0.0067907446 0.006930784
000140 27 3c ad 3c 3b 02 f3 bc a1 41 22 3d 9a 65 44 3c
       0.021146847 -0.02966415 0.03961337 0.011987114
000150 aa e6 b9 3b fe d5 b4 3c db 40 a0 3c a4 04 04 bc
       0.0056732493 0.022074696 0.019562175 -0.008057747
000160 2c b6 2a 3c 26 51 88 bc 52 c7 12 3b a5 31 23 bd
       0.01041941 -0.016640257 0.0022396636 -0.039842267
000170 b3 72 47 3c d1 1f dd bb 53 ea 36 bc 28 d9 07 3c
       0.0121733425 -0.0067481776 -0.011164266 0.00829152
000180 75 58 c7 3b b1 3e 8c 3c 68 81 19 3d f9 29 75 bc
       0.006083543 0.017119737 0.037476927 -0.01496362
000190 1c 15 00 3d 85 6d 20 bd dc 5f 08 bc dc 90 9b bc
       0.03127013 -0.039166946 -0.008323636 -0.018989973
0001a0 cf 6a fc 3c 87 df d8 3b dc 44 70 bc 02 1a d9 3b
       0.030812649 0.0066184434 -0.014664855 0.006625415
0001b0 9f 2b 83 3c 44 24 f8 bb c5 88 2e bd 95 16 39 3c
       0.016012011 -0.0075726826 -0.042610902 0.011296888
0001c0 b8 a1 8d 3c a0 9e b3 bc 96 04 97 bc 46 99 ce bb
       0.017289028 -0.021926224 -0.018434804 -0.0063048927
0001d0 36 e6 90 39 ac fd 82 bc cf 43 72 bc f7 8d 06 bd
       0.0002763734 -0.0159901 -0.014786675 -0.032850232
0001e0 fc 8d 1b bd 7a 0c e0 bb 31 9b 81 bc 51 17 c7 3c
       -0.037977204 -0.006837425 -0.015821071 0.02430311
0001f0 a0 bf a4 ba 0a 0c d8 3c 15 7c fa bc c6 0b 49 3c
       -0.0012569316 0.026372928 -0.030576745 0.012270873
000200 e3 dd a2 bc af bb c1 3c ae 2c 04 bc eb 1d 8d bc
       -0.019881194 0.023649065 -0.008067293 -0.01722618
000210 f4 08 8b bb 72 e7 6e 3b 34 d6 d5 bb 95 1f 83 3c
       -0.0042430107 0.003645387 -0.006525779 0.01600627
000220 d4 1f 37 3c 70 0f 26 bc 15 e5 af bb 1c e9 1f bc
       0.011177022 -0.0101355165 -0.005367885 -0.009760167
000230 c5 a2 10 3d f2 6d 06 b9 42 36 42 3c af e4 99 bc
       0.03531148 -0.00012820194 0.011853756 -0.018785803
000240 97 b0 20 bd 28 7a 5e 3b 50 1a 31 3c 19 49 2e bc
       -0.03923091 0.0033947323 0.010809496 -0.010637545
000250 35 aa e4 3c 1d bc aa bc d6 08 f5 39 db 68 e1 3b
       0.027913192 -0.020841653 0.00046736625 0.006878955
000260 6d 8d 3a 3b dc 5a 1e bc 50 d7 33 3c c0 74 48 3c
       0.0028465644 -0.009665217 0.0109766275 0.012234867
000270 7b 31 b9 3a 2f 1a 39 3c 9c 2f 81 3c 5d 79 53 3d
       0.0014129126 0.011297747 0.015769772 0.051629413
000280 af 73 24 bb 59 03 95 bc 88 fc a2 3a d1 59 dd 3c
       -0.0025093367 -0.018190073 0.0012434879 0.027020367
000290 0f 2b e2 bb 8a d1 e9 3b b7 fa 02 bc 24 ca 96 bd
       -0.0069021056 0.0071355747 -0.007994345 -0.07362774
0002a0 96 6a 60 bb 64 77 e5 bc 2d 43 46 bc 2e 0f c5 3c
       -0.0034243218 -0.028011031 -0.012100977 0.02405509
0002b0 30 7f e4 b9 f2 24 41 bd 85 c2 83 ba 72 90 ac 3b
       -0.0004358231 -0.047154374 -0.0010052478 0.0052662427
0002c0 f7 0b 0f bd 3e 1e 12 3a 6e d5 83 3b ef 87 ae 3b
       -0.03492352 0.00055739644 0.0040232455 0.005326263
0002d0 e1 c7 72 bd 52 01 8e bc 75 a6 76 3c 0d d2 5e bb
       -0.05927265 -0.017334614 0.015054335 -0.0033999712
0002e0 5e b4 06 3c cd 94 2c bc f1 64 4d 3c 03 05 b5 3b
       0.008221714 -0.010533524 0.012536273 0.005524279
0002f0 4e 36 19 3d c7 7f 92 bc 87 bd 20 bc 07 ec 0b 3b
       0.037405305 -0.017883195 -0.009810812 0.00213504
000300 34 66 0d bd 6d ee 20 bb f2 af 7c 3c 1a 92 e7 bb
       -0.034521297 -0.0024556175 0.015422808 -0.007066977
000310 86 04 a7 3b a0 d9 29 bd 07 1e 71 3c 5d 6b ed 3b
       0.005096975 -0.04146731 0.014716632 0.0072454647
000320 37 fd ee 3b 82 e5 48 bc 8f ee af 3c 03 b3 53 3c
       0.007293369 -0.01226175 0.021476058 0.012921098
000330 10 62 83 bc 6e ac 16 3d 01 00 83 3c d4 cc 3f 3c
       -0.01603797 0.036785536 0.015991213 0.01170655
000340 f6 b0 82 bc 89 16 5e 3b f6 dc 07 bd e9 a8 b1 bc
       -0.015953522 0.0033887944 -0.03316971 -0.021686988
000350 9d 22 68 bc f4 8b c0 3b f6 04 90 3c a7 8f 5d bd
       -0.014168409 0.0058760587 0.01758049 -0.054092076
000360 5c da 58 3c 38 d7 5f 3b 25 ff ea 3b 78 ab 3b bb
       0.013235655 0.003415538 0.007171529 -0.002863614
000370 91 9a 26 3c 15 bd 5a bb 68 28 a9 3b d3 6e 26 bb
       0.010168687 -0.0033376862 0.0051622875 -0.0025395646
000380 a9 a5 37 bb d6 61 a7 3c 6b 11 9e bb 34 ac fc 3b
       -0.0028022325 0.020432394 -0.0048238537 0.007710958
000390 a7 4d a7 3c 5e 2e 60 3c 79 94 57 bc 96 e7 b2 3c
       0.02042277 0.01368293 -0.013157957 0.021838944
0003a0 4a f8 70 bb 5e c6 ca 3b bd 51 5f bc fc 4e aa 3b
       -0.0036769086 0.006188198 -0.013630328 0.005197404
0003b0 a5 a7 61 bc f0 f2 ac bb 9d 1d 13 3c 46 26 0d 3c
       -0.01377288 -0.005277984 0.008979228 0.008615082
0003c0 54 c3 e9 bb 4d b9 54 bb 3e 5f 20 bc 54 60 07 3c
       -0.0071338806 -0.003245908 -0.0097883325 0.0082627125
0003d0 4c 64 e8 3b ef f1 a4 3c 84 71 05 3b f3 64 20 3b
       0.0070920344 0.020134894 0.002036185 0.0024474233
0003e0 d6 81 24 3c a8 63 cb bc d0 7b 70 bc a1 83 7a bc
       0.010040721 -0.024827793 -0.014677957 -0.015290172
0003f0 0d 86 a9 bb 96 e5 57 bc 6f 99 1d bc f6 08 a2 bc
       -0.005173451 -0.013177296 -0.009619101 -0.019779664

action_layers.0.weight f4 [256, 260]
000000 b6 95 a6 3a 4f 27 6a 3c 31 2a 21 3b 70 1f 9e bb
       0.0012709412 0.014291598 0.0024591798 -0.004825525
000010 2a e2 db bb a5 39 b8 3b ea 78 93 bb 78 aa a0 3b
       -0.0067103105 0.005622106 -0.004500498 0.004903134
000020 34 0c 26 bc be 62 9f ba 99 f4 aa ba 04 ee a6 3b
       -0.010134745 -0.0012160165 -0.0013042866 0.0050942916
000030 ec 2e 9e bb e6 1c 5e 3b 8a 64 97 bc 3a 40 3a 3c
       -0.004827371 0.0033891737 -0.018480558 0.011367852
000040 a4 05 00 bc 4d 9f 81 bb 06 82 21 bc 99 0e 8f bc
       -0.007813845 -0.0039557577 -0.00985766 -0.017463015
000050 a6 3a a3 bb 43 5a 44 bb 4b d1 96 3c 41 1c 7d 3b
       -0.0049813567 -0.0029961027 0.018410346 0.0038621577
000060 51 49 ab bb a6 43 18 bc 2c b5 d2 3b 09 8c 1f bc
       -0.005227246 -0.009293472 0.006430289 -0.009737977
000070 1b 7b 44 bc cb 9a 3f 3c 8b 65 36 bb cc b7 cf 3b
       -0.011992241 0.01169462 -0.002783152 0.006339049
000080 38 da 0b bc 50 84 f6 b9 fe 97 b3 bb d1 25 1b 3c
       -0.008535914 -0.00047019357 -0.0054807654 0.009469465
000090 8e f3 0f bc a9 15 af bb 61 cd 55 b9 cf 2c 54 bb
       -0.008786095 -0.0053431583 -0.00020389773 -0.003237534
0000a0 bb 64 f0 3b 0c f7 42 bb e4 04 7c bc 81 a4 ae bb
       0.0073362268 -0.0029749302 -0.015382025 -0.005329669
0000b0 f6 a1 59 bc 42 76 03 39 bf 85 3f 3a e2 2c 0b 3b
       -0.013283243 0.00012537188 0.00073060015 0.002123647
0000c0 4d e5 01 bc 57 7b 3e 3c 92 f5 3b bc e0 9b b2 bb
       -0.007928205 0.011626086 -0.011472123 -0.0054507107
0000d0 e6 14 dc 3b 0b be f4 3b 68 cd 1d 3b 1c 86 89 bb
       0.0067163585 0.007468944 0.002407873 -0.0041968953
0000e0 65 28 a5 bc 36 0f 13 3c 0a 8f 25 bc 7e f5 5f 3c
       -0.020160863 0.008975795 -0.010104904 0.01366937
0000f0 0a 6a 5b bc 74 b5 d3 bb 0c 42 68 3c 58 0a 7e 3b
       -0.013391981 -0.00646084 0.014175903 0.003876349
000100 ef e8 7a bc c3 80 73 bc 80 47 10 bc c5 48 de ba
       -0.015314325 -0.014862242 -0.008806109 -0.0016958943
000110 7e a6 f6 3b 1f 76 45 3b dc a5 2c bb 97 ae 8d bb
       0.0075271716 0.003013022 -0.0026343977 -0.0043237912
000120 63 f5 16 3b f5 f9 99 3b 6d e7 89 bb 75 d6 06 3c
       0.0023034445 0.0046989867 -0.0042084963 0.0082298415
000130 16 76 b0 bc bb b3 14 3b 8e ab ab bb 76 3b ef bb
       -0.021540683 0.0022690136 -0.005238957 -0.0073007895
000140 28 7f 42 3c 4a 39 57 bc a6 44 5f 3c 72 4b 1a bc
       0.011871137 -0.013136217 0.013627207 -0.009417402
000150 f3 0d 1c 3c 3d 62 4a 3b 41 be 39 3c a2 bb b7 bb
       0.00952481 0.0030881308 0.011336864 -0.0056070844
000160 35 a5 1f 3c a2 d9 c8 bb b9 f4 75 bb 40 fb ab bc
       0.009743978 -0.0061294595 -0.00375299 -0.020993829
000170 da b8 34 3b 37 ac 71 bc fc 8c 4e bc 11 f1 cb ba
       0.0027576 -0.014750532 -0.0126068555 -0.0015559514
000180 44 2e 09 3c bd 78 d1 3b a8 43 63 3c 8d 9c 0b bb
       0.008372847 0.006392567 0.013871111 -0.0021303028
000190 47 91 5c 3c fd cd 71 bc f2 5e 2c bc 6e f8 bf bb
       0.013462371 -0.014758584 -0.010520684 -0.0058584725
0001a0 47 57 d0 3b 9c 21 b7 3b e2 4c d6 bb ef 00 20 3c
       0.0063580605 0.0055887233 -0.006539927 0.009765848
0001b0 5d 39 30 bb 1b 57 64 bb a0 0a 14 bc 05 4d 29 3c
       -0.002688966 -0.0034841958 -0.009035736 0.010333304
0001c0 b5 fd 03 3c 25 19 70 bb 2f f4 50 bc e0 c7 55 bc
       0.008056094 -0.003663608 -0.01275353 -0.013048142
0001d0 cb 2e 3f 3b bf da 78 bc 1c 0f 3f bc ed 92 ff bb
       0.0029172178 -0.015188872 -0.011661317 -0.0077994973
0001e0 13 3b 24 bc 10 01 d2 bb 8f 7f 26 bc a0 4f 8b bc
       -0.01002385 -0.006408818 -0.010162248 -0.017005742
0001f0 fe ef 36 3b 6c 76 36 3c 03 19 33 bc 89 3a 08 bc
       0.0027914043 0.011136632 -0.010931256 -0.008314737
000200 f3 93 83 bb df ef 68 3b 6b 9b ce bb 2c d0 81 bb
       -0.0040154397 0.0035543365 -0.0063051484 -0.0039615836
000210 f8 91 61 bc cd 6b a6 3b 79 5e c5 bc cc a3 02 bc
       -0.013767712 0.005078769 -0.0240929 -0.0079736225
000220 20 b5 f3 3b 73 ce c4 bb b9 81 1e bc 94 f6 0e bc
       0.0074373633 -0.006006056 -0.009674483 -0.008725781
000230 67 fa 73 3c 0d 5f 81 bc ae 4d 7b bc c9 63 8a bb
       0.014891244 -0.015792394 -0.0153383445 -0.004223321
000240 84 38 63 bc db 86 b9 3a 71 30 1b 3c e3 94 d1 bb
       -0.013868455 0.001415457 0.009471999 -0.0063959225
000250 17 a6 c6 bb f9 25 92 bb 21 89 f6 bb 0f 6e 24 3c
       -0.00606228 -0.004460093 -0.0075236713 0.010036006
000260 81 b9 16 3c cf f1 2a 3b 9c 0d f9 3b f3 eb 4c 3c
       0.009199501 0.002608407 0.0076004993 0.012507427
000270 56 f5 97 3c c3 b8 8c 3b f0 cd 5f 3c ac b7 0f 3c
       0.018549602 0.0042944863 0.013659939 0.008771818
000280 0b c7 fb 3b d8 e9 3b bc 7f c8 fe bb 6c df 38 3b
       0.00768364 -0.011469327 -0.007775366 0.0028209342
000290 21 f6 28 3a f5 2e 06 3c 00 b1 a8 ba f7 74 99 bc
       0.00064453675 0.008189906 -0.0012870133 -0.018732531
0002a0 01 1c c0 bb a6 fe d4 bb fc 88 33 b9 91 0f c7 3a
       -0.0058627133 -0.006500083 -0.00017121801 0.0015187134
0002b0 11 4a cc 3b c6 56 b1 bc 56 50 6e bb f4 9d ab bb
       0.0062344153 -0.021647822 -0.0036363802 -0.0052373353
0002c0 b0 ed 80 bc 3e f7 c5 3b ae f5 3c 3a be d5 d1 ba
       -0.015738338 0.0060414365 0.000720824 -0.0016009135
0002d0 ef 9d 9b bc c0 07 55 bb 1b d5 54 bb a9 7a 45 bb
       -0.018996207 -0.003250584 -0.0032475654 -0.0030132926
0002e0 a5 63 ac bb 31 e7 29 bc 8e a3 e3 3b ce 4a 06 bc
       -0.005260902 -0.010370062 0.0069469875 -0.008196546
0002f0 4c 72 d2 3c dc bc ef bb ab 4a f3 bb 6b 88 ff 3b
       0.025689267 -0.007316215 -0.0074246726 0.0077982447
000300 81 77 94 bc 7e ac c1 3b b0 d7 2c 3c c4 7e 7d 3b
       -0.01812339 0.0059104552 0.010549471 0.0038680295
000310 19 0c 1b 3b a1 71 63 bc 72 76 65 3b 4d 86 74 3b
       0.0023658334 -0.013882072 0.0035013226 0.0037311495
000320 28 b7 33 3c 9f 70 28 bb 46 4a ab ba 5f 77 62 3b
       0.010968961 -0.0025701893 -0.00130684 0.0034556014
000330 d0 fc a1 3a 0e 75 43 3b 7f ba 30 bb 87 3f 0d 3c
       0.0012358669 0.0029824409 -0.002696663 0.008621103
000340 17 4d 13 bc a3 b5 4e 3b d2 a3 44 bc f2 b9 81 ba
       -0.008990548 0.003154137 -0.012001948 -0.0009897335
000350 e3 57 0c bc cd c9 9d 3a 5f 9f 62 3b 64 10 c9 bb
       -0.008565876 0.0012038291 0.0034579856 -0.006135987
000360 60 a0 cc 3a e9 20 06 bc 45 42 9a bb 4e 76 51 bc
       0.001561176 -0.008186557 -0.004707607 -0.012784554
000370 14 bf b2 b9 49 d1 da 3b 95 76 01 3c f6 06 3f ba
       -0.0003409317 0.0066777808 0.007901807 -0.0007287109
000380 83 13 e6 bb b1 5a c2 3b ff d7 b3 bb da 34 4e 3c
       -0.007021369 0.0059312214 -0.005488395 0.012585843
000390 70 00 9e bb 99 ba e3 ba 96 5d 3f bb 90 b4 65 bc
       -0.0048218295 -0.0017374336 -0.0029200069 -0.0140201
0003a0 19 32 04 bc fe 85 b3 3b 37 4b 53 bb 29 dd c8 3b
       -0.008068585 0.0054786196 -0.0032240876 0.00612988
0003b0 fb 4a 39 bc 6b 79 c6 bb c1 84 bf bc b6 ef 30 3a
       -0.011309381 -0.0060569546 -0.023378732 0.0006749587
0003c0 d8 cb 1e bc d8 3d e6 bb df 27 21 bb 51 bd 61 3b
       -0.009692155 -0.0070264153 -0.0024590415 0.0034445117
0003d0 46 80 4f bb e7 5e c6 3b f4 c8 5c bb a2 08 25 bb
       -0.003166215 0.0060537937 -0.0033689113 -0.0025182148
0003e0 a8 8d f4 3b 23 2c c1 bb 49 c6 05 bc 51 5d 92 bc
       0.007463176 -0.005895154 -0.008164951 -0.017866762
0003f0 5c 42 70 bb ae c5 22 bc 6b c1 cb ba 76 a8 13 bc
       -0.0036660647 -0.009934826 -0.0015545314 -0.009012332

action_layers.0.bias f4 [256]
000000 04 18 37 3d 99 d2 bd a9 c6 d6 52 3c 99 5b e7 3b
       0.044700637 -8.429819e-14 0.012868589 0.00706048
000010 06 5f 84 3e a1 e5 22 a6 c0 28 9b aa eb 9c 0f 3c
       0.25853747 -5.6516246e-16 -2.7561807e-13 0.0087654395
000020 b0 68 24 ab c5 8e 30 b2 42 0b 58 b8 fb 59 65 3d
       -5.840979e-13 -1.027701e-08 -5.1508898e-05 0.055994015
000030 89 16 b1 b9 d3 39 9e 9e 82 ac ae 3c da 4b 45 3d
       -0.0003377686 -1.6752816e-20 0.021322493 0.04816804
000040 08 5c 02 a4 df 2b 02 99 9f b4 55 3d b6 de 16 bb
       -2.826721e-17 -6.729702e-24 0.052174207 -0.002302093
000050 22 b5 d3 a7 e6 c4 9d 85 82 46 ee b3 69 3a 68 3c
       -5.876065e-15 -1.4836538e-35 -1.1095564e-07 0.014174082
000060 00 51 c2 3c 18 b0 a6 b5 03 85 e3 bc dc 1f e9 b3
       0.023720264 -1.2419214e-06 -0.027773386 -1.0855703e-07
000070 d0 a8 8a 3c 56 57 bd 3d cd 01 58 b8 a5 00 1b ae
       0.0169262 0.09245174 -5.150009e-05 -3.5243492e-11
000080 cc 98 a7 2a 22 06 4d 83 31 79 92 3d a8 a8 36 3c
       2.9771183e-13 -6.0251126e-37 0.07152022 0.011148609
000090 4c 68 dd 3c aa 62 70 ae 09 f6 5b 3d 36 7c cf b1
       0.027027272 -5.4657313e-11 0.053701434 -6.038614e-09
0000a0 74 3d 79 b5 08 b7 88 3a e5 47 03 b5 6f 50 6b bc
       -9.2849154e-07 0.0010430524 -4.8905923e-07 -0.014362439
0000b0 b3 e0 af 3c c9 2c 4d bc 71 78 f9 9a 18 db 15 3e
       0.02146945 -0.012522885 -1.0317857e-22 0.14634359
0000c0 28 ed 3c 3d ed b3 9e bc 03 9d 76 93 ae e6 93 ab
       0.046124607 -0.019372905 -3.1126978e-27 -1.0509005e-12
0000d0 66 b5 c7 93 d7 1c 14 b9 68 1e 9a a8 ca cb bb af
       -5.0413535e-27 -0.00014125124 -1.7110621e-14 -3.4159903e-10
0000e0 0f 34 2d 3b ec fd 88 9b 4f 66 05 3d 22 6a 1f 99
       0.0026428734 -2.2663406e-22 0.032568272 -8.241541e-24
0000f0 ee bc 86 bc 27 a6 99 91 b3 b6 3a 8c fb fd fb 3c
       -0.01644751 -2.4241543e-28 -1.4383898e-31 0.030760756
000100 86 69 89 ab 92 0b 71 8d c5 a9 52 96 44 e1 18 3c
       -9.763724e-13 -7.4277786e-31 -1.7017235e-25 0.009331051
000110 19 5f e8 bb 23 6f 71 a9 dd 36 fa af 78 16 05 80
       -0.0070914146 -5.3609146e-14 -4.5513718e-10 -4.67238e-40
000120 3d e7 1b 3c 84 e4 28 9a 5b 4e c6 3c c6 35 1a 3d
       0.009515581 -3.492618e-23 0.024207285 0.03764894
000130 eb 46 be 3d 47 ee a8 ae 27 a0 82 3c 47 97 87 b3
       0.0929087 -7.682082e-11 0.015945507 -6.3139446e-08
000140 26 2d 88 b7 dd ea c9 3c 10 6f bc 3c 97 38 74 ad
       -1.6233487e-05 0.024648124 0.023002177 -1.388236e-11
000150 d6 a7 04 3d 28 3f 77 bc 63 39 da b1 75 9f 20 ac
       0.032386623 -0.015090741 -6.351159e-09 -2.2825884e-12
000160 4c fe aa b6 1a 11 3a 3d 18 37 0f 3d 09 ee 4f 97
       -5.095999e-06 0.045426466 0.03496465 -6.718575e-25
000170 a7 53 6c af 84 12 9d 3c 5a a3 7f b6 c0 49 96 a7
       -2.1493794e-10 0.019173868 -3.8093044e-06 -4.1713323e-15
000180 8f 6d 2b ae 6a 3b 17 b8 7c fc 82 b5 d4 0c 4c 3c
       -3.8978206e-11 -3.605654e-05 -9.759237e-07 0.01245423
000190 74 f8 8f b4 73 cd 9f 3d 23 9b a2 a3 61 25 75 b9
       -2.68166e-07 0.07802858 -1.7629778e-17 -0.00023378945
0001a0 41 1d 32 3d b1 2e f6 3c b0 bb 68 3d d7 f8 8c aa
       0.04348493 0.030051561 0.056819618 -2.5041663e-13
0001b0 cd e3 60 3e 8e e8 c0 bb af 19 c8 9b bd 49 ae 89
       0.21961899 -0.0058870977 -3.3103822e-22 -4.195832e-33
0001c0 43 10 34 bb 05 ab e5 3b 54 69 79 af 44 5d 90 b4
       -0.0027475513 0.0070089125 -2.2683838e-10 -2.688995e-07
0001d0 11 fd fb a0 9f 57 eb 3c be 7a eb b3 fe 24 b7 bc
       -4.268852e-19 0.028728304 -1.0965367e-07 -0.022356506
0001e0 01 0a de 3c e4 69 14 b7 14 f8 2c 8d 32 f8 f3 3a
       0.02710438 -8.846142e-06 -5.3300205e-31 0.0018613397
0001f0 49 b8 07 8d ad 9f 7c 82 b9 f2 da 3c 7d 3f 03 b6
       -4.182191e-31 -1.8559861e-37 0.026727067 -1.9557476e-06
000200 3a 1e 3d b0 fd 9d 60 b3 21 64 7e b2 5b fe 2f 92
       -6.8800754e-10 -5.2297754e-08 -1.48075125e-08 -5.553378e-28
000210 2d 56 0a b7 34 72 c0 ac 0d 14 76 3c 76 67 b3 a0
       -8.245505e-06 -5.4696473e-12 0.015019429 -3.0392244e-19
000220 98 38 a4 97 a2 5e 04 95 43 50 ac 3c 41 04 cd 9a
       -1.0612538e-24 -2.673184e-26 0.021034366 -8.4792885e-23
000230 5f 9f 52 3c a8 7b 25 bc 28 a0 5d 3c da 1d ba 9b
       0.01285538 -0.010100283 0.013526954 -3.079041e-22
000240 ee 53 89 3d 91 89 39 3d 04 57 06 3c bf e4 a5 3c
       0.067054614 0.04529721 0.008199457 0.020250676
000250 4e f0 21 b4 90 3d d9 a7 87 aa c4 3b 28 24 8c b7
       -1.5081716e-07 -6.0296345e-15 0.0060017738 -1.6706137e-05
000260 a4 58 6e 3c 05 87 3e 3c b8 bf 5c 99 eb 24 2e b3
       0.014547501 0.011628871 -1.1412451e-23 -4.054611e-08
000270 fa 32 ad bc 15 5c 24 3d cf f5 42 3c 23 cf 82 a7
       -0.021142472 0.04012688 0.011899426 -3.6306826e-15
000280 be 82 aa b6 cc 72 a3 3c a6 9b 63 a9 73 f4 a0 3c
       -5.081615e-06 0.0199522 -5.053913e-14 0.019647812
000290 63 f9 12 3d ed ff 05 af 53 69 39 bc 1c 0e e9 3c
       0.035882365 -1.2187203e-10 -0.011316615 0.02844911
0002a0 01 19 da 87 47 65 eb 91 5c a4 4e 94 67 7e 91 b3
       -3.281569e-34 -3.713888e-28 -1.0432756e-26 -6.775081e-08
0002b0 b0 b6 04 9c 3a b0 71 3c d8 72 41 b7 eb c6 a7 3b
       -4.3911254e-22 0.014751488 -1.1530436e-05 0.0051201484
0002c0 ff 07 09 9e 53 47 e5 9e da 74 b2 a1 d9 c0 01 b9
       -7.254373e-21 -2.4275817e-20 -1.209268e-18 -0.0001237424
0002d0 12 5e ce a0 f2 06 ea 9e d6 76 04 bb 42 05 46 ae
       -3.4960008e-19 -2.4778586e-20 -0.0020212433 -4.5024658e-11
0002e0 de e3 9e 8e 74 20 c6 3d 32 8d f7 9c 98 97 2e 3d
       -3.9169435e-30 0.09674159 -1.6381587e-21 0.04262504
0002f0 3b 37 34 94 5c 30 6b b1 d9 df 1b b7 66 8a 84 3d
       -9.09857e-27 -3.422449e-09 -9.2908385e-06 0.0647171
000300 a4 c2 de bb 9e ed 30 82 94 f3 9d 9f f4 10 32 b1
       -0.0067981053 -1.2998631e-37 -6.689505e-20 -2.5912046e-09
000310 ca 5f 05 b8 35 49 08 3d 57 c3 7c a1 6c 8d 95 3c
       -3.179888e-05 0.03327294 -8.563945e-19 0.018255912
000320 f8 f6 cf 3c 12 09 e3 b7 30 40 85 94 e2 29 2a b4
       0.025386319 -2.7064732e-05 -1.3454886e-26 -1.584772e-07
000330 c2 93 8d 96 43 47 81 a3 5b f2 a6 a6 c1 2a cd ba
       -2.2873027e-25 -1.4016389e-17 -1.1584254e-15 -0.0015653
000340 33 98 40 3d eb 08 4b bc 98 c9 dd bb 0f ac 41 b6
       0.04702015 -0.012392263 -0.0067684166 -2.8859392e-06
000350 69 aa 67 b8 88 ac 42 bc 3b 2e 57 3c d9 70 11 3d
       -5.52334e-05 -0.011881955 0.013133581 0.03550801
000360 34 da 77 9e 51 80 8c a6 96 2c f2 3d 68 81 96 a2
       -1.31211945e-20 -9.749232e-16 0.1182491 -4.0794596e-18
000370 30 56 b5 ab d5 2f e7 3b 5c 3e f6 b6 90 68 2e a6
       -1.2884745e-12 0.0070552626 -7.338631e-06 -6.0510086e-16
000380 5c e7 c3 93 19 70 9f 3d 6b 50 8e 3c 5c ab 08 b5
       -4.945306e-27 0.07785053 0.01737233 -5.091331e-07
000390 52 1d bb 3c ba c8 aa 3d 01 e3 22 a8 b2 48 90 3d
       0.02284113 0.08339067 -9.04203e-15 0.070451155
0003a0 84 e1 88 9f 4c c4 31 a5 85 dd d9 3c d9 4e f1 9a
       -5.7971325e-20 -1.5418811e-16 0.026594887 -9.980265e-23
0003b0 0b da 23 bc c2 b6 a1 a6 b7 a2 82 b6 e6 e8 44 af
       -0.010000716 -1.1221156e-15 -3.8932444e-06 -1.7908838e-10
0003c0 ba 84 9d a0 a2 9a 7c ae 78 cb 55 b8 23 8b 11 3c
       -2.6684666e-19 -5.7435508e-11 -5.0972652e-05 0.00888327
0003d0 ed 27 3c 3c cd ee 09 b9 58 1e 17 3d 06 05 6a 3b
       0.011484128 -0.00013154298 0.036894172 0.003570856
0003e0 34 ed 62 b7 d2 bb f0 3b f4 2e 57 3d a2 cf 0a 39
       -1.3525878e-05 0.0073466087 0.052535012 0.00013238055
0003f0 93 30 6f 3c 4e 96 29 9c d6 98 2c 3d 38 2a 35 b0
       0.014598983 -5.6111674e-22 0.042137943 -6.5907413e-10

action_layers.1.weight f4 [128, 256]
000000 35 f9 81 3c be 7b 63 24 cd 7b 37 3c 2b 57 29 3c
       0.015865901 4.9327592e-17 0.01119895 0.010335724
000010 eb ba 73 3d 3e 31 15 26 4f 62 b6 a9 50 7e 1e 3b
       0.05950443 5.1761495e-16 -8.0994774e-14 0.0024184175
000020 99 c1 cd a9 b6 81 a6 31 f8 79 d1 b1 94 ab 28 3d
       -9.1374126e-14 4.8459823e-09 -6.096567e-09 0.041179255
000030 35 33 97 b4 6a 32 0c 1d 24 74 77 3c 48 9e 74 3c
       -2.81632e-07 1.855491e-21 0.015103374 0.014930315
000040 a3 87 08 22 06 18 93 13 ac 85 4d 3c a2 96 02 bb
       1.8503242e-18 3.7131706e-27 0.012544077 -0.001992621
000050 df f2 6b 22 85 7e 93 00 2d 6d b9 ad df 7a d2 3b
       3.1977014e-18 1.3545205e-38 -2.1080549e-11 0.006423339
000060 0c 57 1c 3c 2a 11 75 34 15 33 58 bc 50 6c 9b 2e
       0.009542238 2.2823647e-07 -0.013195773 7.067824e-11
000070 76 b6 c1 3b de 99 ba 3c 08 cc 9e 32 64 27 c1 a7
       0.0059116436 0.022778448 1.8486404e-08 -5.361097e-15
000080 6b 0a 45 29 ff fe 7f 80 9b a7 b0 3c 24 e3 0e 3c
       4.3751823e-14 -1.1754583e-38 0.021564296 0.008721147
000090 10 4e 44 3c ca 86 25 29 02 65 af 3c 63 99 d9 2c
       0.011981502 3.675427e-14 0.021410469 6.1845403e-12
0000a0 5e b5 df 33 39 0f b7 3b 4f 7f fc ae 1c d5 a8 bc
       1.0417237e-07 0.0055865315 -1.1482248e-10 -0.020609431
0000b0 85 5c 13 3c dd 74 b9 bc 40 3a 79 18 07 4c 11 3d
       0.008994226 -0.022638733 3.2211904e-24 0.035472896
0000c0 d1 1b c8 3c 67 f3 a3 bc 70 b2 fc 8d b8 f5 c3 25
       0.024427326 -0.020013524 -1.5573656e-30 3.3993613e-16
0000d0 be 7e b5 92 0b 98 b8 b3 0e 03 bc 23 02 c2 dd a8
       -1.145395e-27 -8.595824e-08 2.0384295e-17 -2.4620066e-14
0000e0 61 ce 71 bc 32 20 4e 97 ed d0 13 3c 70 e7 09 98
       -0.014758677 -6.6602826e-25 0.00902198 -1.7823681e-24
0000f0 b8 ec ac bc c6 32 ff 8b 3c e3 94 0a 99 21 0e 3c
       -0.02110897 -9.829882e-32 1.4337358e-32 0.0086750025
000100 e6 10 a0 22 46 fd 17 0b e2 d8 53 94 74 24 f4 3b
       4.338598e-18 2.9272084e-32 -1.069555e-26 0.0074506346
000110 44 30 83 bc 70 b0 09 a8 49 39 ff a8 39 06 01 00
       -0.016014226 -7.6432865e-15 -2.833553e-14 9.4068e-41
000120 b9 14 2d 3b 9f d7 a3 14 9e 49 2f 3c 6b 7a 77 3c
       0.0026410057 1.6543841e-26 0.010698704 0.01510487
000130 79 b7 67 3d ed c6 a3 2e b7 e4 d4 3b d2 27 06 b2
       0.056571458 7.447718e-11 0.0064969915 -7.808881e-09
000140 7b 51 5c b1 7f 3f 57 3c ef 29 24 3c 30 de 2d 27
       -3.206053e-09 0.013137697 0.010019763 2.412902e-15
000150 5f cd 58 3c 10 ca 2d bc cb 65 01 2b bb bd b8 2a
       0.013232558 -0.0106072575 4.597127e-13 3.2816618e-13
000160 6f 2b de 35 79 09 69 3c 40 de 46 3c da 27 57 15
       1.655293e-06 0.01422345 0.0121379495 4.3450342e-26
000170 8b 4d 11 27 7b 1c 11 3c 80 7a e7 b0 2f 88 01 a1
       2.0164828e-15 0.008856888 -1.6842279e-09 -4.388714e-19
000180 87 f2 84 2b f2 19 0b b2 64 de 6f ad 18 74 ad 3b
       9.446479e-13 -8.096764e-09 -1.3634958e-11 0.0052933805
000190 aa 18 a7 32 5d 89 b1 3c 53 0d 71 a3 89 e4 3f 35
       1.9452575e-08 0.021671945 -1.3067458e-17 7.1485607e-07
0001a0 38 bc 85 3c d3 d5 50 3c 39 e3 51 3d c8 fc 71 a3
       0.016325101 0.012746292 0.051242087 -1.3118165e-17
0001b0 89 88 50 3d d9 41 41 bc 14 03 a2 15 36 e4 1b 09
       0.05091146 -0.011795484 6.5436135e-26 1.876475e-33
0001c0 fe 71 c6 3b 0f 8f 06 3c aa 5b 42 ae f2 e3 6a 2d
       0.0060560694 0.008212819 -4.4191907e-11 1.3351974e-11
0001d0 84 8d 6d 99 a6 91 61 3c 6b 51 21 b2 1f 25 b9 bc
       -1.2281192e-23 0.013767635 -9.389946e-09 -0.022600709
0001e0 c9 ab 3d 3c 2a 72 c5 b1 ed 87 87 8c 73 da 2b 3c
       0.011576601 -5.7464336e-09 -2.088185e-31 0.010489094
0001f0 c2 5e 70 0c 86 b7 22 01 03 ec 4e 3c 81 6f c5 b4
       1.8517443e-31 2.9886372e-38 0.012629512 -3.677524e-07
000200 2c 1f 87 aa e0 d6 54 2c af 6d 51 2d 65 19 5c 8b
       -2.4002447e-13 3.0246292e-12 1.1904629e-11 -4.2389563e-32
000210 3f 21 9f af 63 4c 90 ab 1d 3a 12 3c 7d 4c 84 99
       -2.8945554e-10 -1.0253017e-12 0.008924988 -1.3679373e-23
000220 1e 1c 05 18 f3 68 89 8e 6f 1a ee 3b 03 0a 65 15
       1.7204043e-24 -3.387417e-30 0.0072663347 4.625408e-26
000230 a2 68 d1 bc a7 da 5f bc 4d 71 10 3c 2c 39 a1 17
       -0.025562588 -0.013662971 0.0088160755 1.0418813e-24
000240 45 4b e9 3c 94 7e dc 3c ac 99 0f 3b 81 3f fc 3b
       0.028478274 0.026915826 0.0021911664 0.007698
000250 a6 94 87 2d 5b 29 c0 21 f5 49 a3 3b 3a 52 7e 36
       1.5413736e-11 1.3021373e-18 0.0049831816 3.7896812e-06
000260 2a ea 0a 3c 6f 4d bc 3b 27 e8 2d 13 21 fa e5 31
       0.008478681 0.0057465355 2.195013e-27 6.6932135e-09
000270 39 e7 b9 bc 91 a1 4e 3c d3 f2 29 3b cd 25 63 22
       -0.022693263 0.012611763 0.0025932088 3.0784248e-18
000280 c5 f6 a7 b5 f3 9b 3c 3c e5 28 5d 27 d5 3c 1a 3c
       -1.2514289e-06 0.011511791 3.069208e-15 0.009413918
000290 dc a1 34 3c 8a db 9f 28 e5 a7 2a bc e2 cc 3f 3c
       0.011024918 1.7747756e-14 -0.010416006 0.011706563
0002a0 4c 08 97 06 6b 4f 92 90 18 d5 d4 8d 81 a6 0a 2e
       5.681208e-35 -5.770921e-29 -1.3116809e-30 3.1525452e-11
0002b0 af d7 67 18 cf 57 dc 3b df a3 46 b1 76 0d 72 3c
       2.9964943e-24 0.006724335 -2.8905942e-09 0.014773717
0002c0 57 c0 ce 18 eb a8 ed 1d 76 fa cd 1d fe 7c 1b b3
       5.3443966e-24 6.2908035e-21 5.452202e-21 -3.620243e-08
0002d0 85 38 87 9f 15 ef b5 19 54 52 87 3c 9c 00 7f 26
       -5.726823e-20 1.8811526e-23 0.01651875 8.8471723e-16
0002e0 dc 63 28 8b b6 e6 cc 3c bb 34 21 17 97 7e 62 3c
       -3.243075e-32 0.025012355 5.208846e-25 0.013824127
0002f0 d6 f2 57 12 cb 6f ba aa 93 d7 a1 35 0d 51 9c 3c
       6.8141356e-28 -3.311781e-13 1.2058175e-06 0.019081617
000300 4d a4 41 bc 98 87 3f 80 b4 f8 14 19 72 91 a8 2f
       -0.0118189575 -5.834278e-39 7.701646e-24 3.0662367e-10
000310 d4 9e fd b7 02 34 31 3c ea 54 66 1b b4 3c 43 3c
       -3.023391e-05 0.010815622 1.9052591e-22 0.011916328
000320 30 58 37 3c dc b9 dc b2 62 1a 71 93 99 4d eb 30
       0.011190459 -2.569589e-08 -3.0431484e-27 1.7120555e-09
000330 6d f3 2f 94 e0 f5 ae 21 81 4e f9 25 b5 aa b4 39
       -8.8832494e-27 1.1855781e-18 4.324781e-16 0.00034459462
000340 48 a5 86 3c 09 68 51 bc dd 61 93 bc f2 a8 ad 35
       0.016436234 -0.012781152 -0.017991 1.2938674e-06
000350 59 56 bc b2 bb b9 ce bb ef 9a 23 3c 95 ab 73 3c
       -2.1925347e-08 -0.006308762 0.0099856695 0.014872451
000360 19 a5 9b 1c 99 53 b9 a5 ca 5a e9 3c fd ba 43 1c
       1.0299716e-21 -3.2149032e-16 0.028485674 6.4761764e-22
000370 d9 77 a6 26 8f 45 10 3c 97 aa 83 b0 b6 bc e4 1e
       1.1551049e-15 0.008805647 -9.579989e-10 2.4218488e-20
000380 e1 e8 d9 8d e7 73 96 3c 2e ee 5b 3c 65 fe 54 b3
       -1.3429721e-30 0.018365813 0.013423486 -4.9591467e-08
000390 25 a1 06 3c 4f 8e 15 3d da f8 0a a1 61 2d 81 3c
       0.008217131 0.03651267 -4.708557e-19 0.015768709
0003a0 14 6f 35 9e aa c7 4f a4 59 a2 ca 3b 42 49 db 16
       -9.605031e-21 -4.5055092e-17 0.006183904 3.542759e-25
0003b0 07 20 44 bc 04 bb 93 23 9e 48 c2 b0 ab ae 23 a9
       -0.011970527 1.6016976e-17 -1.4135997e-09 -3.634477e-14
0003c0 41 55 e7 1a 81 de 8e 28 3b 7f b8 b2 ed 8f f7 3b
       9.5677096e-23 1.5861663e-14 -2.1478277e-08 0.007554999
0003d0 41 04 0c 3c ee c6 19 3c 90 37 39 3c d1 8d d6 3a
       0.008545936 0.009385807 0.011304751 0.0016369169
0003e0 0a f9 75 b6 6d 5e b0 3b 50 ae ca 3c 8b 10 64 35
       -3.6652805e-06 0.00538235 0.024741322 8.496069e-07
0003f0 95 1e 87 3b 79 43 26 1b e0 6e 7a 3c 01 f9 18 aa
       0.0041235187 1.3753e-22 0.015285224 -1.3586703e-13

action_layers.1.bias f4 [128]
000000 32 ee b1 3d fd 80 ad 3d 93 88 7a a8 8c 6d 03 80
       0.0868801 0.08471868 -1.3907403e-14 -3.14805e-40
000010 47 65 b1 3d 2e df 10 ac 6b 0f ab ac 30 4e 01 80
       0.08661895 -2.058752e-12 -4.861824e-12 -1.19884e-40
000020 18 66 c7 3d 6e b5 1b 3e e9 db 69 8c 39 3c cd 3d
       0.0973627 0.15205929 -1.8015844e-31 0.10021252
000030 21 93 1f b4 24 c3 9b 9b b1 60 cd 3d 57 06 e2 ad
       -1.4861554e-07 -2.5768706e-22 0.10028208 -2.569604e-11
000040 c2 90 b7 88 6d 7e 99 3d d9 4b a8 ad cb 18 2b 3e
       -1.1047944e-33 0.07494817 -1.9133072e-11 0.16708677
000050 02 e3 9c 3d 50 a4 06 9c ba 42 97 3d 2a 76 ef 3d
       0.07660486 -4.454925e-22 0.07385774 0.1169246
000060 34 3e 64 ad fa b0 2f 88 2b 5a cf ab 03 26 8f 3d
       -1.2974111e-11 -5.287018e-34 -1.4733261e-12 0.06989672
000070 47 4f 24 3e 13 c7 6e ad 76 9a 82 ac ae 07 e0 3d
       0.16045867 -1.3572937e-11 -3.711971e-12 0.10938965
000080 26 25 be 3d 9f 69 b6 3d 64 1f e6 3d eb 2a 6d ab
       0.09284429 0.089068644 0.11236456 -8.4258875e-13
000090 00 45 11 b5 49 3f 78 91 79 db b5 91 c7 38 3a 3e
       -5.411712e-07 -1.9583252e-28 -2.8692025e-28 0.18185721
0000a0 0e a9 63 ba a0 a1 9c ad e7 0c f8 3d bc 65 8f 3d
       -0.0008684554 -1.7806923e-11 0.12111836 0.07001826
0000b0 fb bc 63 a7 0e ca 00 3e 8f fb 84 3d 43 9f 3a ad
       -3.1605025e-15 0.12577078 0.064932935 -1.0608239e-11
0000c0 a2 f6 83 3d b0 0b 93 3d dd c6 cb 3d a9 5e c1 aa
       0.06443526 0.071799636 0.099500395 -3.434937e-13
0000d0 00 1e 2b 3e 99 eb ed 3d 94 a4 4c 9e 66 dc 1b a9
       0.16710663 0.11617202 -1.0833704e-20 -3.460808e-14
0000e0 b7 1a 84 b0 c4 b3 06 a8 38 5a d6 3d a5 60 a6 3d
       -9.611857e-10 -7.477475e-15 0.104664266 0.08123902
0000f0 1d 50 d5 3d 92 52 d9 b4 37 42 c5 ac 7d df 8e 9c
       0.10415671 -4.0479478e-07 -5.606428e-12 -9.454542e-22
000100 16 45 dd 3d d1 40 91 a0 fc 12 8e b1 5a 73 24 a1
       0.10804193 -2.4606847e-19 -4.134902e-09 -5.571803e-19
000110 2c c9 f9 a1 fe dd 82 a5 6e fa cf 9c 37 4b 86 9a
       -1.6926146e-18 -2.2701833e-16 -1.3762846e-21 -5.554262e-23
000120 1c 3e 09 15 7f e5 86 3d f1 2e eb a6 25 ca ac 3d
       2.7715925e-26 0.06586742 -1.6319124e-15 0.084369935
000130 71 c0 d1 3d 43 07 b6 b2 ed bd c3 3d c0 71 a7 9d
       0.102417834 -2.119089e-08 0.0955771 -4.4322147e-21
000140 34 65 aa 3d c5 a5 ca 3d ff 4c 8b 3d 85 83 ae 3d
       0.08320084 0.09894899 0.06801795 0.08521179
000150 66 2f b0 b6 ab 92 d8 ad 36 9f ab 3d 5f 7c 82 3d
       -5.2507266e-06 -2.462149e-11 0.083799765 0.06371378
000160 61 c6 6b 3d 0f 62 e1 3d 2e 66 e3 b0 c4 8d 85 3d
       0.057562236 0.11005031 -1.6545465e-09 0.0652118
000170 42 7a e7 8d 9e a9 e4 af c1 0c 23 af b9 05 02 3e
       -1.4265907e-30 -4.159348e-10 -1.4829295e-10 0.12697496
000180 03 cc 17 80 93 48 92 3d 5e 33 43 b7 64 06 bb 3d
       -2.185402e-39 0.07142749 -1.1634866e-05 0.09132078
000190 0e 87 b5 3d 19 64 a7 3d 9d d4 cf a4 7d 42 d5 3d
       0.0886365 0.08173389 -9.013212e-17 0.10413072
0001a0 f2 de 65 1c b0 9d 81 a2 68 d6 b9 3d 2f 67 b4 b3
       7.6057894e-22 -3.513248e-18 0.09074098 -8.400672e-08
0001b0 2f 32 7b af 38 94 01 3e ff 42 10 3e c4 00 a4 3d
       -2.2846146e-10 0.12654197 0.14088057 0.080079585
0001c0 cf 88 d9 a7 54 a7 91 3d 14 58 a0 3d 55 47 d1 3d
       -6.0377927e-15 0.071119934 0.078292996 0.10218684
0001d0 17 14 98 3d d4 ac 64 24 19 50 09 95 4f 40 a5 89
       0.07425707 4.958601e-17 -2.7730116e-26 -3.978278e-33
0001e0 17 60 04 3e a8 3a a1 3d c3 a5 fa a5 97 4b fb aa
       0.1292728 0.07872516 -4.3480411e-16 -4.4639008e-13
0001f0 90 6f 0a b2 de 1e a0 b0 15 4f a7 3d 66 ec cd b7
       -8.058024e-09 -1.1650305e-09 0.081693806 -2.4547986e-05

fc.weight f4 [1, 128]
000000 a2 4b 63 3e f6 f4 5d 3e 20 ec 83 28 b2 8f 03 80
       0.2219682 0.21675476 1.4646325e-14 -3.27055e-40
000010 f9 91 62 3e 8d b9 10 2b 3f d9 0d ac 85 18 04 80
       0.22125997 5.141658e-13 -2.01579e-12 -3.76138e-40
000020 0b 90 7c 3e bd bf c2 3e 2d 75 8c 0c c9 bc 81 3e
       0.24664323 0.3803691 2.1640938e-31 0.25339344
000030 7b 23 69 34 5e 07 8c 1c c9 f2 81 3e 2e fc 30 ad
       2.1712724e-07 9.266327e-22 0.25380543 -1.0060437e-11
000040 9f a4 6c 89 7c 41 46 3e a0 e3 f0 ad 19 b4 d7 3e
       -2.8484871e-33 0.19360918 -2.7385927e-11 0.4212959
000050 77 4e 4a 3e 57 a4 b1 9b 85 9a 43 3e e1 e4 96 3e
       0.19756494 -2.9388396e-22 0.19101913 0.29471496
000060 d0 35 8c 2d ef 6c ec 08 84 19 69 ac 57 ef 39 3e
       1.5940055e-11 1.42293435e-33 -3.3125456e-12 0.18157707
000070 ff 9f ce 3e 3c 73 b4 ad b1 88 e1 ac 4b 3a 8d 3e
       0.40356442 -2.0514805e-11 -6.4100604e-12 0.27583537
000080 6e ee 71 3e ec a1 68 3e b4 69 90 3e c1 97 0a 2c
       0.2362611 0.22718018 0.28205645 1.969522e-12
000090 06 0b 76 34 70 a0 82 11 c8 38 9c 91 9a 9e ec 3e
       2.2914546e-07 2.060926e-28 -2.4647454e-28 0.46214753
0000a0 97 fe cd 38 ca 50 40 2e de be 9b 3e 54 3e 3a 3e
       9.822583e-05 4.37275e-11 0.30419058 0.18187839
0000b0 f5 9a d1 26 3f 20 a1 3e 10 c9 2d 3e 63 90 e7 2b
       1.4544289e-15 0.31469914 0.1697123 1.6453613e-12
0000c0 ea 8f 2c 3e 35 94 3e 3e 80 20 81 3e 33 94 1c 2b
       0.16851774 0.18611224 0.25220108 5.5628e-13
0000d0 0d eb d7 3e e9 f1 94 3e a9 5d fd 9b 0d ed 9f 27
       0.42171517 0.29090813 -4.1915865e-22 4.4388376e-15
0000e0 23 09 14 2f e6 e5 1f a7 41 1b 87 3e 2a 8e 55 3e
       1.3463768e-10 -2.219031e-15 0.2638798 0.20855013
0000f0 81 cc 86 3e 38 71 ab 34 38 a6 9b 2c 82 c2 89 1c
       0.263279 3.193361e-07 4.423819e-12 9.116179e-22
000100 a4 73 8b 3e f0 12 4e a0 cb ed c5 31 55 c4 6d a2
       0.27236664 -1.7455145e-19 5.7604885e-09 -3.2223427e-18
000110 b0 77 65 22 2b 78 57 25 90 ae 29 1d ae 9e 8c 19
       3.109865e-18 1.8688992e-16 2.245721e-21 1.4539751e-23
000120 b3 70 2a 96 2c 14 30 3e 9c e9 9c a7 a1 22 5d 3e
       -1.3768052e-25 0.17195195 -4.3551978e-15 0.21595241
000130 27 87 84 3e 20 dc 81 b3 8c 30 78 3e 38 49 92 9d
       0.25884363 -6.047071e-08 0.24237269 -3.8721585e-21
000140 77 51 5a 3e 70 2d 80 3e a4 57 35 3e 97 24 5f 3e
       0.21320139 0.25034666 0.17709213 0.21791302
000150 9f e2 bc 34 06 77 68 2d 75 d3 5b 3e 20 ca 2a 3e
       3.5182617e-07 1.3214102e-11 0.21467383 0.16678667
000160 02 9c 1b 3e d1 7f 8d 3e fc 62 27 b0 ee 77 2e 3e
       0.15196231 0.2763658 -6.089491e-10 0.17037937
000170 f9 0c 25 8f b2 cb 42 30 5a 28 84 ad e0 4f a2 3e
       -8.1376265e-30 7.086626e-10 -1.5024582e-11 0.31701565
000180 98 6b 25 00 7a ad 3d 3e aa f9 b1 37 21 07 6e 3e
       3.436511e-39 0.18523207 2.1216303e-05 0.23244907
000190 9d 81 67 3e 8f bb 56 3e 0f d2 4c a5 1d a4 86 3e
       0.22608037 0.20969985 -1.776535e-16 0.26297083
0001a0 af d8 4b 99 cd fc 5f a1 a6 9e 6c 3e 16 0a ad 32
       -1.0538613e-23 -7.588992e-19 0.23107395 2.0144437e-08
0001b0 40 ee ae 2e 19 29 a2 3e 15 ac b3 3e bd bc 52 3e
       7.9549256e-11 0.3167198 0.35092226 0.2057981
0001c0 59 d2 0d a9 30 ec 3c 3e 16 63 4e 3e 3e 31 84 3e
       -3.1490737e-14 0.18449473 0.20154986 0.2581882
0001d0 96 91 44 3e f2 15 a4 a3 d9 9a 99 97 14 b3 14 88
       0.19196162 -1.779021e-17 -9.926482e-25 -4.4747635e-34
0001e0 e9 11 a6 3e 59 6f 4f 3e 3d cd 25 24 57 f8 5d 2a
       0.3243554 0.2025732 3.5952515e-17 1.9714903e-13
0001f0 ef 75 1e b2 39 76 d7 b0 56 9e 56 3e e7 63 31 37
       -9.223625e-09 -1.567691e-09 0.20958838 1.0573282e-05
