project2-continous_control/checkpoint/critic_target.pth (torch_old, 435694 bytes, 7 tensors)

state_layers.0.weight f4 [256, 33]
000000 7e 0f 4a ba 13 c9 ce 3c 3e 9e 27 bc b7 3b 18 bc
       -0.0007707997 0.025242364 -0.010230599 -0.009291581
000010 4c ca 27 bc f5 71 81 3b e4 0c ab bb 31 ca bf 3c
       -0.010241102 0.0039503523 -0.0052200425 0.023411842
000020 92 19 6f 3a f8 80 d1 39 dd 28 bd bb e1 36 a4 3b
       0.0009120937 0.00039959676 -0.0057726935 0.005011425
000030 d9 77 ec 3b ea 14 d3 3c da ff b2 bc e9 cb 00 3c
       0.0072164354 0.025766809 -0.021850515 0.007861116
000040 9f d8 e0 3b 14 ff 45 bb 42 ee 0c bc 6e 75 0a 3c
       0.0068617607 -0.0030211853 -0.008601727 0.008450849
000050 89 b1 96 3b 31 3b c0 3b 1d 42 25 bc d7 b2 9c 3b
       0.0045988006 0.005866431 -0.010086563 0.0047820616
000060 6e 81 e5 bc 8a 7d 17 bd 44 c4 2b bb 39 e3 88 3b
       -0.028015818 -0.036984958 -0.0026209513 0.0041774777
000070 14 69 27 bc 42 00 00 00 39 e3 88 bb ab 0d 00 00
       -0.010217924 9.2e-44 -0.0041774777 4.903e-42
000080 db 7d 88 bc fa 95 97 bb cc d9 64 3d 49 58 a0 bb
       -0.016661575 -0.004626033 0.05587177 -0.004893337
000090 e9 b8 7e b9 c8 aa 47 3a 23 dd ec 3b d5 bd 15 3c
       -0.00024292212 0.0007616696 0.00722851 0.009139498
0000a0 35 75 73 3b 58 b5 79 bc 31 0f 9f 3b 01 1e 6f 3a
       0.0037148718 -0.01524099 0.004854106 0.00091215974
0000b0 b8 a3 71 3c b8 57 09 3b a2 e3 21 bd 7b 82 0a 3b
       0.014748506 0.0020956825 -0.03952373 0.0021134901
0000c0 fc 9f be 3c aa 68 5b bd d1 0f ef bc 76 a4 d3 bc
       0.023269646 -0.053566612 -0.029182347 -0.025835257
0000d0 75 77 8b bc fc 23 cf ba e9 48 7a bc 8d ac 8e 3b
       -0.017024735 -0.0015803571 -0.015276172 0.0043540657
0000e0 65 8a 5c bc 32 5c f1 3b 8f d7 16 3c 7d 2f bf 3c
       -0.01346073 0.007365727 0.009206667 0.023338074
0000f0 6e b9 84 bc 41 90 0a bd 9c 05 00 80 6e b9 84 3c
       -0.016201701 -0.033828977 -2.012e-42 0.016201701
000100 9b 2e 00 80 f1 ce 62 3d 69 71 f2 3a 6f 40 0e 3c
       -1.6719e-41 0.055373136 0.0018496934 0.008682354
000110 26 75 06 bc 15 d4 12 3c 04 fb 0a 3c e5 89 0e bc
       -0.008206641 0.008961697 0.008482698 -0.008699869
000120 fc 2c 4c bc 00 e9 5f bb 46 53 26 bb 16 80 55 3c
       -0.012461897 -0.0034165978 -0.0025379225 0.013031026
000130 3b 1d ae 3b b4 2a b4 bc 3f ef df 3b 25 40 d5 bb
       0.005313543 -0.021993019 0.0068339403 -0.0065078908
000140 6a 3a 17 3d 3e aa d2 bc 80 12 3b 3c a7 ca 09 bb
       0.036920942 -0.025715943 0.011417985 -0.0021025331
000150 02 18 1c bc 4e 09 49 3c 62 e7 b1 3c a1 4d 8d bc
       -0.009527208 0.012270285 0.021716777 -0.01724893
000160 d2 9f 19 3b 2c d9 01 bc 6e 1e 4f 3c db 99 c4 bc
       0.0023441208 -0.007925313 0.012641532 -0.023999145
000170 f7 01 53 bd fe 93 8e bc 12 5f f4 3c 71 1b 00 80
       -0.051515546 -0.017404553 0.02983049 -9.844e-42
000180 fe 93 8e 3c 3a 20 00 80 66 31 18 3b f2 84 8f bc
       0.017404553 -1.1561e-41 0.0023222803 -0.017519448
000190 02 6b 65 3c 4c 88 b3 bc e9 40 35 bb a4 41 48 bc
       0.014002563 -0.021915577 -0.0027657098 -0.012222681
0001a0 b6 17 9a 3b 98 e8 21 bc 13 05 50 3c 6c 43 e4 3b
       0.0047025336 -0.009882115 0.012696522 0.006966045
0001b0 ce d9 7e 3b c4 f4 67 3a 09 74 10 bc 57 55 9a bc
       0.0038887146 0.00088484236 -0.008816727 -0.018839521
0001c0 2a 77 62 3c 10 87 87 bb 2f 04 1e 3b bf 57 af 3b
       0.013822356 -0.0041359738 0.002411138 0.0053510363
0001d0 af 25 f3 ba 9a ed 09 ba b7 ee a8 3b af 95 49 3c
       -0.0018550659 -0.00052615406 0.00515541 0.012303754
0001e0 0b 28 c3 3c 60 7e 72 3b ea 8f c1 3c b9 12 9e 3b
       0.023822805 0.0037001595 0.023628194 0.0048240093
0001f0 69 ef 6b 3c c9 9d a9 3b 0d 6d 11 3c a4 cf 04 bb
       0.014400342 0.00517628 0.008876097 -0.0020265365
000200 a3 34 00 80 0d 6d 11 bc 26 07 00 80 db d7 fd 3c
       -1.8882e-41 -0.008876097 -2.564e-42 0.030986717
000210 1d 43 b0 bb 36 8d 6c bc e5 a9 7e 3b 47 d0 9a 3a
       -0.0053790943 -0.014437964 0.003885859 0.0011811339
000220 e9 51 22 bb ca 58 0a bc 24 aa 8f 3a d3 a0 0f ba
       -0.002476806 -0.0084440205 0.001096074 -0.0005478982
000230 25 4d b9 bb 8d 7b 2b 3c 8c 92 71 3c 1f 1e 47 bc
       -0.0056549483 0.0104664685 0.014744412 -0.0121531775
000240 d5 bb b0 bb 18 20 4e 3d 6e 36 84 3c 28 34 90 b8
       -0.005393485 0.050323576 0.016139235 -6.87617e-05
000250 90 2b a5 3a b2 23 06 3a f4 66 00 bb 97 c8 6e bb
       0.0012601484 0.00051170134 -0.0019592615 -0.0036435479
000260 8a 63 07 bc 66 a9 68 3c be 22 86 3a 00 59 fc bb
       -0.008263478 0.014200544 0.0010233743 -0.0077010393
000270 bd ae e2 3b f4 c9 b4 3a 94 a6 0d bd d3 18 ae 3c
       0.006917803 0.0013793097 -0.03458269 0.021252071
000280 56 df f5 bb bd 08 00 80 d3 18 ae bc d8 12 00 80
       -0.0075034304 -3.135e-42 -0.021252071 -6.76e-42
000290 86 06 e8 bc 37 3d 95 bc 80 07 bd 3c 27 48 02 bd
       -0.028323423 -0.018217666 0.023074865 -0.03180709
0002a0 e5 70 1a 3c 90 86 a1 3a 5e f5 55 ba 98 f8 46 3b
       0.00942633 0.0012323428 -0.0008161868 0.0030360576
0002b0 57 1a 85 ba 88 82 cd bb 9b f6 29 bc 58 a6 fb bc
       -0.0010154945 -0.006271664 -0.010373737 -0.030718967
0002c0 37 94 d5 3b ab c8 cd bb 6a 4e cf bc f4 01 f1 3c
       0.0065179127 -0.006280025 -0.025305945 0.029419877
0002d0 82 21 29 bd f0 91 f3 3b 92 53 1b bc 84 ad 04 3c
       -0.04129172 0.0074331686 -0.009480374 0.00809801
0002e0 ce 25 bb bb 36 e6 9e bb f1 4c 28 bc d1 1e b6 3c
       -0.005711294 -0.0048492206 -0.0102722505 0.022231491
0002f0 4e 9b 8f ba 0d b4 b7 3c 36 38 14 3c b8 f5 fc 3c
       -0.0010956319 0.022424722 0.009046605 0.030878887
000300 cc 17 34 bc 21 6f 84 bc 50 1c 00 00 cc 17 34 3c
       -0.010992002 -0.016166272 1.0157e-41 0.010992002
000310 26 20 00 00 ca 6b 93 bc 88 db 28 3c b9 4e 0e bc
       1.1533e-41 -0.017995734 0.010306247 -0.008685761
000320 20 2b 0e 3c 1d da 8e 3a 25 a6 78 bb a7 36 ad 3b
       0.008677274 0.0010898743 -0.0037940827 0.005286056
000330 63 4c 82 3a 14 c9 25 bc ef f0 ac bb a6 a7 e4 3b
       0.0009940978 -0.010118742 -0.005277745 0.006977993
000340 10 44 14 3d c7 b9 a6 bc 56 df 00 3c 93 19 9e 3c
       0.036197722 -0.020352257 0.007865747 0.019299304
000350 27 9d f1 3b ab 86 11 bc 55 a6 1d 3b 23 e7 24 bb
       0.0073734703 -0.008882205 0.002405544 -0.0025162182
000360 88 75 9f 3c 1e bf 55 3c f9 11 72 3c 06 e5 4e 3c
       0.019465223 0.013046054 0.014774793 0.012627846
000370 c2 2e b3 bc 83 2e f9 3c 3c d9 ae bc 90 19 d9 bc
       -0.021872882 0.030417686 -0.02134382 -0.026501447
000380 5b f7 27 bb b4 b1 a0 bb 19 f5 9d bc 9c 05 00 00
       -0.0025629613 -0.0049039964 -0.01928191 2.012e-42
000390 b4 b1 a0 3b 90 22 00 00 33 cb 9a 3c b5 da 5a bc
       0.0049039964 1.2399e-41 0.018895721 -0.013357808
0003a0 55 4d f9 3c 1a 46 b2 bc 3b 88 2d bc e2 0e 16 bc
       0.030432383 -0.021761943 -0.010591562 -0.009158822
0003b0 7e 4c 74 bb d3 2f 78 39 c7 d7 97 bb e9 b4 8f 3c
       -0.0037277038 0.00023668939 -0.004633877 0.01754232
0003c0 d6 7b 49 3b 70 69 9c bb e9 6a 77 bc 9d 06 97 bc
       0.0030743978 -0.0047733113 -0.015101173 -0.01843577
0003d0 fd 97 a8 bd f9 e3 38 bd 59 0a 23 bd 95 a4 30 ba
       -0.082321145 -0.045139287 -0.03980479 -0.0006738392
0003e0 7a c6 ae ba 32 7f 1c 3c a8 0b ef ba 19 5c ba bb
       -0.0013334297 0.00955181 -0.0018237727 -0.0056872484
0003f0 dd 35 88 3c e7 8c c6 3b 35 dd 5f bc 3b 72 f4 bc
       0.016627247 0.0060592773 -0.01366358 -0.029839626

state_layers.0.bias f4 [256]
000000 4e e3 88 bb 72 b9 84 3c f8 93 8e 3c 00 6d 11 bc
       -0.0041774875 0.016201708 0.017404541 -0.008876085
000010 ce 18 ae bc cc 17 34 3c a7 b1 a0 3b 26 87 94 3c
       -0.021252062 0.010992002 0.0049039903 0.01813085
000020 2c be 79 bc 4a c8 0d bb 27 25 74 bc 3c 5c 07 3b
       -0.015243094 -0.0021634274 -0.014901436 0.0020654341
000030 15 b2 69 bb 53 28 4f 3c 09 2f 7e bc c5 8f 08 3c
       -0.0035659124 0.012643891 -0.015514144 0.008335059
000040 34 54 95 bc 99 7e b9 3a 97 0d 97 bb cf f4 73 bc
       -0.018228628 0.0014152109 -0.0046097743 -0.01488991
000050 0c 5a 82 bc 1a 59 a8 bc 32 fc d1 3c 23 f4 38 3c
       -0.015912078 -0.0205503 0.025632951 0.0112886755
000060 d3 80 75 bb 78 bd c5 bc d9 50 00 3b 03 37 87 3b
       -0.0037460818 -0.024138197 0.001957944 0.004126431
000070 f2 d3 cd 3b e9 df 77 3b 62 a8 e8 ba 73 08 89 3c
       0.0062813694 0.003782267 -0.0017750377 0.016727662
000080 34 f4 be 3c db c0 fc bb cf 4d aa bc 32 28 c3 b9
       0.023309804 -0.00771342 -0.020789055 -0.00037223246
000090 1d f4 e4 bc 5a 09 fa ba 56 2a 89 3b 8e d5 ee bb
       -0.027948434 -0.0019076273 0.004185955 -0.0072886413
0000a0 f8 0b 0c 3d db fe 99 bc 9b 98 37 3c ed 00 bf bc
       0.0341911 -0.018798282 0.011205818 -0.023315871
0000b0 9c 7b d9 bb cb 3f 7f bc 1f f9 6f 3c 69 26 de 3c
       -0.00663705 -0.015579174 0.014646797 0.027117925
0000c0 7b 64 b2 bc 35 73 54 3c 63 40 3b bd c8 86 0c 3c
       -0.021776428 0.012966921 -0.0457157 0.008577056
0000d0 4c 93 0a 39 a5 b6 57 3d 6d 4c 45 bc 5f 83 4e bc
       0.00013215578 0.052664418 -0.012042147 -0.0126045635
0000e0 6f 16 c9 bc 27 75 ee 3b 92 a2 39 bb 89 b0 3c 3c
       -0.02454683 0.0072771492 -0.002832566 0.011516699
0000f0 7c c6 f7 bc 9e 09 26 bd bb 1b 23 3a 8e b1 db 3c
       -0.030246012 -0.040536515 0.00062220887 0.026818063
000100 7c 78 c1 bc 54 7d 56 bc 0f 4a cc 3b dc 25 6e bc
       -0.023617022 -0.013091404 0.0062344144 -0.014535394
000110 ed 00 17 3c 6a 9f ab 3b 6e 84 de 3c c7 93 0a 3c
       0.009216529 0.0052375095 0.027162757 0.008458084
000120 e5 06 5c 3c 87 be 1a 3d df 26 7f bc 7e b2 4a 3c
       0.013429378 0.037779357 -0.015573232 0.012371657
000130 a7 92 64 bd e3 d5 f3 3b ae 02 df 3b 90 9b e2 3b
       -0.05580392 0.007441269 0.0068057394 0.006915517
000140 af 51 ad 3c 3a ee f2 bc 98 49 22 3d 56 eb 44 3c
       0.021157114 -0.02965461 0.039620966 0.012018999
000150 93 a9 b8 3b c5 d2 b4 3c 07 f4 a0 3c c4 54 03 bc
       0.005635449 0.022073159 0.019647611 -0.008015815
000160 93 b1 2a 3c cd 12 88 bc a9 45 13 3b 8f e9 23 bd
       0.010418314 -0.016610527 0.002247194 -0.04001766
000170 50 2e 49 3c 4d 46 df bb 4e 88 37 bc fc c2 07 3c
       0.012279108 -0.0068138004 -0.011201931 0.008286234
000180 ec 90 c3 3b e3 bf 8b 3c e1 7b 19 3d 2b 3c 75 bc
       0.005968204 0.017059272 0.037471656 -0.014967958
000190 11 ee ff 3c 20 a9 20 bd c6 73 09 bc 52 46 9c bc
       0.031241449 -0.03922379 -0.008389419 -0.0190765
0001a0 f7 64 fc 3c f5 d3 d7 3b 0c 8e 70 bc 30 b1 d8 3b
       0.030809863 0.0065865465 -0.014682304 0.0066129193
0001b0 52 2d 83 3c 4c 2c f7 bb 56 95 2e bd 91 c4 39 3c
       0.016012821 -0.0075431224 -0.042622887 0.011338369
0001c0 2e 4b 8d 3c 9d 08 b4 bc 4f 88 97 bc d8 2e cf bb
       0.017247763 -0.021976763 -0.018497614 -0.006322723
0001d0 c6 46 58 39 33 62 82 bc e0 80 71 bc f7 b6 06 bd
       0.0002062573 -0.015915966 -0.014740199 -0.032889333
0001e0 a2 71 1b bd f1 0a e1 bb e5 83 81 bc c6 18 c7 3c
       -0.037950166 -0.0068677594 -0.015809963 0.024303805
0001f0 c0 a3 a4 ba b7 ec d7 3c a2 c6 f9 bc 9a 24 49 3c
       -0.0012561008 0.026357992 -0.030490223 0.012276793
000200 3a 87 a2 bc ba f8 c1 3c 3f c7 03 bc 52 0b 8d bc
       -0.019839872 0.023678172 -0.008043109 -0.017217312
000210 c4 c5 8b bb c8 b6 70 3b 2d af d8 bb 2b 18 83 3c
       -0.004265519 0.003673004 -0.0066126795 0.016002735
000220 5f 41 36 3c da cd 27 bc 33 11 af bb 66 89 20 bc
       0.011123984 -0.01024195 -0.0053426265 -0.009798383
000230 b1 d4 10 3d 4d f5 0f b9 49 71 41 3c 9e f7 99 bc
       0.03535909 -0.00013728924 0.011806794 -0.01879483
000240 aa cf 20 bd b5 8a 61 3b ec ea 30 3c 7c 1d 2e bc
       -0.039260544 0.0034414951 0.010798197 -0.010627147
000250 46 9d e4 3c 8a ac aa bc c5 39 eb 39 07 65 e2 3b
       0.027907025 -0.020834226 0.00044865735 0.006909016
000260 81 49 3b 3b a1 8a 1e bc 98 31 34 3c f4 61 48 3c
       0.0028577747 -0.009676606 0.010998152 0.012230385
000270 22 5c bd 3a 06 f1 38 3c d1 04 81 3c ff 9f 53 3d
       0.0014447013 0.011287933 0.015749367 0.051666256
000280 7e d9 22 bb e1 a5 94 bc 7c 97 a8 3a 70 81 dd 3c
       -0.0024848874 -0.018145503 0.0012862529 0.02703926
000290 af 5f e4 bb c0 44 ea 3b ca 81 02 bc 34 ae 96 bd
       -0.006969414 0.007149309 -0.007965514 -0.07357445
0002a0 66 2b 61 bb b6 8a e5 bc f9 1d 45 bc f1 65 c5 3c
       -0.0034358143 -0.028020244 -0.012031072 0.024096461
0002b0 e3 d3 08 ba 58 a9 41 bd 94 4c 80 ba ce fc ac 3b
       -0.0005219562 -0.04728064 -0.0009788447 0.00527916
0002c0 80 1c 0f bd 18 9b 15 3a 7b 25 82 3b c1 d1 af 3b
       -0.03493929 0.00057070097 0.003971753 0.005365581
0002d0 77 3a 73 bd de 7b 8e bc ed 0d 77 3c ca 98 61 bb
       -0.05938193 -0.017393049 0.015079004 -0.0034423345
0002e0 7e 87 07 3c 0a 11 2c bc 03 de 4c 3c 68 45 b6 3b
       0.00827205 -0.010502109 0.012504104 0.005562473
0002f0 bc 36 19 3d 78 76 92 bc 6e 3b 20 bc d2 d5 0e 3b
       0.037405714 -0.017878756 -0.009779794 0.0021794927
000300 cc 7b 0d bd 02 96 20 bb e5 88 7c 3c c4 d4 e8 bb
       -0.03454189 -0.0024503474 0.015413498 -0.0071054418
000310 a8 ba a8 3b 9a 37 2a bd b6 04 71 3c a7 73 eb 3b
       0.0051492043 -0.041556932 0.014710596 0.0071854177
000320 87 05 f2 3b 3a 94 49 bc 39 2b b0 3c 65 28 54 3c
       0.007385913 -0.012303406 0.021504985 0.012949084
000330 18 57 83 bc dd c6 16 3d fb 37 83 3c 18 2e 40 3c
       -0.01603274 0.036810745 0.016017905 0.01172974
000340 c1 f3 82 bc db fb 5e 3b 94 b5 07 bd 26 96 b1 bc
       -0.015985372 0.003402463 -0.03313215 -0.021678042
000350 f4 80 67 bc b2 e0 bf 3b 5a 36 90 3c 05 be 5d bd
       -0.014129866 0.005855643 0.017604042 -0.054136295
000360 3d e8 58 3c 2d c8 67 3b 99 52 e5 3b 16 98 3c bb
       0.013238964 0.0035367117 0.006998372 -0.0028777174
000370 45 8c 26 3c d0 9e 55 bb bb 0e aa 3b f6 74 28 bb
       0.010165279 -0.003259588 0.0051897443 -0.002570448
000380 d1 d2 39 bb 5a 67 a7 3c 59 0f 9e bb 16 df fa 3b
       -0.0028354416 0.020435024 -0.004823607 0.0076559884
000390 e6 7d a7 3c 16 23 60 3c 37 5d 58 bc 7b 54 b3 3c
       0.020445775 0.01368024 -0.013205818 0.02189087
0003a0 bc 92 77 bb a8 ff ca 3b 08 b0 5e bc 0b 4a ab 3b
       -0.003777667 0.0061950274 -0.013591774 0.0052273325
0003b0 d9 ce 60 bc 9a 01 ac bb 87 8d 12 3c 7b be 0c 3c
       -0.013721191 -0.0052492144 0.008944876 0.008590336
0003c0 ee 67 e8 bb 1b 21 55 bb 45 75 22 bc e2 7c 08 3c
       -0.0070924675 -0.0032520953 -0.009915655 0.008330556
0003d0 46 27 eb 3b d3 98 a4 3c 20 e6 04 3b 78 5b 1e 3b
       0.0071763126 0.020092404 0.0020278767 0.0024163406
0003e0 89 6c 25 3c 06 78 ca bc ae 5c 70 bc 7a 04 79 bc
       0.010096678 -0.024715435 -0.014670534 -0.015198821
0003f0 0e 5a a9 bb 16 bb 58 bc 3c f4 1d bc 52 b5 a2 bc
       -0.005168206 -0.0132281985 -0.00964075 -0.01986185

action_layers.0.weight f4 [256, 260]
000000 c5 31 a9 3a 7f 09 69 3c 6e 11 25 3b ec 7f 9c bb
       0.0012908509 0.014223455 0.002518739 -0.0047759917
000010 4f 1c d5 bb 4e 4f bb 3b 26 92 92 bb 17 c7 a0 3b
       -0.006503619 0.005716241 -0.0044729887 0.004906546
000020 2e 77 27 bc b1 74 9f ba 4f e6 9f ba 36 ea a6 3b
       -0.010221286 -0.0012165514 -0.0012199375 0.005093838
000030 17 ac 94 bb 9e b3 61 3b 8b 64 97 bc 9e b7 3a 3c
       -0.0045371163 0.0034439336 -0.01848056 0.011396317
000040 c7 2d ff bb 2b 00 83 bb 5e 32 1e bc 72 34 8e bc
       -0.0077874395 -0.0039978228 -0.009655563 -0.017358992
000050 44 7b a4 bb 39 7f 45 bb 29 c6 96 3c b4 21 80 3b
       -0.005019577 -0.0030135645 0.018405037 0.0039102677
000060 39 51 ac bb 4f 62 18 bc b7 e2 d8 3b de 3e 1d bc
       -0.005258706 -0.009300782 0.0066188234 -0.009597508
000070 88 60 41 bc d6 a9 3f 3c bb 13 35 bb 76 08 ca 3b
       -0.0118028 0.011698207 -0.0027630168 0.0061655594
000080 d2 68 0b bc 0a 10 0e ba a1 96 ae bb d9 34 1c 3c
       -0.008508878 -0.000541926 -0.005328015 0.009534084
000090 83 45 0f bc 3c e1 ae bb 25 b3 3d b9 10 8e 57 bb
       -0.0087446 -0.0053369086 -0.00018091181 -0.0032891072
0000a0 ea cc f0 3b 22 53 47 bb 32 63 7a bc ca 8e af bb
       0.0073486464 -0.0030414541 -0.015282439 -0.005357598
0000b0 42 2c 5a bc f3 c6 43 39 e6 31 4e 3a f7 1e 0d 3b
       -0.013316216 0.00018670764 0.0007865712 0.002153335
0000c0 ff b5 09 bc b7 dd 3f 3c b6 69 3a bc bb 75 b0 bb
       -0.008405208 0.011710576 -0.0113777425 -0.0053851283
0000d0 0c e2 db 3b 11 8c f5 3b 7f 39 22 3b 91 d3 85 bb
       0.0067102965 0.007493504 0.0024753509 -0.0040840586
0000e0 82 20 a4 bc 48 e4 12 3c 5b 2c 26 bc d6 c0 60 3c
       -0.020035032 0.008965559 -0.010142411 0.013717851
0000f0 45 93 5c bc 54 24 d5 bb a3 7b 68 3c f7 64 7d 3b
       -0.013462846 -0.006504575 0.014189634 0.0038664916
000100 27 57 7b bc 77 aa 74 bc 3c 2e 10 bc b8 e7 e4 ba
       -0.015340603 -0.01493322 -0.008800086 -0.0017464077
000110 99 b7 f7 3b f1 5f 44 3b c9 71 2d bb 68 67 8a bb
       0.0075597283 0.0029964412 -0.0026465526 -0.0042237528
000120 6f b8 18 3b 6e d0 99 3b f8 df 85 bb 41 9d 07 3c
       0.002330329 0.004694036 -0.004085537 0.008277238
000130 77 ff b0 bc 4e bd 24 3b c7 16 ab bb 82 e1 ec bb
       -0.02160619 0.0025137248 -0.005221221 -0.007229031
000140 a6 67 42 3c f5 be 56 bc 16 cd 5f 3c 95 bc 19 bc
       0.011865532 -0.013107051 0.013659736 -0.00938334
000150 8e a9 1b 3c 42 f4 4a 3b b1 a8 39 3c 7b 14 b1 bb
       0.009500874 0.0030968343 0.011331723 -0.005404053
000160 fa fc 1f 3c ca ad be bb 0d da 74 bb 2e 16 ab bc
       0.009764904 -0.005819057 -0.0037361414 -0.0208846
000170 66 c9 3b 3b 2f ab 72 bc cf 53 4e bc b0 35 cc ba
       0.0028653978 -0.014811321 -0.012593224 -0.0015579965
000180 bd cd 09 3c 67 de d1 3b 22 b7 63 3c 2b 9d 0a bb
       0.008410868 0.0064046863 0.013898643 -0.0021150808
000190 bf d4 5c 3c 36 2d 72 bc bd 84 2b bc 15 82 ba bb
       0.013478457 -0.014781287 -0.010468659 -0.0056917765
0001a0 8a e4 d0 3b 4a 25 b7 3b a9 d9 d6 bb 56 ed 1f 3c
       0.0063749 0.005589162 -0.006556709 0.009761175
0001b0 ce 6f 2e bb 53 c1 66 bb 3a e8 11 bc a4 9d 2a 3c
       -0.0026616934 -0.0035210445 -0.008905465 0.010413561
0001c0 b2 07 04 3c 8b b4 66 bb 0a 5d 51 bc 64 0c 56 bc
       0.008058475 -0.0035202827 -0.01277853 -0.013064478
0001d0 1d 52 42 3b 84 0e 78 bc e9 08 3f bc bb 6f 01 bc
       0.0029650994 -0.01514018 -0.011659839 -0.007900174
0001e0 27 1c 25 bc 93 c8 cd bb 50 ae 25 bc 58 35 8b bc
       -0.010077513 -0.006280014 -0.01011236 -0.01699321
0001f0 4a 9a 36 3b 88 2c 37 3c 35 79 32 bc 3e 05 08 bc
       0.002786296 0.011180051 -0.010893156 -0.008302031
000200 a3 cb 84 bb b9 35 69 3b 50 3e ce bb 53 8e 84 bb
       -0.0040525957 0.0035585 -0.0062940493 -0.0040452867
000210 92 f6 61 bc 54 c6 a4 3b e7 d8 c5 bc 74 bf 01 bc
       -0.013791697 0.0050285254 -0.024151279 -0.007919181
000220 1a 59 f5 3b 25 85 c1 bb 79 0e 1f bc 18 12 0f bc
       0.0074874284 -0.0059057646 -0.00970804 -0.008732341
000230 52 00 74 3c 27 70 81 bc a1 6c 7a bc 46 6e 88 bb
       0.0148926545 -0.015800549 -0.015284688 -0.0041635362
000240 e9 2a 68 bc 63 ff bb 3a 28 e3 1b 3c e2 f1 ce bb
       -0.014170387 0.0014343079 0.0095146075 -0.006315456
000250 e4 94 c6 bb 35 18 90 bb eb c9 f6 bb 91 a8 24 3c
       -0.0060602296 -0.004397417 -0.0075313947 0.010049955
000260 60 03 16 3c 5e b5 2f 3b d3 dc f9 3b 2a d0 4c 3c
       0.009156078 0.0026810984 0.0076252013 0.012500802
000270 69 de 97 3c f9 ee 8d 3b 75 1c 60 3c b0 d3 0f 3c
       0.01853867 0.0043314663 0.01367866 0.008778498
000280 3d d8 fb 3b aa f4 3b bc 68 c9 fd bb 24 ca 3a 3b
       0.0076856897 -0.011471907 -0.0077449568 0.0028501833
000290 47 9f 2c 3a 75 3d 06 3c 4b 6c aa ba 1d 49 99 bc
       0.00065850135 0.008193363 -0.0013002245 -0.018711621
0002a0 40 ea be bb b9 63 d5 bb 4f 90 47 b9 09 34 cb 3a
       -0.0058262646 -0.006512132 -0.00019031878 0.0015503179
0002b0 f5 d2 cd 3b d8 1e b2 bc 17 6c 6e bb 5c 2d ab bb
       0.0062812516 -0.021743223 -0.0036380345 -0.005223913
0002c0 be b3 81 bc f3 85 c6 3b cb e1 40 3a b5 97 ca ba
       -0.015832778 0.0060584485 0.00073578645 -0.0015456589
0002d0 46 1b 9a bc 27 42 4f bb 7c b4 54 bb 6b d2 44 bb
       -0.018811833 -0.0031625123 -0.003245621 -0.0030032645
0002e0 9b c5 ac bb 33 6c 26 bc 6d ee e7 3b 45 d7 ff bb
       -0.00527258 -0.010157633 0.007077983 -0.0078076445
0002f0 55 89 d2 3c 15 33 ed bb 50 dd f3 bb 19 29 00 3c
       0.02570025 -0.0072387555 -0.007442154 0.007822298
000300 fc d4 94 bc 91 fe c1 3b 97 a2 2d 3c d2 c4 7f 3b
       -0.018167965 0.0059202393 0.0105978465 0.0039027226
000310 e0 0e 1e 3b 56 92 64 bc 8f a2 62 3b 6d 52 7a 3b
       0.0024117753 -0.013950905 0.0034581756 0.0038196102
000320 50 3d 34 3c 57 30 28 bb f5 e1 ab ba ba e7 65 3b
       0.011000946 -0.0025663578 -0.0013113605 0.0035080747
000330 7b 44 9c 3a 01 b2 44 3b aa e4 2d bb 40 c8 0d 3c
       0.0011922264 0.0030013325 -0.0026534 0.0086537
000340 61 4b 13 bc 44 0e 55 3b 71 db 45 bc 0b 61 80 ba
       -0.00899014 0.0032509724 -0.012076245 -0.0009794546
000350 5a 39 0b bc d9 80 a3 3a a6 c0 62 3b 1f 37 c5 bb
       -0.00849756 0.0012474313 0.003459969 -0.006018534
000360 a0 76 cf 3a 43 74 02 bc 0f 67 9b bb 0c 0d 51 bc
       0.00158282 -0.007962289 -0.00474251 -0.012759458
000370 bf 8f b3 b9 cc 88 e6 3b ce f1 01 3c 7b 2c 32 ba
       -0.0003424864 0.0070353504 0.007931186 -0.0006796789
000380 23 94 e3 bb e1 c3 c2 3b f5 5d b3 bb 44 ae 4c 3c
       -0.0069451495 0.0059437607 -0.005473847 0.01249272
000390 22 c5 9d bb bf 68 e1 ba 7c 16 3c bb dc aa 65 bc
       -0.00481476 -0.0017197354 -0.0028699925 -0.014017787
0003a0 12 c5 03 bc a6 ae b2 3b 14 d0 53 bb 88 b8 c6 3b
       -0.008042591 0.0054529486 -0.003232007 0.0060644783
0003b0 7d 37 38 bc b1 28 c5 bb ba 73 bf bc 0c 25 45 3a
       -0.011243698 -0.0060168137 -0.023370612 0.0007520474
0003c0 f5 ca 1e bc 78 76 e4 bb 98 91 22 bb 77 47 6e 3b
       -0.009691943 -0.0069721304 -0.002480602 0.0036358514
0003d0 7e d4 4a bb 6b 55 c5 3b 09 5d 5a bb bc 5d 22 bb
       -0.003094941 0.0060221455 -0.0033319613 -0.0024775108
0003e0 f4 15 f7 3b 37 41 bf bb 4f 61 06 bc e1 de 92 bc
       0.007540459 -0.0058366316 -0.008201911 -0.017928543
0003f0 9b be 71 bb 0b 1f 21 bc 64 c3 c1 ba ef e9 0e bc
       -0.0036887291 -0.009834061 -0.0014782962 -0.008722766

action_layers.0.bias f4 [256]
000000 75 28 37 3d 2c 7e 89 ae f3 65 52 3c 35 f6 e5 3b
       0.044716317 -6.252451e-11 0.012841689 0.0070178756
000010 75 5f 84 3e 8d 39 96 a4 65 66 f6 b6 e4 44 10 3c
       0.25854078 -6.5149625e-17 -7.3432916e-06 0.008805487
000020 fc 61 61 aa 6e 3f 04 b0 38 27 8f b9 8d 61 65 3d
       -2.001801e-13 -4.811146e-10 -0.00027304306 0.056001235
000030 00 ea e6 b9 7e 89 a3 a6 f5 40 ae 3c bd 40 45 3d
       -0.00044043362 -1.1347664e-15 0.021271208 0.048157442
000040 bb 57 71 a3 3b 2e 45 a4 c1 b7 55 3d a5 35 30 ba
       -1.3083214e-17 -4.2756724e-17 0.052177195 -0.0006721861
000050 a2 0f 80 b1 d7 27 4a 9f a4 1f 92 b4 9a 5a 68 3c
       -3.7270675e-09 -4.280812e-20 -2.721764e-07 0.014181757
000060 3d 38 c2 3c 09 68 1e b7 33 5f e3 bc 2b 27 4a b4
       0.023708457 -9.441756e-06 -0.027755355 -1.8826965e-07
000070 95 93 8a 3c 16 58 bd 3d 77 35 d5 b9 02 c8 ef b6
       0.016916076 0.09245317 -0.0004066636 -7.146039e-06
000080 2a 29 66 b7 c8 02 a6 9f e1 76 92 3d c2 d0 36 3c
       -1.3718653e-05 -7.0308336e-20 0.071515806 0.01115817
000090 47 5c dd 3c 2d 17 8f b7 4b ff 5b 3d 04 97 3c b8
       0.02702154 -1.705772e-05 0.053710263 -4.4963337e-05
0000a0 8f 48 24 b4 ca ff 87 3a 70 fe e2 b5 1a 54 6b bc
       -1.5300087e-07 0.0010375914 -1.6912363e-06 -0.014363313
0000b0 ff 8f af 3c 0e 93 4d bc 3c 94 a9 a5 8d db 15 3e
       0.021430967 -0.012547268 -2.9417274e-16 0.14634533
0000c0 a1 c6 3c 3d b8 af 9e bc 97 58 27 a8 b7 d8 53 b5
       0.046087865 -0.019370899 -9.289572e-15 -7.8918987e-07
0000d0 4e 9a 91 ad 51 43 50 b9 ac 8c ee b0 d1 c7 47 b4
       -1.6553117e-11 -0.00019861503 -1.735676e-09 -1.8606012e-07
0000e0 33 76 2e 3b d5 94 3e b0 00 7f 05 3d 4f 6c 81 a6
       0.0026620745 -6.93331e-10 0.03259182 -8.98053e-16
0000f0 61 d7 86 bc a1 eb ae a5 35 fb 29 a1 35 42 fc 3c
       -0.016460123 -3.0343857e-16 -5.7591897e-19 0.030793289
000100 88 2e 65 b4 56 00 72 9f fe 98 93 ac 3e fc 18 3c
       -2.1344215e-07 -5.124577e-20 -4.194977e-12 0.009337483
000110 01 10 e9 bb 39 61 e1 ab 32 ae 13 b2 7b 2a d3 9e
       -0.0071125035 -1.6014196e-12 -8.596134e-09 -2.2358063e-20
000120 2f 19 1c 3c 89 af f5 a6 dc 72 c6 3c c8 40 1a 3d
       0.009527489 -1.7047869e-15 0.024224691 0.037659436
000130 75 4e be 3d 04 1a 26 ad 5b 50 83 3c 1f 8c 2b b2
       0.09292308 -9.441784e-12 0.016029527 -9.98537e-09
000140 c3 79 33 b8 c9 07 ca 3c 09 24 bc 3c 3e 57 c5 b0
       -4.2790325e-05 0.024661915 0.022966402 -1.4358432e-09
000150 29 8c 04 3d 35 38 78 bc 68 90 c7 b2 29 87 8c ad
       0.03236023 -0.01515012 -2.3232317e-08 -1.597618e-11
000160 2e 7a dd b3 a0 2e 3a 3d 6d 45 0f 3d 3a b6 31 af
       -1.0313339e-07 0.04545462 0.03497832 -1.6162796e-10
000170 1c cc 01 b2 b2 34 9d 3c 30 ef ba b7 fd 31 f4 aa
       -7.555197e-09 0.019190166 -2.2284308e-05 -4.3377793e-13
000180 70 81 b8 ac f4 fb 88 b8 cf 57 98 b6 7a 6b 4c 3c
       -5.243965e-12 -6.531915e-05 -4.5401753e-06 0.012476796
000190 c0 34 fe b3 27 ce 9f 3d fa 83 2c b3 09 e9 42 ba
       -1.1837392e-07 0.07802992 -4.0166903e-08 -0.00074352376
0001a0 c0 10 32 3d b7 2f f6 3c 91 a9 68 3d 6a 78 cb ae
       0.043473005 0.03005205 0.056802336 -9.252761e-11
0001b0 a7 e4 60 3e cf a3 c1 bb ed 2c 1c b1 6a fc fa 98
       0.21962224 -0.00590942 -2.2726525e-09 -6.487836e-24
0001c0 dd 4b 33 bb 2a a8 e5 3b cc d6 47 ae 12 f9 87 b7
       -0.002735845 0.007008572 -4.543814e-11 -1.6209236e-05
0001d0 e6 5f 66 ab c5 65 eb 3c b4 5a cb b5 d3 e9 b6 bc
       -8.18455e-13 0.028735051 -1.5151077e-06 -0.022328293
0001e0 c4 3d de 3c 90 f8 ac b9 cf 9a 77 a5 5a 2b f2 3a
       0.027129062 -0.0003299159 -2.1476286e-16 0.0018476055
0001f0 41 b1 c0 a4 a7 4e 08 9f 95 a8 da 3c 7a c6 ca b7
       -8.3567007e-17 -2.886418e-20 0.026691714 -2.41727e-05
000200 17 8f ba b4 20 17 0c b5 77 30 3e b6 91 38 91 a9
       -3.474931e-07 -5.2187715e-07 -2.8340417e-06 -6.449106e-14
000210 9f b9 73 b8 72 83 a7 ac 68 3e 76 3c 0b d0 72 af
       -5.8108588e-05 -4.761019e-12 0.015029527 -2.2083683e-10
000220 f8 ee 5d a6 1f 62 81 a5 3d 23 ac 3c 4d f6 21 ae
       -7.699864e-16 -2.2444422e-16 0.021012897 -3.682592e-11
000230 86 84 50 3c e4 0c 26 bc 01 29 5e 3c 9b fc 59 a4
       0.012726909 -0.010134909 0.013559581 -4.726834e-17
000240 a8 50 89 3d 28 8e 39 3d 4d 02 06 3c 0b d7 a5 3c
       0.06704837 0.045301586 0.0081792595 0.020244142
000250 4e 1b 1b b5 75 c2 b5 af 1f da c4 3b 2b 9b 32 b6
       -5.7781733e-07 -3.3061878e-10 0.0060074474 -2.6614387e-06
000260 6d bf 6e 3c a2 b0 3e 3c 9c 0d b4 a8 61 8e 27 b7
       0.014572007 0.011638792 -1.9989917e-14 -9.987126e-06
000270 7f 13 ad bc 47 8b 24 3d 3b 1a 43 3c fa ad 3e ac
       -0.02112746 0.040171888 0.011908109 -2.70972e-12
000280 74 3a ab b6 9c 6f a3 3c 3c 12 0f b2 27 d5 a0 3c
       -5.103002e-06 0.01995068 -8.3278415e-09 0.019632889
000290 65 14 13 3d e7 e7 47 b1 30 ca 38 bc 24 0f e9 3c
       0.03590812 -2.9090133e-09 -0.011278674 0.028449602
0002a0 fb 87 0f a6 0e 1d 28 a2 99 57 1b a8 31 bb 23 b6
       -4.979738e-16 -2.2783627e-18 -8.623223e-15 -2.4397852e-06
0002b0 f5 82 92 a4 f4 b0 71 3c e0 c3 29 b8 a8 dd a7 3b
       -6.353926e-17 0.014751662 -4.0475163e-05 0.005122859
0002c0 1e 17 db a7 c5 e7 0e a6 06 fc bb b3 cc 56 60 b9
       -6.0809774e-15 -4.9580253e-16 -8.753709e-08 -0.00021394639
0002d0 67 4c 96 b3 04 7f 35 a8 e8 e6 03 bb 81 4e 6f b1
       -6.998817e-08 -1.00750605e-14 -0.0020126645 -3.4823702e-09
0002e0 89 20 1e a6 65 20 c6 3d 47 9f 4d a6 6c a9 2e 3d
       -5.4861355e-16 0.096741475 -7.1339524e-16 0.042642042
0002f0 1d 0e 6b b0 2b fc 98 b2 f3 2d c6 b7 88 8b 84 3d
       -8.551256e-10 -1.7809802e-08 -2.3624836e-05 0.06471926
000300 04 dc df bb 99 50 80 9e af 52 2e aa 1b b7 30 b1
       -0.006831648 -1.3585862e-20 -1.5482991e-13 -2.5715454e-09
000310 4f 7b 9a b5 13 5d 08 3d 43 0b 58 aa a1 c9 95 3c
       -1.1509782e-06 0.033291887 -1.9188561e-13 0.01828462
000320 4b 07 d0 3c f9 79 5e b8 84 6c 42 af 98 e4 64 b9
       0.025394103 -5.304252e-05 -1.768275e-10 -0.00021828932
000330 0d 8f 17 ad e6 f3 75 a2 7d 03 b6 b4 8e ff cc b9
       -8.61512e-12 -3.333281e-18 -3.390268e-07 -0.00039100315
000340 91 99 40 3d 6f 0f 4c bc c2 db dd bb ee 16 8e b4
       0.047021452 -0.0124548515 -0.006770582 -2.6466245e-07
000350 97 1c da b8 51 bd 44 bc fe 1e 57 3c bf 66 11 3d
       -0.00010400375 -0.012008027 0.013129948 0.035498377
000360 f9 b6 5e ad 87 40 5d a5 ae 2d f2 3d 24 23 24 ad
       -1.2659867e-11 -1.9190557e-16 0.11825119 -9.3301235e-12
000370 73 2a b7 b5 76 fb e6 3b a5 19 9e b8 1e 85 c2 ad
       -1.3646917e-06 0.0070490194 -7.538804e-05 -2.2114362e-11
000380 53 7d c3 aa 6d 7e 9f 3d 28 68 8e 3c 08 eb 7d b3
       -3.472592e-13 0.07787786 0.01738365 -5.9119913e-08
000390 de 2d bb 3c 91 ca aa 3d d6 3b 69 ae 3b 4e 90 3d
       0.02284902 0.08339418 -5.303121e-11 0.07046171
0003a0 27 8c 2c 9e b5 b9 02 a4 a0 d3 d9 3c 6a 63 10 b0
       -9.134587e-21 -2.8346556e-17 0.026590168 -5.252817e-10
0003b0 4b 2d 24 bc 10 0a 0f b5 09 1c 04 b7 e4 03 e6 b4
       -0.010020564 -5.3286294e-07 -7.874341e-06 -4.284367e-07
0003c0 7d fd a3 ab 0e 01 0a b3 07 e5 b8 b8 44 68 11 3c
       -1.1652204e-12 -3.2131588e-08 -8.8164634e-05 0.0088749565
0003d0 1e b8 3b 3c f2 fe 0c b9 df 0e 17 3d 76 6b 6a 3b
       0.011457471 -0.00013446415 0.036879417 0.0035769618
0003e0 b5 c0 5d b8 2b 9c f0 3b 94 34 57 3d bc 76 2c 39
       -5.286998e-05 0.0073428354 0.052540377 0.0001644743
0003f0 5f 67 6f 3c b3 2e bf b1 bd ba 2c 3d 7d 04 f4 b4
       0.014612048 -5.5641407e-09 0.042170275 -4.5451807e-07

action_layers.1.weight f4 [128, 256]
000000 5c 0a 82 3c 68 83 bb a9 bc 79 36 3c 92 0d 2a 3c
       0.01587408 -8.3272636e-14 0.011137422 0.010379212
000010 8e c0 73 3d 49 6e df 23 97 e5 81 b4 83 73 1e 3b
       0.059509806 2.4224416e-17 -2.419517e-07 0.0024177737
000020 bc d8 e9 a8 81 6a 61 2f c7 ac 87 b7 40 a6 28 3d
       -2.596219e-14 2.0501469e-10 -1.617371e-05 0.041174173
000030 1b 06 ff b6 d0 99 25 a3 56 90 77 3c e8 ae 74 3c
       -7.600303e-06 -8.977239e-18 0.015110096 0.014934279
000040 ae 7a b1 a0 3b 63 1e 9f 23 a5 4d 3c 8d 10 a3 b9
       -3.006615e-19 -3.3539883e-20 0.012551579 -0.00031102114
000050 fa 97 23 2e bb 1c 20 9a f5 06 59 af 62 3e d1 3b
       3.719689e-11 -3.3110433e-23 -1.9738507e-10 0.0063856104
000060 2d 60 1c 3c 51 7f dd 34 3a 15 58 bc ee 39 03 af
       0.0095444145 4.1257093e-07 -0.013188655 -1.1934961e-10
000070 5c b9 c2 3b 34 a7 ba 3c da 1b a2 35 8b f5 32 b5
       0.0059425067 0.022784807 1.2078046e-06 -6.666748e-07
000080 f2 d9 c5 34 d7 54 92 9a 7b b6 b0 3c 8f 4b 0f 3c
       3.6852686e-07 -6.052125e-23 0.021571388 0.008746042
000090 dd 6e 44 3c 09 5d b2 35 b0 76 af 3c ef c3 96 b5
       0.0119893225 1.328911e-06 0.0214189 -1.1232895e-06
0000a0 11 68 2c 32 64 a2 b7 3b 66 d5 68 b0 2e cb a8 bc
       1.003538e-08 0.0056040753 -8.4704366e-10 -0.020604696
0000b0 d8 33 13 3c a2 55 b9 bc c8 af 4e 23 dd 51 11 3d
       0.0089845285 -0.02262384 1.12045055e-17 0.03547846
0000c0 36 21 c8 3c d2 76 a4 bc 4a 7d 81 a3 7f 66 55 33
       0.024429899 -0.02007619 -1.403927e-17 4.9686147e-08
0000d0 9d e2 4d ab ac 7f d6 b3 6d 17 8d 2b 2c 56 8a 31
       -7.314512e-13 -9.988375e-08 1.0025155e-12 4.026125e-09
0000e0 94 72 72 bc 8f d8 c9 2e 1c 15 14 3c 69 47 c5 22
       -0.014797825 9.17889e-11 0.009038236 5.3472565e-18
0000f0 a0 87 ac bc bd b6 ad 9f 8d d1 f4 9b 62 1f 0e 3c
       -0.021060765 -7.3570665e-20 -4.0501833e-22 0.008674474
000100 2d 2f 94 32 b8 6d c9 1c 3a 8b 92 2a c2 06 f3 3b
       1.725092e-08 1.3329426e-21 2.6031418e-13 0.007416577
000110 63 24 83 bc da be dc aa 65 de 24 ad 69 9e bc 99
       -0.016008561 -3.921228e-13 -9.371702e-12 -1.9502726e-23
000120 d3 38 2c 3b 0e ea be a1 df a4 2f 3c b2 6c 77 3c
       0.0026278987 -1.2936855e-18 0.010720461 0.015101599
000130 2d c3 67 3d 9f 55 3c 2d fb 7b d5 3b b5 7f 97 b0
       0.05658262 1.07055744e-11 0.0065150238 -1.1022993e-09
000140 9a 6f 34 b3 b3 3d 57 3c 31 0c 24 3c 04 94 49 ac
       -4.2011017e-08 0.013137269 0.010012672 -2.8645983e-12
000150 36 02 59 3c 8c 39 2c bc 03 8f 90 ad 20 5d ef 2b
       0.013245156 -0.010511767 -1.6434415e-11 1.7007819e-12
000160 88 7b 19 34 51 fd 68 3c 08 ba 46 3c 88 98 68 2d
       1.4294176e-07 0.014220552 0.012129314 1.3221542e-11
000170 f3 73 76 ad b0 37 11 3c 3a b1 47 34 0b 51 df a5
       -1.4009227e-11 0.008863375 1.8597794e-07 -3.873925e-16
000180 dc 38 a5 2b 75 dc 10 b3 bf 31 89 b1 1c f6 ac 3b
       1.1739737e-12 -3.3728117e-08 -3.9928802e-09 0.005278362
000190 72 7f c5 b2 0a 91 b1 3c 0e dd 12 32 6b 58 c6 b8
       -2.2991774e-08 0.021675605 8.5485805e-09 -9.457845e-05
0001a0 b6 da 85 3c 4a 34 51 3c dc c8 51 3d 6d 45 65 aa
       0.016339641 0.012768814 0.051216945 -2.0363373e-13
0001b0 12 8e 50 3d d5 e3 42 bc a2 37 3c af 14 5d 63 93
       0.05091674 -0.01189514 -1.7118265e-10 -2.869732e-27
0001c0 6d 92 c4 3b 49 61 06 3c 55 ae 69 ad 16 9c 4a 35
       0.0059989006 0.0082019055 -1.3283226e-11 7.5478e-07
0001d0 bc af f0 a6 53 ac 61 3c 7d 4e 89 b2 22 d9 b8 bc
       -1.6700978e-15 0.013773995 -1.5984591e-08 -0.022564474
0001e0 2f c0 3d 3c b8 21 b6 37 07 4f 7f 23 e6 62 2c 3c
       0.011581465 2.1711792e-05 1.3840312e-17 0.010521626
0001f0 7c 5c 44 22 41 4a 4d 9a 7f 9c 4e 3c 85 f4 86 b4
       2.6611914e-18 -4.2452988e-23 0.012610554 -2.5137356e-07
000200 97 c4 0f b3 29 e6 eb af 6d f1 39 33 99 d1 86 a6
       -3.347358e-08 -4.290979e-10 4.3293245e-08 -9.354929e-16
000210 f9 9c 4c b2 9c f4 f1 a9 5e 84 11 3c 83 68 91 2c
       -1.1910054e-08 -1.0744983e-13 0.008881656 4.132751e-12
000220 d5 75 c4 23 6e e9 54 a0 fc b2 ed 3b 5d 27 c0 ab
       2.1300266e-17 -1.8034334e-19 0.0072540026 -1.3653346e-12
000230 30 59 d3 bc b1 e3 5f bc 35 6e 10 3c a4 82 1e 9f
       -0.025799364 -0.013665126 0.008815338 -3.3565865e-20
000240 7d 53 e9 3c ba 4a dc 3c 3e 4c 12 3b eb e2 fc 3b
       0.028482193 0.026891101 0.0022323276 0.0077174804
000250 72 e6 e3 af be 04 4a ac 01 06 a4 3b 6f bd 7c 34
       -4.14548e-10 -2.870856e-12 0.0050055985 2.3538244e-07
000260 46 ee 0a 3c b0 ea bd 3b dc d0 e2 a2 e0 e2 dd 34
       0.00847966 0.005795799 -6.147856e-18 4.132953e-07
000270 41 9a ba bc 43 ad 4e 3c 35 2e 2b 3b 81 40 13 a7
       -0.022778632 0.012614551 0.002612007 -2.0435316e-15
000280 fc 5e 26 b4 58 83 3c 3c ac cc 71 30 37 ef 19 3c
       -1.549451e-07 0.011505924 8.7966145e-10 0.009395412
000290 b3 85 34 3c 2c 46 18 ac 12 9d 28 bc b4 d8 3f 3c
       0.0110182045 -2.1639452e-12 -0.010291355 0.011709381
0002a0 b1 6e 8f a2 5f 12 44 1f b0 fa 52 a3 49 92 23 b2
       -3.8877427e-18 4.151981e-20 -1.1437208e-17 -9.52111e-09
0002b0 f6 7b fd 9e f7 80 dc 3b f9 9a b2 34 4b 2a 72 3c
       -2.6838686e-20 0.006729241 3.326784e-07 0.014780591
0002c0 1f 4d ae a2 9e e1 fd a1 46 26 bd 31 24 8c 31 b4
       -4.724445e-18 -1.7203667e-18 5.504975e-09 -1.6535392e-07
0002d0 02 bd 59 b1 fd f7 0f a3 a6 09 86 3c 32 9f f4 ac
       -3.1685095e-09 -7.804559e-18 0.016362023 -6.9525713e-12
0002e0 0d 62 7a 22 aa f3 cc 3c 9a 31 29 a1 0d 95 62 3c
       3.3933226e-18 0.025018532 -5.7325074e-19 0.013829482
0002f0 97 97 bb 2e 62 d1 6e ad b8 78 db 35 cc 6b 9c 3c
       8.530703e-11 -1.3575226e-11 1.6351905e-06 0.01909437
000300 00 bf 41 bc 99 1d 58 99 ff d0 1a a5 48 ec 0e ae
       -0.011825323 -1.11729155e-23 -1.3428181e-16 -3.2496922e-11
000310 0c ea 83 b5 3d ff 30 3c 59 43 a3 a4 16 78 42 3c
       -9.828377e-07 0.010803041 -7.080407e-17 0.011869451
000320 d1 22 37 3c ac 41 68 b3 a2 f3 25 ad e2 1c 6d 37
       0.0111777345 -5.4076438e-08 -9.4332615e-12 1.4133026e-05
000330 36 18 48 aa fd 2d 6c a0 af 34 53 b2 91 83 21 38
       -1.7771968e-13 -2.0005194e-19 -1.2293795e-08 3.8507922e-05
000340 3d b2 86 3c a2 21 52 bc a3 50 92 bc 31 02 1e 34
       0.016442413 -0.0128254015 -0.017860716 1.4715694e-07
000350 f6 33 d1 b3 46 85 d0 bb 06 2c 23 3c 49 bf 73 3c
       -9.7417725e-08 -0.0063635437 0.0099592265 0.014877149
000360 ae 72 cb 2b 6d bf 40 a4 bf 66 e9 3c 17 01 d8 a9
       1.4455848e-12 -4.1795507e-17 0.028491376 -9.592516e-14
000370 3b 17 e5 b3 6f 39 11 3c 79 da 62 b6 61 da 6a aa
       -1.0667869e-07 0.008863791 -3.3803792e-06 -2.085914e-13
000380 25 38 3f a8 c9 8f 96 3c 89 42 5c 3c 61 02 84 b2
       -1.0614804e-14 0.018379109 0.013443598 -1.5367904e-08
000390 a1 89 06 3c 99 8d 15 3d 33 d1 0d ab 77 2f 81 3c
       0.008211524 0.03651199 -5.0383585e-13 0.015769703
0003a0 4a 4b ef 9c 7e ca 81 21 56 5e cb 3b 9a 99 64 2d
       -1.5835155e-21 8.794979e-19 0.006206314 1.2994406e-11
0003b0 a7 11 43 bc 6f 5a a3 33 65 8a d6 b1 8f 62 ea 32
       -0.011906064 7.606729e-08 -6.2439534e-09 2.7286005e-08
0003c0 73 9b 80 a7 4f 5e d1 af d1 a2 2e b3 68 26 f5 3b
       -3.5695675e-15 -3.808389e-10 -4.0660613e-08 0.007481385
0003d0 c7 c4 0b 3c cf f4 19 3c f7 61 39 3c 1d e3 d8 3a
       0.008530802 0.009396746 0.011314861 0.0016547177
0003e0 8f 43 13 36 e6 4f b1 3b c2 c3 ca 3c 3d a6 92 34
       2.1944031e-06 0.005411136 0.024751548 2.7315573e-07
0003f0 2a 06 87 3b ef 10 8e 2c 0e 82 7a 3c 66 36 55 33
       0.004120608 4.0377627e-12 0.0152897965 4.9642402e-08

action_layers.1.bias f4 [128]
000000 20 fa b1 3d e1 8c ad 3d 34 e7 35 b3 1e e0 1a ac
       0.08690286 0.08474136 -4.2352625e-08 -2.2009126e-12
000010 36 71 b1 3d ab 35 cd b0 f1 99 8a b4 fd 4c b4 a1
       0.086641714 -1.4930966e-09 -2.581651e-07 -1.2217653e-18
000020 3e 72 c7 3d b3 bb 1b 3e c1 de 35 a1 6e 48 cd 3d
       0.09738587 0.1520832 -6.162e-19 0.100235805
000030 39 35 4c b8 1b 90 8f a4 df 6c cd 3d 0a 56 f7 af
       -4.8686958e-05 -6.226049e-17 0.10030531 -4.4990173e-10
000040 b7 df 4e 20 09 8a 99 3d e4 ec ff ad ec 1e 2b 3e
       1.75229e-19 0.07497031 -2.9095344e-11 0.16711015
000050 ab ee 9c 3d 3f 06 3b b0 53 4e 97 3d 77 82 ef 3d
       0.0766271 -6.803908e-10 0.07387986 0.11694806
000060 87 cc 89 b0 f9 e8 5d 9e 3b 85 8a ae 73 31 8f 3d
       -1.0026192e-09 -1.174782e-20 -6.29918e-11 0.069918536
000070 74 55 24 3e db 2e f5 ad 7e d9 32 b8 fc 13 e0 3d
       0.16048223 -2.7874083e-11 -4.2641062e-05 0.10941312
000080 34 31 be 3d 9c 75 b6 3d d1 2b e6 3d 74 c7 63 ac
       0.092867285 0.08909151 0.11238826 -3.236936e-12
000090 1d 5a 7c b4 73 f2 c5 9e ac 51 a3 ac cc 3e 3a 3e
       -2.3502112e-07 -2.0958461e-20 -4.641806e-12 0.18188018
0000a0 fc 06 0f b9 b4 72 94 b5 51 19 f8 3d 2c 71 8f 3d
       -0.00013640145 -1.1060242e-06 0.12114204 0.07004008
0000b0 d2 86 b7 ae 4e d0 00 3e df 06 85 3d 3f a7 ee b0
       -8.3458254e-11 0.12579462 0.06495451 -1.7364313e-09
0000c0 f2 01 84 3d 34 17 93 3d 01 d3 cb 3d cd 48 56 b3
       0.064456835 0.0718216 0.09952355 -4.989197e-08
0000d0 21 24 2b 3e 14 f8 ed 3d 23 66 7b ab b7 0b b5 b6
       0.16713001 0.11619583 -8.9314857e-13 -5.395584e-06
0000e0 d1 55 c8 b1 5f d2 54 b4 85 66 d6 3d 67 6c a6 3d
       -5.8305223e-09 -1.9820571e-07 0.10468773 0.08126145
0000f0 50 5c d5 3d 39 27 84 b6 59 d7 0c ac a5 97 b7 aa
       0.10417998 -3.9384727e-06 -2.0014739e-12 -3.2612555e-13
000100 60 51 dd 3d f2 bc a4 ae ab 1f be b3 f2 2a 9f ac
       0.10806537 -7.49142e-11 -8.853325e-08 -4.5238197e-12
000110 fe 6a 1b af 73 57 d4 b0 f9 d4 a1 ac 98 90 76 b3
       -1.4135179e-10 -1.5449885e-09 -4.59954e-12 -5.7407846e-08
000120 d6 fa c3 b2 d5 f0 86 3d 61 39 45 b2 07 d6 ac 3d
       -2.2815055e-08 0.06588904 -1.1479956e-08 0.0843926
000130 a9 cc d1 3d 75 b0 e1 b7 0d ca c3 3d ac 2b 46 ab
       0.10244114 -2.690426e-05 0.095600225 -7.040434e-13
000140 06 71 aa 3d f3 b1 ca 3d 67 58 8b 3d 6d 8f ae 3d
       0.08322339 0.09897222 0.06803971 0.0852345
000150 6f 2f bd b8 e8 b8 85 b3 09 ab ab 3d a7 87 82 3d
       -9.0210575e-05 -6.2269294e-08 0.08382232 0.0637353
000160 76 dc 6b 3d 76 6e e1 3d a0 0a af b2 15 99 85 3d
       0.057583295 0.11007397 -2.0377513e-08 0.06523339
000170 e4 16 16 ac 53 ca ae ae 6a 4d 8a b1 fe 0b 02 3e
       -2.132899e-12 -7.948544e-11 -4.0251296e-09 0.12699887
000180 47 5c 65 9d 15 54 92 3d 34 c8 4a b9 6f 12 bb 3d
       -3.0355604e-21 0.071449436 -0.00019338803 0.09134375
000190 0a 93 b5 3d e2 6f a7 3d 7a 58 94 b1 bb 4e d5 3d
       0.08865936 0.08175637 -4.3174255e-09 0.10415407
0001a0 7d f5 de a0 27 f2 63 a5 6f e2 b9 3d be a8 60 b6
       -3.7770713e-19 -1.9771156e-16 0.09076392 -3.3476822e-06
0001b0 26 ed bc b3 7f 9a 01 3e 4e 49 10 3e 87 0c a4 3d
       -8.797569e-08 0.12656592 0.14090464 0.08010202
0001c0 cf fa 0b a9 d3 b2 91 3d cd 63 a0 3d 91 53 d1 3d
       -3.1081742e-14 0.07114186 0.078315355 0.10221017
0001d0 b6 1f 98 3d 8f c3 ec af 89 4c 5d a5 94 d9 b2 9a
       0.074279234 -4.3067103e-10 -1.9194626e-16 -7.397059e-23
0001e0 4f 66 04 3e 62 46 a1 3d 5a d5 a6 a4 0b cb 2b ab
       0.12929653 0.078747526 -7.2352456e-17 -6.103318e-13
0001f0 50 33 96 b5 62 94 ec ad e1 5a a7 3d ce a9 99 b6
       -1.1190805e-06 -2.6895989e-11 0.08171631 -4.579523e-06

fc.weight f4 [1, 128]
000000 eb 51 63 3e 3c fb 5d 3e fe 6b 64 32 33 6e 27 2b
       0.22199218 0.2167787 1.3295901e-08 5.948325e-13
000010 44 98 62 3e 64 ea f4 ae 26 05 18 34 fc 08 ce 9f
       0.22128397 -1.11374715e-10 1.4157976e-07 -8.725926e-20
000020 61 96 7c 3e 1f c3 c2 3e b2 28 4d 21 f8 bf 81 3e
       0.2466674 0.3803949 6.951056e-19 0.25341773
000030 eb 99 47 b8 69 ab 7b a4 f8 f5 81 3e 8e 34 5c 2d
       -4.7588645e-05 -5.457214e-17 0.25382972 1.2517222e-11
000040 9a 4d e8 a0 c0 47 46 3e 69 9f 08 ad 94 b7 d7 3e
       -3.935368e-19 0.19363308 -7.766101e-12 0.42132246
000050 b7 54 4a 3e 3c e9 31 ae c5 a0 43 3e 1e e8 96 3e
       0.19758879 -4.0452294e-11 0.19104297 0.29473966
000060 79 58 21 b1 f5 bc e8 1e 31 8c b0 2e 94 f5 39 3e
       -2.3478874e-09 2.4642106e-20 8.0284564e-11 0.18160087
000070 70 a3 ce 3e 9e 26 5f ad a5 4a 52 37 81 3d 8d 3e
       0.40359068 -1.2684657e-11 1.2534355e-05 0.27585986
000080 c1 f4 71 3e 3a a8 68 3e e9 6c 90 3e 58 e2 56 2b
       0.23628522 0.22720423 0.28208092 7.634219e-13
000090 6f c3 81 33 c2 64 72 1d 21 ab 99 ac 27 a2 ec 3e
       6.04258e-08 3.2080524e-21 -4.3675207e-12 0.46217462
0000a0 67 51 21 b7 c7 f6 f0 b4 1e c2 9b 3e 8c 44 3a 3e
       -9.615301e-06 -4.4883038e-07 0.30421537 0.18190211
0000b0 20 72 28 ac 81 23 a1 3e 4c cf 2d 3e 19 ac 53 b0
       -2.3937588e-12 0.314724 0.16973609 -7.700592e-10
0000c0 21 96 2c 3e 75 9a 3e 3e b0 23 81 3e 57 14 ef b3
       0.16854145 0.18613608 0.2522254 -1.11330046e-07
0000d0 89 ee d7 3e 21 f5 94 3e d1 cd 74 ab 3f 2d 08 b6
       0.42174175 0.2909327 -8.697184e-13 -2.0291916e-06
0000e0 9d 9b 4e b2 cc 07 4b 33 6e 1e 87 3e 6d 94 55 3e
       -1.20261605e-08 4.7271712e-08 0.26390404 0.20857401
0000f0 b4 cf 86 3e b3 c0 38 36 e6 1a e9 2b bf ce e5 aa
       0.2633034 2.7530302e-06 1.6563112e-12 -4.082203e-13
000100 d7 76 8b 3e ca bf b4 ad 88 5b 0f 34 00 ab 91 2c
       0.27239105 -2.0548802e-11 1.3351212e-07 4.1401327e-12
000110 68 39 04 30 29 c7 86 30 7a aa 7b ac 6d 34 32 b2
       4.81029e-10 9.806388e-10 -3.5763879e-12 -1.0372884e-08
000120 80 b3 d2 31 6a 1a 30 3e 14 e0 7d 31 e5 28 5d 3e
       6.132211e-09 0.17197576 3.694372e-09 0.21597631
000130 57 8a 84 3e 2e b7 e7 b6 e1 36 78 3e c0 51 0b aa
       0.25886795 -6.9056614e-06 0.24239685 -1.2374043e-13
000140 c1 57 5a 3e 99 30 80 3e dc 5d 35 3e e0 2a 5f 3e
       0.21322538 0.25037077 0.17711586 0.217937
000150 4a 75 29 b7 f8 95 79 33 bc d9 5b 3e 59 d0 2a 3e
       -1.01004935e-05 5.8111226e-08 0.21469778 0.16681041
000160 38 a2 1b 3e 03 83 8d 3e a2 e2 d9 32 26 7e 2e 3e
       0.151986 0.27639017 2.5365186e-08 0.1704031
000170 a2 b8 5d 2b 72 6e 42 2f d6 71 8d b1 25 53 a2 3e
       7.87712e-13 1.7683435e-10 -4.1165817e-09 0.3170406
000180 67 ad 80 1d ba b3 3d 3e 8d 3d 31 b8 73 0d 6e 3e
       3.406061e-21 0.18525591 -4.2257412e-05 0.23247318
000190 eb 87 67 3e d2 c1 56 3e a5 51 14 b1 4a a7 86 3e
       0.22610442 0.20972374 -2.1583244e-09 0.26299506
0001a0 29 48 08 a0 1a 1a a1 25 f6 a4 6c 3e 4e 36 4c 36
       -1.1543524e-19 2.7946735e-16 0.23109803 3.0429978e-06
0001b0 f9 b5 ae 33 5d 2c a2 3e 6a af b3 3e 02 c3 52 3e
       8.135607e-08 0.31674471 0.35094768 0.20582202
0001c0 12 1e cc 28 6d f2 3c 3e 5a 69 4e 3e 6e 34 84 3e
       2.266159e-14 0.18451853 0.20157376 0.2582125
0001d0 d7 97 44 3e 28 88 8b 2f f1 95 28 25 06 b9 c7 9b
       0.19198547 2.5380698e-10 1.4622479e-16 -3.3041357e-22
0001e0 33 15 a6 3e 99 75 4f 3e 7a 88 f4 a4 c7 c0 22 ab
       0.3243805 0.20259704 -1.0604933e-16 -5.7821494e-13
0001f0 de 2c d7 b4 bf 34 a4 ad 97 a4 56 3e 36 1d 6f 35
       -4.0079516e-07 -1.8668065e-11 0.20961224 8.9076946e-07
