project2-continous_control/checkpoint/critic_local.pth (torch_old, 435694 bytes, 7 tensors)

state_layers.0.weight f4 [256, 33]
-0.007512235 0.007169106 -0.022768464 -0.0023126525 -0.0008708096 -0.0010311761 -0.003072056 -0.0044058347
-0.0003689499 -0.0017105307 -0.0020995445 -0.012103245 0.006909154 0.0018944279 -0.009356699 0.024584308
0.0022438022 0.0008228231 0.0070247264 0.00048339923 -0.0040080287 0.015606773 0.018465579 0.02630059
-0.01509809 0.01033135 0.0023820698 0.005139326 -0.011506894 -5.9889e-41 -0.005139326 1.7456e-41
0.0062445328 0.017867 0.028735759 -0.012335787 -0.007880968 0.006436627 0.0087029515 -0.008167568
-0.0019124277 -0.009017899 -0.0007503316 0.01355967 0.0018358757 0.012704554 -0.022698263 0.0040052463
-0.050050348 -0.00040502983 -0.003177972 0.0052206945 0.017028442 -0.012908652 0.0074297804 -0.05363889
-0.021730695 -0.008407436 -0.033603977 -0.027968712 -0.016687447 0.066811435 2.6719e-41 0.016687447
-1.5716e-41 0.061901744 0.057923026 -0.0047444864 -0.010787451 -0.00072899886 0.0041988585 0.015408936
-0.01237251 -0.010294905 0.009525281 -0.0010008416 0.005824098 0.009489422 0.008790258 -0.024809353
-0.008067496 0.0055558872 0.01198398 -0.0068079806 0.017159898 0.015422927 0.0043255026 -0.0027963794
-0.0029031625 -0.00421419 -0.0019804777 0.0027324338 0.012986884 -0.027421111 0.003758891 -1.541e-41
0.027421111 4.4242e-41 0.18998589 -0.013458097 0.020448402 -0.009642726 -0.014210124 -0.0035559093
-0.003726194 -0.002060634 -0.00641475 0.00029544294 -0.00053466513 0.0020434393 -0.007339779 0.0008838025
0.010665558 -0.013006523 0.01733544 0.007517347 0.015546685 0.0021913028 -0.0048705353 0.00042924384
-0.00030046614 -0.0024052125 0.009106647 0.044436887 0.0082287295 -0.007524279 0.023077376 0.0029452066
-7.022e-42 -0.023077376 3.008e-41 0.005122322 -0.00039926302 0.003449092 0.0006588656 -0.0012719602
-0.00018116561 -2.9028566e-05 0.00013641543 0.0002617168 -8.78004e-06 0.00026602444 -7.750478e-05 0.000696889
-4.5521455e-07 -0.00014422293 0.0041338163 0.00018720629 5.517183e-05 -7.131796e-05 -9.947447e-05 -0.00028004617
-0.00071318046 -0.00025447836 0.0008911738 -0.00037344216 0.0007334541 -0.0021204948 0.0001303501 0.0015100909
0.0007772411 5.9276e-41 -0.0015100909 -1.0493e-41 3.465114e-05 -0.0012318271 0.0015957821 0.0010025257
-0.00036802856 -0.00019476142 -0.00013936557 0.00028709962 -0.00049103954 0.00010958362 0.0006025526 -0.00063633703
0.00031391912 -0.0008913051 -0.00046375167 0.0016011798 0.00047687953 0.00016818635 -0.00015736074 -0.00056791055
-0.0003468998 0.00067996 -0.00071793963 0.00035374876 -8.7840635e-05 -0.0018450678 -0.0009907101 0.001417695
0.0007196904 -9.01132e-05 -5.202e-41 -0.0007196904 -1.1956e-41 8.9464724e-05 -0.0021123528 0.06256559
0.06766002 -0.019040858 0.0037721333 -9.1650574e-05 0.010775556 0.020116726 -0.016760223 0.0014910988
0.0064526983 -0.013991948 0.0068871863 -0.06501017 -0.040059123 -0.04173797 -0.009531625 -0.00781512
-0.012676064 -0.010066944 0.0059891003 0.0017019486 -0.003243185 -0.01115594 -0.0021359655 -0.014420482
0.06295362 0.020454075 -0.0022198036 4.9251e-41 -0.020454075 -5.9519e-41 0.1031368 -0.015844876
0.010875808 -0.013516521 -0.007630488 -0.004003292 -0.0015938152 -0.0010794171 0.0019531233 -0.0005988446
-0.00126919 -0.004896792 0.012406723 -0.009922097 0.005969921 0.006047622 0.0077169486 0.0014071501
-0.002795999 0.0030908152 0.00531135 0.002968963 -0.0147375455 0.0015343542 0.0076354 -0.013153892
00000000: 3229 f6bb d2ea ea3b ee84 babc df8f 17bb
00000010: 0b47 64ba 8728 87ba 8c54 49bb d25e 90bb
00000020: 9e6f c1b9 e333 e0ba 8398 09bb b04c 46bc
00000030: 2f66 e23b 744e f83a d74c 19bc 0865 c93c
00000040: c10c 133b b9b2 573a ad2f e63b bf70 fd39
00000050: c855 83bb 8db3 7f3c 2045 973c 5674 d73c
00000060: fb5d 77bc d344 293c 801c 1c3b cb67 a83b
00000070: 6987 3cbc f2a6 0080 cb67 a8bb a930 0000
00000080: f09e cc3b d15d 923c 4167 eb3c 0a1c 4abc
00000090: 2d1f 01bc 57ea d23b d396 0e3c 43d1 05bc
000000a0: 6daa faba cfbf 13bc e7b1 44ba 6129 5e3c
000000b0: c4a1 f03a c326 503c b5f1 b9bc 713e 833b
000000c0: 9801 4dbd 2f5a d4b9 8645 50bb 5c12 ab3b
000000d0: 3b7f 8b3c d07e 53bc 8475 f33b 74b4 5bbd
000000e0: 9204 b2bc 58bf 09bc 53a4 09bd a41e e5bc
000000f0: 1db4 88bc 6fd4 883d 7b4a 0000 1db4 883c
00000100: cf2b 0080 af8c 7d3d b240 6d3d a377 9bbb
00000110: d9bd 30bc 491a 3fba 9496 893b c375 7c3c
00000120: 11b6 4abc f6ab 28bc ed0f 1c3c ac2e 83ba
00000130: 13d8 be3b 8579 1b3c 0405 103c fc3c cbbc
00000140: 882d 04bc 290e b63b 7558 443c 7b15 dfbb
00000150: ea92 8c3c 72b0 7c3c f2bc 8d3b 7643 37bb
00000160: fc42 3ebb 3017 8abb e7ca 01bb a212 333b
00000170: f1c6 543c 3da2 e0bc ba57 763b f52a 0080
00000180: 3da2 e03c 547b 0000 a98b 423e 5a7f 5cbc
00000190: 6883 a73c 86fc 1dbc 94d1 68bc 420a 69bb
000001a0: 2933 74bb b40b 07bb d332 d2bb aee5 9a39
000001b0: c528 0cba 39eb 053b 8782 f0bb fbae 673a
000001c0: 98be 2e3c 5019 55bc 0d03 8e3c 1454 f63b
000001d0: 86b7 7e3c f69b 0f3b 0399 9fbb 220c e139
000001e0: e287 9db9 c5a0 1dbb 0c34 153c 7403 363d
000001f0: cbd1 063c 3a8e f6bb c40c bd3c 5e04 413b
00000200: 9313 0080 c40c bdbc da53 0000 27d9 a73b
00000210: 2d54 d1b9 290a 623b b9b7 2c3a e7b7 a6ba
00000220: 46f7 3db9 5f82 f3b7 bd0a 0f39 0937 8939
00000230: fc4d 13b7 3279 8b39 108a a2b8 6eaf 363a
00000240: 3664 f4b4 8c3a 17b9 f774 873b ce4c 4439
00000250: 4d68 6738 8a90 95b8 f39c d0b8 29d3 92b9
00000260: bbf4 3aba 826b 85b9 a99d 693a 8fca c3b9
00000270: 4545 403a 00f8 0abb 97ae 0839 3eee c53a
00000280: c4bf 4b3a 3da5 0000 3eee c5ba 401d 0080
00000290: 6156 1138 4275 a1ba 9029 d13a 2e67 833a
000002a0: f5f3 c0b9 df38 4cb9 a922 12b9 dc85 9639
000002b0: 1bb9 00ba 42d0 e538 9ff4 1d3a dbcf 26ba
000002c0: 8395 a439 79a6 69ba b223 f3b9 aede d13a
000002d0: b005 fa39 2e5b 3039 3401 25b9 d5df 14ba
000002e0: 1ae0 b5b9 583f 323a 1d34 3cba 5b77 b939
000002f0: 1537 b8b8 34d6 f1ba b7da 81ba f3d1 b93a
00000300: 9ba9 3c3a 28fb bcb8 0391 0080 9ba9 3cba
00000310: 5421 0080 029f bb38 666f 0abb 6322 803d
00000320: 5691 8a3d 93fb 9bbc e535 773b 8734 c0b8
00000330: f58b 303c d5cb a43c bc4c 89bc f970 c33a
00000340: 2871 d33b 7c3e 65bc e8ad e13b 0d24 85bd
00000350: 0915 24bd 6ff5 2abd 882a 1cbc fd0a 00bc
00000360: 44af 4fbc d3ef 24bc 3740 c43b eb13 df3a
00000370: 9e8b 54bb 67c7 36bc 8efb 0bbb e343 6cbc
00000380: d4ed 803d 4e8f a73c 207a 11bb 4b89 0000
00000390: 4e8f a7bc eaa5 0080 6339 d33d 1dcd 81bc
000003a0: 7230 323c 6674 5dbc 2c09 fabb 0c2e 83bb
000003b0: 90e7 d0ba 3a7b 8dba f1ff ff3a c8fb 1cba
000003c0: f35a a6ba 4575 a0bb 9145 4b3c 4b90 22bc
000003d0: 549f c33b 212b c63b 75de fc3b 1f70 b83a
000003e0: 143d 37bb 468f 4a3b d50a ae3b ef92 423b
000003f0: bf75 71bc 621c c93a 6132 fa3b 6c83 57bc

state_layers.0.bias f4 [256]
-0.0051393216 0.01668743 0.027421089 -0.023077367 -0.0015100917 -0.0007196902 -0.020454062 -0.0016525035
-0.05800706 -0.026849704 -0.0021417104 -0.03194989 -0.016116371 -0.042697515 -0.011830187 0.024341563
0.006222973 0.004156869 -0.001364293 -0.016045006 0.039023865 -0.020344665 0.055130787 0.007587104
0.010434438 -0.014350766 -0.003652656 -0.008652348 0.012340466 -0.045021567 -0.0077302027 -0.030999452
-0.0010146858 0.01861864 -0.0016900789 -0.027685096 0.0025812497 0.011145199 0.019463839 -0.007174304
-0.0049513266 -0.011629944 -0.0035284571 -0.03433507 0.13184369 0.016882472 0.011301591 -0.010095373
-0.00055685465 -0.00116179 -0.00107912 0.0594791 0.002528814 -0.00299767 -0.008499682 0.05592827
-0.063439846 -0.0043585426 0.0042022546 -0.006563022 -0.0068125785 0.00061989116 0.034463678 -0.031042779
0.009398834 -0.010228106 0.0038570054 -0.0061716624 0.02731433 -0.011152988 0.0023827911 -0.06505092
-0.02738307 -0.0011827602 -0.0016423523 0.0047034803 -0.007364688 -0.0065957014 -0.012972942 -0.009814591
0.0062707015 -0.018396083 -0.0022894843 -0.0013441032 -0.016608678 0.001796039 0.036568787 -0.038103636
-0.00689694 -0.0064784684 -0.0015040776 -0.0078030815 -0.003620384 -0.006074492 -2.6536141e-05 -0.0019085561
-0.002455693 -0.04303506 -0.013203484 -0.0025896668 -0.005178592 0.003995329 0.001663852 -0.02902222
-0.021507086 -0.02781215 0.00040269052 0.011349015 0.009991721 -0.008723094 -0.0007779395 -0.07686345
-0.019589882 -0.02571471 0.012698139 -0.016939446 -0.0008105069 -0.007983545 0.062169287 -0.0023973633
-0.0022333483 -0.03498841 0.01189562 0.0049934 -0.0100968545 -0.00042006277 -1.5906595e-05 -0.013904449
-0.007880602 -0.0034752162 -0.0047662994 -0.0011664485 0.008248539 0.0030830503 -0.02195738 -0.00037485277
0.006945597 -0.035945423 0.0034108958 0.018352604 -0.060096372 -0.004176492 -0.01126076 0.0060061445
-0.003742828 -0.013538589 0.0070096212 -0.01002446 -0.011725121 0.0021546222 -0.021395033 -0.01775215
-0.004241701 0.004393206 -0.0131263435 -0.0020759604 0.037399504 -0.004339326 -0.01627388 -0.008723662
0.012630551 -0.0021742128 -0.019355074 -0.02378593 -0.011473019 -0.015176665 0.00038878672 -0.0015560896
0.020607838 -0.0008865824 0.0064867935 0.007922968 -0.00042277013 -0.0024209272 -0.026895067 -0.010697659
-0.0005856038 -0.0054916563 -0.009202338 -0.009377661 -0.003248244 -0.04005511 -0.0014465274 0.013200361
-0.031415645 -0.00790588 0.0031641137 -0.064767145 0.007885711 0.05602753 -0.012305463 -0.015872097
0.0020362253 -0.0006920227 -0.0007678474 -0.049582813 -0.001187649 -0.018754682 -0.01946526 -0.0076192315
-0.0008278691 0.02725151 -0.0041581076 -0.0048784525 -0.0006710828 -0.0077103693 0.019581396 -0.0009795926
-0.054367423 -0.0010665619 0.0018786455 -0.010918636 -0.018107884 -0.01497589 0.02627612 -0.025265938
-0.0046022213 -0.012316022 -0.00036733193 -0.012432546 -0.012479714 -0.053614836 -0.012334273 -0.00096413284
-0.0048258374 -0.039950084 -0.012161135 0.0063598263 0.0020585128 -0.00055437005 0.02752812 -0.0015559751
-0.004135083 -0.036647286 -0.00268083 -0.0016996887 -0.015400436 0.0036901033 -0.032352526 -0.0017743781
-0.007430653 -0.0388803 -0.052890904 0.0054834182 -0.00025292937 -0.013928465 -0.00071427296 -0.0047403034
-0.002254152 0.009847999 -0.036678463 -0.031640045 -0.006755835 0.020159446 -0.0002330585 -0.00047210656
00000000: c167 a8bb 14b4 883c 31a2 e03c bf0c bdbc
00000010: 45ee c5ba 97a9 3cba 478f a7bc d198 d8ba
00000020: d098 6dbd e9f3 dbbc f05b 0cbb e3dd 02bd
00000030: 7b06 84bc 97e3 2ebd 67d3 41bc f567 c73c
00000040: 15ea cb3b 5836 883b 14d2 b2ba d170 83bc
00000050: 7dd7 1f3d dba9 a6bc d2d0 613d 3e9d f83b
00000060: 34f5 2a3c 7a1f 6bbc 6661 6fbb 94c2 0dbc
00000070: aa2f 4a3c 8968 38bd a44d fdbb 90f2 fdbc
00000080: 35ff 84ba 1e86 983c a385 ddba dbcb e2bc
00000090: 2f2a 293b 5a9a 363c a172 9f3c 6d16 ebbb
000000a0: bd3e a2bb 858b 3ebc b03d 67bb eea2 0cbd
000000b0: 0802 073e 1c4d 8a3c 4f2a 393c 1067 25bc
000000c0: e2f9 11ba 3447 98ba 4271 8dba 5ba0 733d
000000d0: 75ba 253b 8f74 44bb 4042 0bbc 0b15 653d
000000e0: c0ec 81bd 1bd2 8ebb 11b3 893b 9e0e d7bb
000000f0: 0d3c dfbb 3180 223a c929 0d3d 6d4d febc
00000100: 91fd 193c c993 27bc d0c5 7c3b a83b cabb
00000110: 4dc2 df3c 06bb 36bc 9a28 1c3b 6b39 85bd
00000120: 7652 e0bc d906 9bba 3344 d7ba a71f 9a3b
00000130: 7b53 f1bb c120 d8bb 768c 54bc 61cd 20bc
00000140: 757a cd3b 62b3 96bc 2c0b 16bb 9f2c b0ba
00000150: ec0e 88bc 1269 eb3a 27c9 153d 8f12 1cbd
00000160: baff e1bb 5549 d4bb 7824 c5ba feb0 ffbb
00000170: f743 6dbb 880c c7bb ee99 deb7 8428 faba
00000180: b1ef 20bb 8845 30bd 6d53 58bc 66b7 29bb
00000190: 2eb1 a9bb 40eb 823b 9c15 da3a 02c0 edbc
000001a0: a12f b0bc 4ed6 e3bc 3520 d339 38f1 393c
000001b0: 51b4 233c 4feb 0ebc a3ee 4bba 966a 9dbd
000001c0: f67a a0bc a8a7 d2bc db0b 503c 98c4 8abc
000001d0: 3378 54ba 6acd 02bc 39a5 7e3d 151d 1dbb
000001e0: 5e5d 12bb 0250 0fbd d9e5 423c ad9f a33b
000001f0: 476d 25bc df3b dcb9 276f 85b7 7ccf 63bc
00000200: a41d 01bc 74c0 63bb 9e2e 9cbb 84e3 98ba
00000210: e124 073c 000d 4a3b f7df b3bc e387 c4b9
00000220: e497 e33b 823b 13bd 5689 5f3b 3358 963c
00000230: 9d27 76bd f4da 88bb 0d7f 38bc 31cf c43b
00000240: 3c4a 75bb f5d0 5dbc f7b0 e53b a23d 24bc
00000250: b91a 40bc 9034 0d3b a344 afbc f56c 91bc
00000260: f8fd 8abb e2f4 8f3b e00f 57bc d60c 08bb
00000270: 3930 193d e830 8ebb cd50 85bc b1ed 0ebc
00000280: 5ff0 4e3c 3d7d 0ebb 888e 9ebc b6da c2bc
00000290: 54f9 3bbc 8ca7 78bc 12d6 cb39 b4f5 cbba
000002a0: c5d1 a83c 8a69 68ba 2b8f d43b 56cf 013c
000002b0: 3fa7 ddb9 6ba8 1ebb 0b53 dcbc 3c45 2fbc
000002c0: 3583 19ba 5af3 b3bb 67c5 16bc c3a4 19bc
000002d0: 7ee0 54bb d410 24bd 6899 bdba 5446 583c
000002e0: b1ad 00bd aa87 01bc 055d 4f3b a3a4 84bd
000002f0: 1233 013c 207d 653d da9c 49bc 3306 82bc
00000300: 3172 053b db68 35ba 5e49 49ba 5917 4bbd
00000310: e3aa 9bba 6ba3 99bc 9c75 9fbc bfaa f9bb
00000320: 5b05 59ba 8f3e df3c bc40 88bb 6ddb 9fbb
00000330: 9beb 2fba 44a7 fcbb 2a69 a03c ac65 80ba
00000340: 60b0 5ebd e1cb 8bba e23c f63a 14e4 32bc
00000350: fc56 94bc 6f5d 75bc 0541 d73c 83fa cebc
00000360: 3bce 96bb 24c9 49bc 7596 c0b9 e1b1 4bbc
00000370: b777 4cbc 3b9b 5bbd b115 4abc dcbd 7cba
00000380: 0f22 9ebb b3a2 23bd 7f3f 47bc 1766 d03b
00000390: 1de8 063b 2553 11ba a782 e13c dcf1 cbba
000003a0: 977f 87bb 771b 16bd ddb0 2fbb 17c8 deba
000003b0: 1c52 7cbc a9d5 713b 1584 04bd 4092 e8ba
000003c0: d67c f3bb f340 1fbd 22a4 58bd 3fae b33b
000003d0: 9b9b 84b9 3734 64bc 0c3e 3bba 8c54 9bbb
000003e0: 65ba 13bb 8059 213c 283c 16bd fe98 01bd
000003f0: 0d60 ddbb 6c25 a53c 2a61 74b9 1285 f7b9

action_layers.0.weight f4 [256, 260]
-7.3172054e-20 2.858639e-21 -6.968382e-20 3.2789763e-20 1.5948587e-21 3.6851666e-22 -5.0690056e-21 -4.758459e-20
2.1873258e-20 3.578738e-21 5.017399e-21 3.1037467e-21 -1.3508911e-20 -3.9005734e-20 2.6570752e-21 2.4703468e-21
-1.1653829e-20 1.22213876e-20 2.3571844e-21 4.476607e-20 -6.540835e-20 9.181213e-21 -1.4486543e-19 2.0376523e-20
-1.5715688e-19 -6.952525e-20 -3.084974e-21 -3.6017124e-20 -3.0167422e-20 -7.686783e-21 -5.241625e-20 -1.296697e-20
-7.7363036e-20 -1.11818905e-20 2.1171712e-22 -1.1953067e-21 1.0239002e-19 -6.5494196e-20 -4.044795e-21 -1.2842363e-19
-1.4522664e-19 4.427378e-21 2.9289146e-22 -1.1848836e-19 -1.5566747e-19 -2.80467e-20 4.0384085e-20 -8.8456065e-20
-1.18527154e-20 1.1366575e-21 3.26429e-21 -2.2269266e-20 -3.7210817e-20 -1.8455228e-19 -2.9041636e-20 -1.1471293e-19
7.3565765e-22 3.0764463e-20 2.0451918e-20 -7.499843e-20 2.0042064e-20 -5.949323e-20 3.6050474e-21 1.4645352e-20
-2.0157231e-19 5.0691415e-20 6.4941103e-20 3.175934e-20 -1.8388279e-19 3.0343357e-20 1.0949867e-20 -2.5666555e-20
1.3257709e-20 8.651153e-21 5.90648e-21 2.0571075e-21 -3.65462e-21 -1.9846646e-20 9.327421e-22 1.3319707e-20
7.211426e-21 -5.8454805e-20 3.2130794e-20 1.7082037e-21 -1.1007224e-20 3.824762e-20 -1.63194e-19 7.891969e-21
-2.7343735e-19 2.8234624e-20 2.6386713e-22 -1.9080013e-20 3.9614316e-20 3.5860703e-21 -2.647534e-21 3.2386548e-20
1.5505501e-21 4.429811e-21 -1.3110616e-19 -1.1327652e-19 -2.5153782e-20 -6.0669724e-20 1.1411709e-20 -3.4550074e-20
-2.5923554e-20 -8.3805074e-20 -5.925963e-20 -2.4832054e-20 -1.3278441e-20 -1.4335738e-19 9.190356e-22 -1.2568426e-20
-1.8129184e-19 5.957145e-21 -1.6236931e-19 -2.5301746e-21 2.648762e-22 -1.7425055e-23 -9.5182484e-20 -1.9604744e-20
-1.2900858e-20 -2.5793586e-21 -3.608008e-20 -4.164044e-21 4.349871e-20 1.5036935e-23 -8.400357e-20 -4.3918938e-20
-1.31736485e-20 6.9135103e-22 4.823187e-22 2.6496574e-21 -1.2022894e-19 -4.8985962e-20 -7.176431e-20 6.498863e-20
-6.961854e-20 -3.93028e-20 -6.639085e-21 2.4298426e-21 -1.5921138e-20 5.016044e-21 -1.8520168e-21 1.06531725e-19
-5.1832456e-20 -2.0286847e-20 -5.3195375e-20 6.9633796e-20 5.6274818e-21 -1.1159956e-19 4.94178e-21 -4.2666105e-21
-9.289422e-20 -1.6246961e-21 -5.580253e-21 1.3556231e-21 -8.404648e-21 -1.7547173e-21 -6.927476e-21 -3.6992916e-20
-2.1935755e-19 8.977638e-22 -2.6077113e-20 1.6325991e-20 -3.082335e-20 3.0513342e-20 -3.5585297e-20 -1.8992831e-23
-1.5162832e-19 2.0529468e-21 9.0663495e-21 5.08884e-22 7.003042e-22 2.4202236e-21 1.0462348e-20 5.8690836e-20
5.993523e-22 -4.364619e-20 3.1652317e-21 1.827862e-21 -2.7866636e-20 -1.4950077e-21 1.8351787e-21 2.0459963e-20
1.437642e-20 3.872364e-20 -1.4557349e-19 5.322938e-21 1.3707855e-20 -5.3478238e-20 -5.072877e-20 -1.7141837e-19
-7.590046e-20 3.198276e-21 4.8752894e-21 -2.1975816e-20 2.6114352e-21 -1.6514359e-20 -6.786786e-21 3.1819522e-20
1.0765248e-22 -5.584868e-21 1.6920993e-21 5.2056705e-21 8.504492e-22 -8.467374e-20 2.9420793e-21 -6.936061e-21
-3.3160408e-22 3.1678723e-21 1.5224689e-21 -4.2113694e-20 -1.3262538e-19 3.005282e-20 -4.4614774e-21 -1.0287108e-20
-3.441197e-20 4.1291338e-20 3.0844295e-22 3.1122767e-20 -5.693953e-20 4.5213664e-21 -3.612603e-21 1.117667e-22
-5.0396913e-20 -3.8519142e-20 3.7605834e-20 -1.5989196e-19 -3.1683014e-20 4.3435313e-22 -9.0526234e-21 2.1790105e-22
1.1030375e-21 -2.0397957e-20 2.9499252e-21 -1.5950931e-20 7.4943477e-22 2.2540458e-20 1.5165937e-21 1.4969553e-21
5.7395885e-20 -1.1328564e-19 -1.4410415e-20 5.4118783e-20 1.419778e-23 2.861139e-20 1.110313e-22 3.8237267e-20
1.6233316e-22 -2.548716e-19 1.1425722e-20 -6.60333e-21 -1.6596117e-20 1.4760283e-21 3.4558586e-23 1.1962549e-22
00000000: cbc5 ac9f 1ffe 571d 4989 a49f 64d8 1a1f
00000010: 1c02 f11c 31c1 de1b 6a80 bf9d 3db6 609f
00000020: 4b96 ce1e 6e33 871d 4e8d bd1d 3183 6a1d
00000030: 162d 7f9e 0a33 389f 4fc3 481d 75a7 3a1d
00000040: 7622 5c9e 01db 661e 941a 321d dc66 531f
00000050: ec70 9a9f 9f6d 2d1e e406 2ba0 6973 c01e
00000060: c189 39a0 6f29 a49f 1318 699d 0816 2a9f
00000070: 2d76 0e9f 0033 119e 5c87 779f 6bf0 749e
00000080: 16ab b69f 4e38 539e 46f3 7f1b 30a1 b49c
00000090: f8c2 f11f d0a4 9a9f dbce 989d a99d 17a0
000000a0: 0f74 2ba0 f942 a71d c20a b11b e9e2 0ba0
000000b0: 9bc7 37a0 6172 049f 5db5 3e1f 69dc d09f
000000c0: 37e4 5f9e 4fc4 ab1c 8da4 761d c853 d29e
000000d0: 1eb9 2f9f 81e1 59a0 2f25 099f db6d 07a0
000000e0: c156 5e1c f447 111f b429 c11e c515 b19f
000000f0: bd4a bd1e 7379 8c9f e131 881d 4a52 8a1e
00000100: 7ef9 6da0 2962 6f1f 7d56 991f b0fa 151f
00000110: 2a17 59a0 de4a 0f1f 4fd6 4e1e ec69 f29e
00000120: 596e 7a1e 696a 231e f823 df1d 3f6e 1b1d
00000130: 5111 8a9d 3f72 bb9e b6f3 8c1c 279a 7b1e
00000140: 5138 081e c305 8a9f bfbb 171f 7711 011d
00000150: abeb 4f9e 899e 341f 5caa 40a0 3813 151e
00000160: af68 a1a0 9155 051f 767f 9f1b a434 b49e
00000170: c512 3b1f 587a 871d c10a 489d eff0 181f
00000180: 0050 ea1c 815a a71d 68c8 1aa0 babb 05a0
00000190: 1d92 ed9e 9940 8f9f a38f 571e 7a28 239f
000001a0: 4fd7 f49e 0fe1 c59f 40ec 8b9f 3988 ea9e
000001b0: 9ad2 7a9e 1c3f 29a0 78e1 8a1c 2e69 6d9e
000001c0: 1908 56a0 f90d e11d 1db1 3fa0 b22c 3f9d
000001d0: 9b1b a01b 5986 a899 48be e09f 5d29 b99e
000001e0: b9b0 739e 0de4 429d 2462 2a9f 2a50 9d9d
000001f0: b76a 4d1f a66d 9119 0b59 c69f bd66 4f9f
00000200: dbd7 789e b2f2 501c 9ac5 111c d433 481d
00000210: f8f0 0da0 6554 679f dd72 a99f 3773 991f
00000220: d361 a49f 2b9a 399f 4ad1 fa9d fe97 371d
00000230: f35e 969e 3380 bd1d 37ef 0b9d 7a8a fb1f
00000240: 98c5 749f 969a bf9e 4335 7b9f 0c6b a41f
00000250: aa99 d41d e6c0 03a0 f7b1 ba1d 2030 a19d
00000260: 1c57 db9f 6384 f59c e5d0 d29d 21db cc1c
00000270: 62c2 1e9e 2b95 049d 38db 029e b1b1 2e9f
00000280: 607c 81a0 8eaa 871c 974a f69e d331 9a1e
00000290: 258f 119f 5e18 101f fc0b 289f f9af b799
000002a0: d902 33a0 c41d 1b1d 2d42 2b1e fecc 191c
000002b0: 6aa7 531c efdd 361d cfa0 451e 6f94 8a1f
000002c0: a324 351c 021d 4e9f 7c28 6f1d fe1b 0a1d
000002d0: b298 039f 4feb e19c 85a9 0a1d 283d c11e
000002e0: 0dc8 871e 02de 361f e3dc 2ba0 4c18 c91d
000002f0: 8f77 811e 398b 7c9f 528f 6f9f 0660 4aa0
00000300: 0337 b39f a8a7 711d e82e b81d 438e cf9e
00000310: 8150 451d 45f9 9b9e e232 009e 7143 161f
00000320: d424 021b 87fd d29d ecb3 ff1c 28aa c41d
00000330: 2984 801c 23ee c79f 174c 5e1d bc04 039e
00000340: 3f71 c89b 905b 6f1d aa11 e61c 55e0 469f
00000350: 9093 1ca0 a1eb 0d1f c38c a89d 6751 429e
00000360: 8581 229f 2afe 421f 3c71 ba1b 1ef9 121f
00000370: d671 869f f9cf aa1d f47a 889d 1e1e 071b
00000380: 21fe 6d9f c9e6 359f aa96 311f 61c4 3ca0
00000390: 6a9e 159f 7246 031c cdff 2a9e 8eb6 831b
000003a0: b2af a61c 3ca7 c09e dae3 5e1d fca6 969e
000003b0: b580 621c 7ce3 d41e 612e e51c a736 e21c
000003c0: af85 871f 7cbe 05a0 3f1a 889e 9891 7f1f
000003d0: 0050 8919 0c1d 071f 863a 061b 0592 341f
000003e0: ae3f 441b 1b73 96a0 67d3 571e 7d77 f99d
000003f0: f3be 9c9e 140d df1c 751d 271a 4c9e 101b

action_layers.0.bias f4 [256]
-1.3729886e-19 -1.04360974e-26 -6.811112e-29 0.001903947 0.03247312 -0.00048169945 -1.162759e-12 -1.03832965e-23
-7.490597e-05 -2.186179e-10 -3.1265577e-13 -1.249801e-10 -2.6713448e-10 -8.104559e-15 -7.590625e-13 -3.169108e-05
-2.0284163e-12 -0.0010801832 -2.0494237e-05 -8.150662e-14 -0.027040828 -8.19388e-06 -3.7686724e-13 -0.00063329336
-3.336879e-07 -8.496524e-08 -7.270186e-07 -6.2471276e-26 -1.5723431e-15 -2.387667e-07 -1.0124467e-18 -6.6338376e-05
-1.4385289e-10 -0.004698478 -0.00026820996 0.5419614 -3.327656e-13 -1.4102145e-07 -2.7238825e-08 -2.8295414e-19
-4.3233563e-12 -3.5243545e-19 -8.545374e-07 -3.014605e-08 -2.3963741e-14 -3.33302e-06 -1.2552156e-16 1.7237895e-08
-1.485486e-14 1.0966888e-23 -1.5329796e-18 -4.484656e-25 -3.5407492e-09 -1.600839e-16 -4.4920007e-10 0.057893537
-2.4718645e-12 -3.9970398e-13 -3.3404946e-23 -3.3714554e-05 -1.0491322e-17 -7.888475e-06 -0.03025818 -7.309642e-10
0.052100345 -2.9124434e-21 -0.0006611303 -0.029609209 -4.2733996e-07 -4.380287e-06 -5.9696544e-19 2.0348624e-15
-1.7490428e-12 -6.321782e-21 0.25599486 -3.3593327e-08 -1.5131376e-12 -0.00025400083 -6.7790893e-07 -9.414554e-12
-0.0018409222 -0.0029602963 -3.339873e-05 0.0068206717 -1.1707291e-08 -2.8240829e-14 -2.8570135e-10 -1.1049841e-21
-0.0044063516 -0.00049405376 -0.0011832652 -1.4743398e-15 -1.6497926e-06 -9.959723e-16 -2.7682724e-20 -6.4868564e-09
-2.2241092e-16 -1.1485271e-18 -0.001143059 -3.4957164e-08 -3.8239104e-10 -3.9163868e-21 -8.287601e-06 -2.3975367e-06
2.122703e-12 -0.025157912 -3.556986e-14 0.25216255 -0.0011430236 -0.0014761667 -3.754085e-05 -4.0756113e-06
-6.648814e-13 -2.689036e-07 0.07764463 -0.00029767177 -5.5313203e-06 0.014488208 -0.0041902005 -1.1454887e-11
-1.2997742e-06 -6.5020367e-06 0.012153566 -2.8730207e-11 -0.0038981559 -3.7146257e-13 -1.1728329e-19 -1.0492109e-18
-0.001687101 -2.7014467e-08 -1.5099148e-11 0.041694894 -1.5550033e-21 -3.7714955e-24 0.27935123 -5.496221e-10
-1.1216538e-10 7.230003e-17 0.035114545 -4.1601826e-12 -6.191923e-18 -4.1211767e-11 -1.8490633e-05 -1.0976474e-10
-7.069116e-05 -3.075705e-17 -3.8235754e-07 -0.00011095282 -0.00010072846 -1.8122671e-16 -1.6206421e-06 -7.4055566e-09
-3.0195653e-20 -0.00032442177 -5.1964594e-07 -6.013537e-10 -8.836664e-20 0.20393778 -0.00060623634 -2.0521881e-07
-0.00012133476 -3.5482048e-11 -7.952368e-09 -5.9797806e-17 -0.0001165647 -9.538643e-16 -2.3104355e-12 -4.8339426e-09
-7.6592346e-07 -0.00053080707 -0.0584513 -0.0027666038 -0.00030525427 -2.559078e-10 -5.348562e-16 -6.0209584e-09
-7.848965e-28 -5.689538e-05 0.16796347 -5.1237446e-05 -4.5313007e-09 -0.00953969 -1.0172681e-07 -6.510727e-30
-1.1693999e-07 -2.3055263e-05 -0.0003165724 -3.419407e-07 -1.3599591e-12 -1.0276654e-05 -2.1556615e-16 -3.792626e-18
-5.992049e-11 -0.00023592102 -0.0033456094 -8.030825e-20 -2.6302709e-14 -1.5473022e-12 -0.020077683 -0.0003580429
-6.707702e-16 -0.019887647 -2.3606048e-09 -3.8115193e-08 -9.754928e-05 -6.9773874e-12 -2.4104857e-11 -1.0449845e-17
0.16717178 -5.0811354e-07 -2.8159252e-07 -0.016808318 0.022325784 -2.367379e-06 0.015756914 -0.0015549591
-0.06227024 -0.002292172 -8.70502e-15 -0.02929232 -6.4804865e-08 -1.5929853e-09 0.053044524 -1.2123003e-17
-2.530944e-14 -8.936933e-15 -8.634888e-09 -1.3787507e-15 -1.7502561e-23 -0.020268984 0.11058282 -5.9684874e-10
-5.6966066e-05 -0.002923607 -0.0011703525 -5.113805e-06 -1.16025786e-10 -2.3698392e-18 -0.0025059879 -2.3680578e-17
-1.8410294e-05 -0.0014958815 -1.4943369e-06 -5.3426753e-08 -9.9724916e-11 -5.9128547e-06 -5.1139423e-06 -1.392011e-05
-1.1004501e-11 -3.2651505e-18 -5.3201736e-09 -7.767936e-09 -0.0024204669 -1.6451111e-10 -3.8594985e-27 -0.00020705038
00000000: 0918 22a0 4db5 4e94 a5ae ac90 dc8d f93a
00000010: 8902 053d 9b8c fcb9 cfa4 a3ab 98d7 4899
00000020: d616 9db8 785f 70af 7202 b0aa c56a 09af
00000030: d6db 92af aeff 11a8 38a8 55ab 0aec 04b8
00000040: b3bc 0eac ef94 8dba 0aeb abb7 5e89 b7a9
00000050: ba84 ddbc 7278 09b7 4b28 d4aa 9903 26ba
00000060: b725 b3b4 2276 b6b3 5628 43b5 e0ab 9a95
00000070: 3999 e2a6 d82f 80b4 2869 95a1 251f 8bb8
00000080: fd2a 1eaf b1f5 99bb 889e 8cb9 fbbd 0a3f
00000090: 9454 bbaa ae6b 17b4 cffa e9b2 d206 a7a0
000000a0: 551d 98ac 8a0a d0a0 5d63 65b5 ef79 01b3
000000b0: a0d8 d7a8 d9ac 5fb6 6db7 10a5 8812 9432
000000c0: facc 85a8 6621 5419 553a e2a1 1bcb 0a97
000000d0: 8551 73b1 6e90 38a5 4af3 f6af c621 6d3d
000000e0: 27f1 2dac 6a03 e1aa 5289 219a ba68 0db8
000000f0: de87 41a3 be58 04b7 01e0 f7bc 08ed 48b0
00000100: 2c67 553d d90e 5c9d b44f 2dba 038f f2bc
00000110: 286d e5b4 61fa 92b6 6f31 30a1 96a0 1227
00000120: e827 f6ab 86d4 ee9d c211 833e 4148 10b3
00000130: 87f4 d4ab 6a2b 85b9 8cf9 35b5 629f 25ad
00000140: 194b f1ba 8801 42bb 9d15 0cb8 f17f df3b
00000150: 3621 49b2 eb5e fea8 e410 9daf 00fb a69c
00000160: 2863 90bb 6383 01ba cb17 9bba 8a79 d4a6
00000170: 716e ddb5 e488 8fa6 5cba 029f fee2 deb1
00000180: 0f36 80a5 217e a9a1 b2d2 95ba cf23 16b3
00000190: c138 d2af f8f4 939d fa0a 0bb7 5ee5 20b6
000001a0: 385f 152c f717 cebc 4231 20a9 731b 813e
000001b0: 82d1 95ba ef7b c1ba 2e75 1db8 3cc1 88b6
000001c0: c125 3bab d45d 90b4 2604 9f3d d410 9cb9
000001d0: ae99 b9b6 f35f 6d3c f34d 89bb 3a84 49ad
000001e0: e773 aeb5 122c dab6 c01f 473c adb6 fcad
000001f0: 3478 7fbb 661d d1aa b376 0aa0 11d6 9aa1
00000200: b721 ddba 710d e8b2 42d0 84ad 44c8 2a3d
00000210: 47fc ea9c 15e7 9198 2007 8f3e 3814 17b0
00000220: 7fa7 f6ae 68b6 a624 45d4 0f3d 985f 92ac
00000230: 0f71 e4a2 5340 35ae 551c 9bb7 0e60 f1ae
00000240: 0740 94b8 84d7 0da4 d246 cdb4 57af e8b8
00000250: 2e3e d3b8 aff0 50a5 d784 d9b5 f773 feb1
00000260: 4e98 0e9f 2717 aab9 cc7d 0bb5 814c 25b0
00000270: 5ba6 d09f 11d5 503e d5eb 1eba 1e5a 5cb4
00000280: 1a75 feb8 3c0d 1cae e29e 08b2 65e2 89a4
00000290: 3274 f4b8 6277 89a6 1b95 22ac cf17 a6b1
000002a0: dc99 4db5 dc25 0bba a16a 6fbd e94f 35bb
000002b0: 890a a0b9 d2af 8caf 6c29 1aa6 e9e0 ceb1
000002c0: 5fbe 7892 f3a2 6eb8 9efe 2b3e cae7 56b8
000002d0: beb1 9bb1 5c4c 1cbc e874 dab3 a10d 048f
000002e0: 7020 fbb3 cd66 c1b7 a1f9 a5b9 f993 b7b4
000002f0: b165 bfab e569 2cb7 e687 78a5 57ec 8ba2
00000300: 3dc4 83ae 9161 77b9 0342 5bbb 5c9f bd9f
00000310: ebe9 eca8 70c3 d9ab f479 a4bc b4b7 bbb9
00000320: 1b56 41a6 6beb a2bc 3338 22b1 19b4 23b3
00000330: 5f93 ccb8 b87e f5ac 5007 d4ad ffc3 40a3
00000340: 142f 2b3e 4c65 08b5 c82d 97b4 99b1 89bc
00000350: 90e4 b63c 43df 1eb6 a514 813c c5cf cbba
00000360: 140f 7fbd 4438 16bb d2d0 1ca8 73f6 efbc
00000370: da2a 8bb3 30f0 dab0 3745 593d 43a1 5fa3
00000380: 98f7 e3a8 54fe 20a8 a458 14b2 ecb2 c6a6
00000390: 3e46 a999 240b a6bc 3f79 e23d 7f0f 24b0
000003a0: d9ee 6eb8 fc99 3fbb 8366 99ba 4097 abb6
000003b0: b624 ffae ffdc 2ea2 803b 24bb 2f6a daa3
000003c0: ce6f 9ab7 7411 c4ba 0691 c8b5 5677 65b3
000003d0: 234c dbae 0967 c6b6 6e98 abb6 6b8a 69b7
000003e0: de97 41ad f3ec 70a2 becc b6b1 be73 05b2
000003f0: b2a0 1ebb c3e1 34af f7e3 9893 aa1b 59b9

action_layers.1.weight f4 [128, 256]
2.3649273e-20 -6.142696e-29 8.882858e-30 0.010385908 0.019356566 -5.2373804e-07 8.9335845e-15 1.1761156e-24
-5.6529856e-08 -2.9586465e-11 2.681786e-13 1.79703e-11 4.898317e-13 3.649612e-16 -9.6874e-14 1.3258598e-08
2.9901875e-15 -4.2943334e-06 -1.0300999e-08 6.3390076e-14 -0.032684382 1.1978122e-08 3.741481e-18 -1.4517846e-06
-5.630752e-08 6.7048926e-09 1.6819871e-09 4.3390115e-27 -1.1750955e-15 -3.8077982e-11 -4.4768173e-19 -2.7229578e-07
1.6163713e-12 -0.025814312 -2.892707e-07 0.11570027 5.04175e-14 -8.6827344e-11 2.1657832e-10 -7.558256e-20
2.2556499e-12 -5.072659e-22 -2.1812117e-07 2.2069907e-10 4.191228e-16 8.746117e-09 1.0859009e-17 2.4477982e-08
-5.8433394e-16 2.3579592e-23 5.271255e-20 -1.3701583e-28 3.3180572e-10 -4.603638e-20 8.718474e-11 0.019152438
3.0930163e-13 1.0758313e-15 -3.4467597e-24 1.8280801e-07 4.375554e-19 1.7694982e-09 -0.01833349 2.44708e-12
0.022369176 -1.7603408e-22 -9.4408443e-07 -0.038294595 -3.2056552e-10 -4.3895425e-09 -8.0343536e-20 8.77049e-15
-3.7829e-14 4.8165136e-23 0.048167363 2.7556543e-10 -2.654261e-13 -2.53638e-07 -9.2542907e-10 6.8352e-13
-5.961058e-05 -0.0020389166 9.997948e-09 0.017737279 2.8602785e-11 -2.2380878e-15 1.593492e-13 -8.346192e-23
0.033948638 7.468383e-05 -3.731688e-06 2.2773652e-17 -1.1444314e-09 1.5696661e-16 -3.6057189e-22 2.052608e-11
-1.1335301e-17 -5.851648e-21 2.8506698e-05 -7.905834e-12 3.0257238e-12 -3.4771455e-23 -9.417627e-09 3.666645e-10
2.9953251e-12 -0.018967152 3.206072e-14 0.047245942 1.7482369e-05 -4.6281602e-05 -1.4796556e-08 5.682856e-08
4.4634994e-15 7.4320944e-10 0.015216484 -2.6998136e-06 -3.1641432e-09 0.015598656 0.0029141563 1.1200547e-11
6.6183605e-09 -5.10631e-09 0.014191705 1.8901286e-14 0.0007242552 -1.662772e-13 1.9292883e-21 1.9725348e-20
-8.554917e-06 1.3614711e-10 2.5499685e-12 0.016921628 -1.18256695e-23 -1.7288233e-25 0.05377229 4.3021632e-12
3.814461e-12 1.07514e-16 0.017623687 4.5754975e-14 -8.2300247e-19 3.301519e-14 5.587137e-09 2.9436797e-11
-3.021418e-08 -2.1402856e-18 -1.948358e-11 -1.5617e-07 -1.490764e-07 9.890932e-18 -1.8294456e-09 1.2065629e-10
-4.8662516e-23 -7.5094255e-07 2.4873885e-09 1.31564325e-11 1.4441007e-21 0.07333324 -7.9818983e-07 1.7821869e-10
-1.1277533e-07 5.679279e-13 -1.911081e-09 3.0981427e-18 -6.791017e-08 -2.9339112e-16 2.2465826e-14 -4.0649493e-12
4.1167225e-09 -7.1122406e-07 -0.07615432 -0.0008855195 -4.6287064e-07 2.9787065e-12 -4.7042043e-17 6.352554e-11
1.177089e-28 -7.5602594e-07 0.09056617 -7.592094e-08 3.838874e-11 -0.0343674 1.1682638e-10 2.9065852e-31
8.9494974e-11 -2.589634e-08 -1.0235697e-06 -1.7474827e-07 1.6856523e-14 -6.089794e-07 -2.4624975e-18 7.166201e-19
1.2419707e-11 -1.287649e-07 0.001958691 6.7441784e-21 7.070755e-17 2.462053e-15 -0.025461162 0.00011523149
1.1255807e-18 -0.021816349 -4.657412e-10 -1.7947562e-11 -8.215614e-06 3.3941884e-14 1.1116372e-13 -2.983193e-19
0.044931218 -2.7067454e-10 3.1168073e-09 -0.014159844 0.01669556 1.0150875e-08 0.0107687805 -0.0014085064
-0.08810281 0.0015610826 7.8152564e-16 -0.023390576 9.886095e-09 1.0186783e-11 0.022281663 -3.25262e-19
1.0011469e-14 -8.2316054e-16 2.9305909e-09 4.7171893e-17 6.48898e-25 -0.011216896 0.03454008 1.8031904e-12
4.3533692e-08 0.00059362553 -1.749134e-06 -5.067411e-09 1.8212539e-12 -1.001696e-19 -0.00093917 -3.4903258e-20
-1.392731e-08 0.0019377595 -1.4353514e-09 8.491753e-09 3.9794862e-11 1.0082688e-08 -5.542736e-09 5.3675656e-08
1.4563943e-13 -1.8363607e-19 -4.9212782e-12 -3.731071e-12 -0.00016978702 7.6721127e-13 2.9395948e-28 -2.9860703e-07
00000000: 6f5c df1e 60bc 9b90 702a 340f a829 2a3c
00000010: a991 9e3c 0197 0cb5 e3ee 2028 bdfe b517
00000020: 3ccb 72b3 661f 02ae 9cf8 962a 8511 9e2d
00000030: 18e0 092b c462 d225 0f24 daa9 eec7 6332
00000040: 3977 5727 0b18 90b6 46f8 30b2 e4bd 8e29
00000050: 0fe0 05bd 56c8 4d32 4a09 8a22 f0da c2b5
00000060: c6d6 71b3 dc60 e631 a92b e730 cee2 ab13
00000070: 5f59 a9a6 ff77 27ae e021 04a1 0c30 92b4
00000080: ea7b e32b 8978 d3bc 104d 9bb4 43f4 ec3d
00000090: 6c0f 6329 73ef beae 6121 6e2f db76 b29f
000000a0: 2dba 1e2c cc4f 199c b134 6ab4 44a9 722f
000000b0: 9c9b f125 d441 1632 3850 4823 a743 d232
000000c0: 3c6c 28a6 3e0c e419 90ed 781f 2eb0 2d91
000000d0: 8169 b62f 9266 599f a5b8 bf2e 93e5 9c3c
000000e0: 101f ae2a 2b0b 9b26 0e57 8598 e249 4434
000000f0: c024 0121 af32 f330 1d30 96bc ad32 2c2c
00000100: 903f b73c e9cf 549b fd6c 7db5 cbda 1cbd
00000110: 963b b0af d3d2 96b1 b0b4 bd9f bffe 1d28
00000120: de5d 2aa9 8de9 681a 244b 453d 637e 972f
00000130: ef6b 95aa be2b 88b4 4861 7eb0 cf64 402b
00000140: 5f06 7ab8 589f 05bb 71c3 2b32 c54d 913c
00000150: bf97 fb2d 6f45 21a7 4869 332a 6dcc c99a
00000160: ba0d 0b3d 939f 9c38 e96d 7ab6 c40c d223
00000170: 1a4a 9db0 5ef8 3425 ccf3 d99b a08c b42d
00000180: 7219 51a3 ab11 dd9d ab21 ef37 b614 0bad
00000190: 98ea 542c fa24 289a 29cb 21b2 7193 c92f
000001a0: fbc6 522c 0061 9bbc 7e63 1029 f684 413d
000001b0: 1aa7 9237 7e1e 42b8 f133 7eb2 aa13 7433
000001c0: 84d0 a027 b74a 4c30 8f4e 793c 722e 35b6
000001d0: 3270 59b1 8191 7f3c 6efb 3e3b c70a 452d
000001e0: b767 e331 9473 afb1 5384 683c 663f aa28
000001f0: f2db 3d3a 2436 3baa ddc5 111d f74c ba1e
00000200: 1787 0fb7 01b2 152f 2670 332c 3a9f 8a3c
00000210: e1bd 6499 9904 5696 5540 5c3d 715e 972c
00000220: 9c35 862c 10e9 f724 8d5f 903c e50f 4e29
00000230: 4fe8 72a1 ecaf 1429 faf8 bf31 e376 012e
00000240: d8c4 01b3 daec 1da2 1f61 abad afaf 27b4
00000250: cf11 20b4 9b74 3623 e56f fbb0 baa9 042f
00000260: 4751 6b9a 6194 49b5 9aee 2a31 4e73 672d
00000270: f139 da1c bd2f 963d 3043 56b5 1af4 432f
00000280: e52e f2b3 85db 1f2b 1854 03b1 439a 6422
00000290: 03d6 91b3 e320 a9a5 ab5a ca28 cf05 8fac
000002a0: 1373 8d31 f2ea 3eb5 ccf6 9bbd 3522 68ba
000002b0: 7580 f8b4 9b9b 512c 71f1 58a4 b3b1 8b2e
000002c0: b936 1511 b5f1 4ab5 c27a b93d fa09 a3b3
000002d0: e1d5 282e d5c4 0cbd b473 002f eea5 bc0c
000002e0: 31cd c42e a772 deb2 9661 89b5 70a2 3bb4
000002f0: 7fd4 9728 bf78 23b5 43b3 35a2 4982 5321
00000300: 637d 5a2d a042 0ab4 625d 003b b1c9 fe1d
00000310: 5f0a a324 dd68 3127 ed93 d0bc 6fa8 f138
00000320: 3d1b a621 33b8 b2bc a005 00b0 51de 9dad
00000330: cbd5 09b7 54dc 1829 8651 fa29 bd18 b0a0
00000340: cc09 383d 0ece 94af 742f 5631 b1fe 67bc
00000350: 21c5 883c 0564 2e32 8a6f 303c a29d b8ba
00000360: 3f6f b4bd 3d9d cc3a 6a42 6126 989d bfbc
00000370: 81d7 2932 3135 332d 0988 b63c 3400 c0a0
00000380: c059 3428 8742 6da6 8063 4931 be8a 5924
00000390: ffd2 4817 12c7 37bc e679 0d3d c8c6 fd2b
000003a0: cdf9 3a33 899d 1b3a c9c3 eab5 6b1d aeb1
000003b0: cb28 002c cf84 ec9f a232 76ba 73d3 249f
000003c0: f544 6fb2 6bfc fd3a f045 c5b0 20e3 1132
000003d0: 0805 2f2e 2138 2d32 6c72 beb1 0289 6633
000003e0: b5f9 232a 99cc 58a0 ef26 adac 8046 83ac
000003f0: db08 32b9 66f3 572b a751 ba11 3d50 a0b4

action_layers.1.bias f4 [128]
0.10343807 0.07959298 -3.547717e-08 -3.0530113e-23 0.079020776 0.13545175 -2.4374843e-27 -1.5484423e-21
0.105851166 0.12925951 -1.9410301e-08 0.1241435 -1.0989723e-23 -8.6719076e-11 0.09550839 -1.1168447e-22
-2.6991853e-10 0.0738221 -1.8010234e-09 0.11347983 0.08494294 -0.0020739418 0.07495255 0.10963287
-3.5513776e-23 -1.2407791e-24 -7.054463e-06 0.06619187 0.12193746 -1.7802201e-09 -2.137357e-34 0.10220573
0.100175574 0.11739163 0.13142426 -1.6262458e-20 -1.6241098e-06 -0.00041658516 -0.0013922786 0.11628086
-2.7394143e-09 1.940792e-32 0.079889 0.0885228 -2.4713314e-35 0.13244338 0.061567083 -4.9419794e-18
0.056869593 0.07204397 0.091011845 -0.0009813167 0.11000005 0.1057035 -6.924678e-36 1.2553408e-14
-1.668917e-20 -3.2629016e-23 0.10898498 0.07915058 0.1382607 -1.7791716e-09 4.9479572e-29 -0.00011856468
0.12044159 -3.0516603e-09 -7.9466125e-05 -2.10384e-07 -7.5488715e-05 -9.3197023e-17 -0.0012199427 -1.2541651e-09
4.276615e-14 0.065393955 -3.537813e-30 0.086269855 0.09670714 -3.6641675e-05 0.09284171 -1.6763636e-15
0.082023636 0.08992101 0.061998714 0.087721094 -1.0459345e-15 -1.6349458e-10 0.054546718 0.08145908
-1.763618e-13 0.12475961 -4.2419606e-09 0.057260133 1.654923e-07 -1.1570114e-07 -2.7738187e-10 0.089408346
-5.010108e-23 -1.9106355e-12 -0.00080933014 0.07018032 0.09728852 0.07812087 -3.798917e-12 0.10006204
-1.9429831e-38 -1.89804e-07 0.09738122 -9.80142e-40 -1.9969975e-29 0.10625162 0.101100735 0.0777182
-4.054205e-06 0.06477329 0.07049 0.101839356 0.0714586 -3.219054e-12 -1.8140742e-09 -1.8903346e-07
0.086049005 0.07510112 -1.6414646e-23 -5.007719e-07 -1.2967647e-05 -1.5534357e-20 0.08120981 -2.4263337e-15
00000000: 57d7 d33d a501 a33d 905f 18b3 73a2 139a
00000010: a5d5 a13d ddb3 0a3e 0e1e 4193 76fe e99c
00000020: 7fc8 d83d 9b5c 043e b4bb a6b2 f33e fe3d
00000030: 7992 5499 80b2 beae e799 c33d ab04 079b
00000040: a863 94af 0b30 973d e187 f7b0 1d68 e83d
00000050: 90f6 ad3d f8ea 07bb b980 993d 3387 e03d
00000060: edbb 2b9a 5300 c097 60b5 ecb6 9a8f 873d
00000070: 59ba f93d edab f4b0 3f0d 8e87 3d51 d13d
00000080: da28 cd3d 066b f03d 1594 063e 3698 999e
00000090: fdfb d9b5 1d69 dab9 1e7d b6ba a924 ee3d
000000a0: 4940 3cb1 1a8b c90a d89c a33d 714b b53d
000000b0: 0566 0386 3d9f 073e c42d 7c3d ad53 b6a2
000000c0: 17f0 683d ca8b 933d 6b64 ba3d 869f 80ba
000000d0: b547 e13d 147b d83d 8845 1385 6024 6228
000000e0: f09f 9d9e c4c8 1d9a 8433 df3d b319 a23d
000000f0: 3794 0d3e 0987 f4b0 28e4 7a10 eea5 f8b8
00000100: 15aa f63d 60b5 51b1 0da7 a6b8 eae5 61b4
00000110: b24f 9eb8 d0e5 d6a4 7ce6 9fba 035f acb0
00000120: 049a 4029 44ed 853d c082 8f8e 40ae b03d
00000130: 650e c63d b3af 19b8 cb23 be3d e796 f1a6
00000140: 02fc a73d 8228 b83d 5df2 7d3d 1ea7 b33d
00000150: 2cbc 96a6 a2c3 33af 616c 5f3d 05d4 a63d
00000160: d490 46aa f781 ff3d aec0 91b1 9a89 6a3d
00000170: 2db2 3134 6077 f8b3 077e 98af b91b b73d
00000180: 2246 729a f372 06ac 3a29 54ba b3ba 8f3d
00000190: 343f c73d d6fd 9f3d 9aa9 85ac 54ed cc3d
000001a0: 7792 d380 edcc 4bb4 ce6f c73d 3dac 0a80
000001b0: 0585 ca8f 739a d93d e70d cf3d b82a 9f3d
000001c0: 5b09 88b6 dca7 843d 105d 903d 2791 d03d
000001d0: e358 923d 5285 62ac 1053 f9b0 1ff9 4ab4
000001e0: 763a b03d 9ece 993d b2c0 9e99 c86c 06b5
000001f0: 9f8f 59b7 c5b7 929e 5451 a63d f5d5 2ea7

fc.weight f4 [1, 128]
0.2641672 0.20247209 -7.032593e-06 3.276244e-23 0.20099415 0.34693173 5.589113e-28 -4.6147813e-21
0.2704161 0.33095384 4.412133e-09 0.317736 1.6438375e-24 -3.5129777e-10 0.24363934 1.0942282e-22
-1.2402343e-10 0.18756758 -4.554363e-10 0.29016316 0.21630307 0.0021214935 0.19048479 0.28020608
3.6139946e-23 3.9617186e-25 -0.0015761452 0.16790153 0.31203544 1.4075482e-08 -2.7716724e-34 0.26097405
0.25571692 0.30028012 0.33654433 8.0502046e-22 -0.000237973 0.001412067 -0.00058601424 0.2974066
-6.2426073e-09 -5.2196263e-32 0.20323679 0.22556293 -8.7982515e-35 0.33917376 0.1559947 -2.2724713e-17
0.14392564 0.18298157 0.23200382 -1.48503095e-05 0.281157 0.27003363 -1.0752755e-35 -9.947934e-14
4.0984647e-21 2.3239926e-23 0.27852905 0.20132972 0.3541753 6.986949e-07 3.442782e-27 0.0009102515
0.30816805 8.42372e-10 0.00013641984 3.2717967e-08 6.748037e-05 2.723395e-16 0.00028136326 -7.99411e-09
8.5928226e-14 0.16584595 -1.1480126e-29 0.21973506 0.2467427 0.0009085002 0.23673926 3.8524875e-15
0.2087544 0.22918127 0.15710533 0.22348888 1.327143e-15 -2.7133654e-10 0.13796322 0.20729545
-2.2562303e-13 0.3193278 -1.0543688e-06 0.14492783 -9.766867e-07 -9.548668e-08 1.5760059e-10 0.22785492
3.6196245e-23 2.0034204e-12 -2.1023343e-06 0.17817684 0.24824704 0.198669 -2.2754258e-10 0.2554237
7.23235e-39 3.2650922e-07 0.24848685 4.093148e-39 1.4320768e-29 0.27145228 0.25811356 0.19762863
-2.296089e-06 0.16424707 0.17897503 0.26002574 0.18147153 8.4244264e-14 -9.764024e-09 8.8381685e-06
0.21916373 0.19086926 -9.192996e-24 2.459715e-07 -1.0481292e-05 2.2237955e-21 0.20665154 5.0897147e-15
00000000: ec40 873e d854 4f3e 84f9 ebb6 f06d 1e1a
00000010: 69d1 4d3e 09a1 b13e 4620 3112 6d57 ae9d
00000020: fb73 8a3e c872 a93e 8899 9731 4bae a23e
00000030: 1d5f fe17 c420 c1af 977c 793e b948 041b
00000040: 7e5d 08af b711 403e f660 faaf 4490 943e
00000050: 8d7e 5d3e c108 0b3b 720e 433e 2c77 8f3e
00000060: 16c3 2e1a f037 f516 a896 ceba 61ee 2b3e
00000070: 1cc3 9f3e a0d0 7132 9035 b887 649e 853e
00000080: 54ed 823e 51be 993e 8a4f ac3e 714d 731c
00000090: 6488 79b9 1b15 b93a c09e 19ba ae45 983e
000000a0: 8e7e d6b1 5e82 878b 4e1d 503e f8f9 663e
000000b0: cce5 e986 2fa8 ad3e 13bd 1f3e 3699 d1a3
000000c0: 3e61 133e 855f 3b3e 6992 6d3e 9825 79b7
000000d0: cff3 8f3e d941 8a3e 91af 6485 ef01 e0a9
000000e0: ebd5 9a1d 45c3 e019 5c9b 8e3e 6129 4e3e
000000f0: 7756 b53e f38d 3b35 f561 8813 f29d 6e3a
00000100: 34c8 9d3e a98c 6730 ec0b 0f39 c985 0c33
00000110: 3f84 8d38 37fe 9c25 f083 9339 7856 09b2
00000120: 407e c129 85d3 293e 39d8 688f 3a02 613e
00000130: 1eaa 7c3e 6b28 6e3a c76b 723e edcc 8a27
00000140: b7c3 553e 7fae 6a3e 38e0 203e 45da 643e
00000150: ef42 bf26 392b 95af 3b46 0d3e 4245 543e
00000160: 6907 7eaa ef7e a33e d683 8db5 f667 143e
00000170: b316 83b5 5c0e cdb3 9f48 2d2f cd52 693e
00000180: c808 2f1a 6afa 0c2c d415 0db6 fd73 363e
00000190: 7934 7e3e e36f 4b3e 8b2f 7aaf e5c6 823e
000001a0: d9c0 4e00 164b af34 5673 7e3e 0892 2c00
000001b0: d73a 910f cbfb 8a3e 7627 843e 295f 4a3e
000001c0: 8216 1ab6 6230 283e 3b45 373e 1822 853e
000001d0: acd3 393e 83b3 bd29 a2be 27b2 a547 1437
000001e0: 756c 603e 3b73 433e 83d1 3199 110e 8434
000001f0: ced8 2fb7 7606 281d 769c 533e 5560 b727
