project2-continous_control/checkpoint/critic_local.pth (torch_old, 435694 bytes, 7 tensors)

state_layers.0.weight f4 [256, 33]
0.0012383176 -0.0063325646 -0.013712389 0.0004256293 0.00081122434 -0.0019250129 0.0008959409 -0.0019194924
-0.004554595 -0.006664148 -0.012082671 7.321799e-05 -0.003937628 0.025536796 0.019675473 0.027624529
-0.0020213672 -0.0035589852 0.008340773 0.0058598327 -0.0066839536 0.00040289154 0.004599418 -0.012397675
0.014390765 -0.013984427 -0.020822376 -0.0058103325 -0.024303686 -5.9889e-41 0.0058103325 1.20671e-40
-0.027012493 0.03829174 -0.008021923 0.021072412 -0.017513042 0.008188692 0.01277215 0.010976871
-0.0038820722 0.004242705 -0.0098079 -0.0114413425 0.012134177 0.007122858 -0.0732745 0.0063379225
-0.003492596 -0.0062558157 0.0066386135 0.002715664 -0.0049363347 0.00034686513 -0.0055668023 0.0056528733
-0.03939232 0.014229764 -0.006372763 0.024391474 0.014388042 -0.022934446 2.6719e-41 -0.014388042
-1.5716e-41 -0.0794166 -0.0011236942 0.0064873574 0.0019218781 -0.0056723277 -0.0005917364 -0.00017297768
0.0014295419 -0.00089190283 0.0013514811 0.0007051536 0.0014344298 0.0026563196 0.0011115574 0.00035973583
0.0065521277 -0.000660491 0.0021085727 -0.00048213697 -0.0013365608 -9.0181624e-05 0.0022225522 -0.005474899
-0.0018917265 0.0012205736 -0.00095282675 0.0021059331 0.0017814166 0.0052645784 -0.0007299067 9.9491e-41
-0.0052645784 -6.5802e-41 0.00040046635 0.011436064 0.015735954 0.0769911 -0.00032479822 -0.00011970823
-0.013952312 0.012513796 -0.0015236231 -0.007488251 0.006135563 -0.00089542737 -0.0011855916 0.00634276
0.01009108 -0.009769184 -0.04424854 -0.006897914 0.00010432871 -0.006778299 0.0081109 -0.0006713927
-0.004116522 0.0052169384 0.003048792 -0.00803492 -0.013047927 -0.023730576 0.024988526 0.004558991
-7.022e-42 -0.024988526 7.8306e-41 0.048756618 -0.000112220005 0.0016001413 0.000106933214 -5.82114e-05
0.00034424153 -0.000561625 -9.419352e-05 0.0004070591 -0.0008489595 -0.00019138564 0.00044273867 0.0006049685
-0.0003700914 -0.00068063475 0.0027076222 -0.00026947836 0.0001647906 0.00015819963 -5.3172225e-05 -1.1630191e-05
-0.00048649995 -0.00036434215 -0.00013956527 -0.00021819439 0.0015370395 0.00021357849 -0.0005883435 3.8554866e-05
-0.00014993665 5.9276e-41 -3.8554866e-05 -1.0493e-41 -0.0005197554 0.018300483 0.006341578 -0.028587408
0.002490102 0.007428464 0.0026927618 0.0007002024 0.005169373 -0.016633054 -0.0024259323 -0.010728443
0.0062907417 0.011660385 -0.046756 0.013340651 0.055677935 0.005443852 -0.012379834 0.0028125101
-0.0011655345 0.00507254 0.01298413 0.029778456 0.001700104 -0.0055198963 0.009104195 0.036590178
0.022058235 -0.023516892 7.8494e-41 -0.022058235 9.4897e-41 0.09550929 -0.061614074 0.024238918
-0.014706466 -0.018843602 -0.017361585 0.004440333 -0.0028610956 -0.006811233 -0.0052968827 -0.0034012413
-0.011274344 0.009775984 0.00379121 -0.010555847 0.010744535 0.0142764235 -0.008046506 -0.0107376175
-0.0013749558 0.0019241959 -0.0078634 0.016575057 0.007626816 0.014977283 0.00085946167 0.016792176
0.044505257 0.000110650464 -0.01214366 4.9251e-41 -0.000110650464 -5.9519e-41 -0.07892341 0.022128407
-0.07324655 0.022814255 0.017780328 0.0018243304 0.011302283 -0.0033699796 -0.0069188233 0.0024491104
-0.013216955 0.012148539 -0.009385091 0.021309042 0.021609355 -0.046679877 0.007119081 -5.745553e-05
-0.0038645596 -0.0046824785 0.0045974893 0.01738017 0.0061520752 -0.0036606125 0.030224463 -0.033781145
00000000: 0b4f a23a 6781 cfbb eea9 60bc ff26 df39
00000010: 58a8 543a b750 fcba 93dd 6a3a 7a97 fbba
00000020: b63e 95bb ed5e dabb 65f6 45bc 9c8c 9938
00000030: 3807 81bb 8b32 d13c 752e a13c d64c e23c
00000040: ea78 04bb dd3d 69bb bda7 083c d703 c03b
00000050: 1105 dbbb 303b d339 b7b6 963b 9e1f 4bbc
00000060: 3ec7 6b3c f01e 65bc b093 aabc 9a64 bebb
00000070: 8618 c7bc f2a6 0080 9a64 be3b 6250 0100
00000080: 4e49 ddbc cdd7 1c3d 626e 03bc 0da0 ac3c
00000090: 8377 8fbc dd29 063c 4842 513c 55d8 333c
000000a0: 5d6a 7ebb 6406 8b3b 50b1 20bc 7874 3bbc
000000b0: 6dce 463c dd66 e93b f110 96bd 59ae cf3b
000000c0: 0ae4 64bb 96fd ccbb ba88 d93b 48f9 313b
000000d0: fac0 a1bb 73db b539 b969 b6bb bd3b b93b
000000e0: d759 21bd f523 693c 9cd2 d0bb a1d0 c73c
000000f0: d2bb 6b3c 05e1 bbbc 7b4a 0000 d2bb 6bbc
00000100: cf2b 0080 2ca5 a2bd ec48 93ba e693 d43b
00000110: 87e7 fb3a efde b9bb c21e 1bba 5861 35b9
00000120: 775f bb3a 96ce 69ba 2e24 b13a 0fda 383a
00000130: 7a03 bc3a a615 2e3b adb1 913a ed9a bc39
00000140: 3bb3 d63b cd24 2dba fb2f 0a3b 54c7 fcb9
00000150: 8a2f afba e41f bdb8 3da8 113b c866 b3bb
00000160: cff3 f7ba a7fb 9f3a 1fc7 79ba b203 0a3b
00000170: 6c7e e93a 7c82 ac3b 3657 3fba 5715 0100
00000180: 7c82 acbb 6eb7 0080 aff5 d139 545e 3b3c
00000190: b0e8 803c 83ad 9d3d ae49 aab9 de0b fbb8
000001a0: 3d98 64bc aa06 4d3c 4fb4 c7ba 0160 f5bb
000001b0: d50c c93b 1dbb 6aba da65 9bba edd6 cf3b
000001c0: 0f55 253c ed0e 20bc f53d 35bd e607 e2bb
000001d0: 0dcb da38 7e1c debb 95e3 043c 6700 30ba
000001e0: e4e3 86bb daf2 aa3b 3ece 473b e6a4 03bc
000001f0: f9c6 55bc a066 c2bc bdb4 cc3c 9763 953b
00000200: 9313 0080 bdb4 ccbc 49da 0000 05b5 473d
00000210: a857 ebb8 d5bb d13a 5541 e038 0428 74b8
00000220: 517b b439 043a 13ba c389 c5b8 8c6a d539
00000230: b58c 5eba b1ae 48b9 611f e839 c096 1e3a
00000240: d408 c2b9 a06c 32ba 5d72 313b c648 8db9
00000250: a4cb 2c39 64e2 2539 3e05 5fb8 4a1f 43b7
00000260: eb10 ffb9 2d05 bfb9 4458 12b9 1ccb 64b9
00000270: 7d76 c93a 0af4 5f39 103b 1aba f9b5 2138
00000280: 5038 1db9 3da5 0000 f9b5 21b8 401d 0080
00000290: 3240 08ba e5ea 953c 03cd cf3b 2430 eabc
000002a0: fb30 233b 796a f33b 0c79 303b ca8d 373a
000002b0: d863 a93b 0b42 88bc 64fc 1ebb 5ac6 2fbc
000002c0: 9122 ce3b 330b 3f3c 3883 3fbd bf92 5a3c
000002d0: 8c0e 643d 5762 b23b cad4 4abc 1752 383b
000002e0: d9c4 98ba 8d37 a63b 63bb 543c f3f1 f33c
000002f0: 06d6 de3a 3fe0 b4bb c329 153c 95df 153d
00000300: 79b3 b43c 7fa6 c0bc cfda 0000 79b3 b4bc
00000310: 8908 0100 609a c33d 0a5f 7cbd b290 c63c
00000320: 64f3 70bc e65d 9abc e239 8ebc 3780 913b
00000330: 3881 3bbb c330 dfbb 7991 adbb 5ce7 5ebb
00000340: 07b8 38bc 732b 203c f375 783b 6ef2 2cbc
00000350: d909 303c a9e7 693c 7ed5 03bc d5ec 2fbc
00000360: dc37 b4ba 4d35 fc3a 7dd5 00bc 6ac8 873c
00000370: 5fea f93b 4763 753c 7f4d 613a bf8f 893c
00000380: 254b 363d 040d e838 34f6 46bc 4b89 0000
00000390: 040d e8b8 eaa5 0080 99a2 a1bd a246 b53c
000003a0: 4a02 96bd f6e4 ba3c 0da8 913c 5f1e ef3a
000003b0: 362d 393c e0da 5cbb 4cb7 e2bb 4181 203b
000003c0: ed8b 58bc aa0a 473c edc3 19bc 4d90 ae3c
000003d0: 1a06 b13c 6633 3fbd 2e47 e93b 68fc 70b8
000003e0: 8d44 7dbb 7a6f 99bb 89a6 963b dc60 8e3c
000003f0: 5997 c93b e3e6 6fbb 4b99 f73c 195e 0abd

state_layers.0.bias f4 [256]
0.0058103306 -0.014388056 -0.005264578 -0.024988525 -3.855492e-05 -0.022058252 -0.00011064636 0.047724612
-8.116054e-05 -0.0015373275 -0.0006901861 -0.04410955 -0.08266461 -0.0054261344 3.208572e-05 -0.009780774
0.009856403 -0.006091019 -0.00937868 -0.038629644 0.007414631 0.038613297 0.002730656 -0.00012341505
-0.00044539108 -0.029522553 -0.00022991869 -0.02497126 0.012583657 -0.0029556951 -0.030912822 -0.0064829094
-0.0051252255 -0.007418652 -0.0033243143 -0.031970225 -0.012384902 -0.004031628 0.0038486058 -0.009489037
0.009011627 -0.017683154 -0.010967927 -0.023847686 0.04102343 -0.0056587816 -0.00041603646 0.0206511
-0.02916727 0.0006622484 -0.00033068043 -0.0052644163 -0.004115517 -0.024084283 -0.0032084722 0.008743698
-0.014271942 -0.011725777 -0.0012580283 -0.00080633955 -0.011222244 0.011517393 0.010557639 -0.001729993
-8.101508e-05 -0.022945452 -0.03872754 0.0035072668 -0.0009219767 0.000896272 -0.00034985656 -0.000488229
0.012766055 0.0008949231 -0.00020756519 -0.007806288 -0.026509123 -0.009066516 -0.0016650201 -0.008871644
-0.0024130887 -0.0060887686 -0.00072511996 -0.021411393 -0.012351543 -0.007218529 0.0025479777 -0.012098677
-0.006330197 -0.054472055 -0.0002617578 -0.009045957 -0.018261068 -0.00120527 -0.0025212392 -0.000121805846
-0.0077581876 -0.00067946414 0.001420923 -0.004454883 -0.0010777413 -0.011609401 0.0020497092 -0.02935257
-0.0064752237 -0.001151344 0.0053336266 0.020464396 -0.00012246861 -0.0039391653 -0.03605951 -0.013861932
0.003946255 -0.00019094434 -0.0026293227 -0.0067455447 -0.0036334181 0.052904468 0.05101987 -0.0031781057
0.017465359 -0.057449255 -0.0033367358 -0.010480569 0.0035227037 0.014923945 -0.0064525856 -0.00038012624
-0.0050824704 -0.009106557 -0.00684233 -0.02941698 -0.0128281545 -0.01195407 -0.001666123 -0.017257797
0.0076195323 -0.053517643 -0.031263944 0.004614302 -0.011804754 -0.00379856 -0.048784778 0.0029414434
0.017519511 -0.00970946 0.01605714 -0.0010103354 -0.0075645214 -0.0011745675 -0.060221262 -0.0009862491
-0.00908333 0.003805815 -0.029786263 -0.019717125 -0.003759618 -0.0075827106 -0.0062036877 0.004603495
0.0068022627 -0.019703021 -0.036101416 -0.0007122349 -0.0062810406 -0.033829723 -0.001465318 -0.0017161994
0.018859182 -0.016704964 -0.0012961914 0.0005905954 0.008753735 0.004150147 -0.043568537 -0.021698056
-0.00028689206 -0.028088957 -0.007556103 -0.0056689414 -0.0054759253 -0.0016388532 -0.00069850206 -0.0070814686
-0.040321156 -0.00015296417 -0.0017955975 -0.0075238626 0.004097473 -0.0024871062 -0.004448072 -0.0005284156
0.008447864 -0.0052653295 0.00025613216 -0.041517135 -0.00080458383 -0.013954364 -0.004216929 -0.00089333276
-0.019330557 -0.0047444194 -0.001135073 -0.00038670906 -0.016670842 -0.018497843 -0.0010446607 -0.00055127183
-0.00467089 -0.0055993847 -0.009392621 -0.016593916 -0.00024123155 -0.0038619263 -0.0301455 -0.016712647
0.003742227 -0.005244413 -0.0027463904 -0.018647121 -0.014148146 -0.021838386 0.001632031 -0.009713674
-0.02414842 -0.014144236 -0.012527485 0.018586187 0.009491687 -0.0006171883 0.010200306 -0.01172026
-8.025269e-05 -0.016823905 -0.0033646876 -0.0009358442 -0.00048558705 -0.00027028265 -0.029716738 -0.002610342
0.004989554 -0.0006617717 -0.009285682 -0.022534769 -6.56796e-05 -0.000544622 -0.004198514 -0.016590208
-0.0010039712 0.0019691382 -0.029565183 -0.00023471586 -0.005483142 -0.00040361783 -0.00076410576 0.0046521514
00000000: 9664 be3b e1bb 6bbc 7b82 acbb bcb4 ccbc
00000010: 08b6 21b8 82b3 b4bc d00a e8b8 e27a 433d
00000020: bc34 aab8 2780 c9ba 9bed 34ba 37ac 34bd
00000030: 104c a9bd b7cd b1bb c893 0638 8a3f 20bc
00000040: c07c 213c 2c97 c7bb 09a9 19bc 1e3a 1ebd
00000050: 6ff6 f23b fa28 1e3d cef4 323b fa68 01b9
00000060: 6183 e9b9 48d9 f1bc 5416 71b9 8790 ccbc
00000070: af2b 4e3c 56b4 41bb e33c fdbc 966e d4bb
00000080: 82f1 a7bb 2a18 f3bb bddc 59bb 36f3 02bd
00000090: 0bea 4abc bf1b 84bb e438 7c3b e877 1bbc
000000a0: 81a5 133c 43dc 90bc d2b2 33bc 395c c3bc
000000b0: 2f08 283d 4d6d b9bb 781f dab9 7f2c a93c
000000c0: 33f0 eebc bd9a 2d3a 2d5f adb9 2081 acbb
000000d0: 75db 86bb 674c c5bc 3b45 52bb ba41 0f3c
000000e0: ddd4 69bc 791d 40bc 6de4 a4ba 8860 53ba
000000f0: 81dd 37bc 73b3 3c3c f3f9 2c3c efc0 e2ba
00000100: a4e6 a9b8 1af8 bbbc c5a0 1ebd 2cda 653b
00000110: cfb0 71ba ccf3 6a3a f46c b7b9 fdf8 ffb9
00000120: b728 513c 4699 6a3a dba5 59b9 e4cb ffbb
00000130: a929 d9bc b98b 14bc ce3c daba 5f5a 11bc
00000140: e924 1ebb 4b84 c7bb fa15 3eba f266 afbc
00000150: 205e 4abc 6989 ecbb f9fb 263b 8839 46bc
00000160: 8b6d cfbb 171e 5fbd 8a3c 89b9 7e35 14bc
00000170: 3c98 95bc 26fa 9dba 603b 25bb 0472 ffb8
00000180: 6538 febb 111e 32ba 443e ba3a 44fa 91bb
00000190: ff42 8dba 5b35 3ebc 6a54 063b cd74 f0bc
000001a0: 1d2e d4bb b2e8 96ba b4c5 ae3b f3a4 a73c
000001b0: eb6a 00b9 1d14 81bb 23b3 13bd 281d 63bc
000001c0: 964f 813b 3b38 48b9 b750 2cbb bb09 ddbb
000001d0: a41e 6ebb 5bb2 583d 36fa 503d c447 50bb
000001e0: 8313 8f3c e94f 6bbd 23ad 5abb b1b6 2bbc
000001f0: 29dd 663b 9083 743c 3670 d3bb ae4b c7b9
00000200: da8a a6bb ab33 15bc a035 e0bb e1fb f0bc
00000210: 2e2d 52bc 01db 43bc d061 daba 3960 8dbc
00000220: 45ad f93b 5135 5bbd 9f0e 00bd 9233 973b
00000230: ba68 41bc 43f1 78bb 8cd2 47bd 3bc5 403b
00000240: 1485 8f3c 6d14 1fbc 438a 833c 3b6d 84ba
00000250: cedf f7bb f2f3 99ba 92aa 76bd 0745 81ba
00000260: 3fd2 14bc fb6a 793b 5202 f4bc cf85 a1bc
00000270: ec63 76bb 6378 f8bb 4e48 cbbb ead8 963b
00000280: 84e5 de3b 3b68 a1bc 14df 13bd 46b5 3aba
00000290: 30d1 cdbb 0991 0abd ea0f c0ba 19f2 e0ba
000002a0: 927e 9a3c d9d8 88bc f7e4 a9ba 30d2 1a3a
000002b0: d36b 0f3c f5fd 873b ec74 32bd 1fc0 b1bc
000002c0: 006a 96b9 d01a e6bc 3099 f7bb 87c2 b9bb
000002d0: 646f b3bb cace d6ba ae1b 37ba aa0b e8bb
000002e0: cc27 25bd 0265 20b9 415a ebba bc8a f6bb
000002f0: 1844 863b b8fe 22bb 22c1 91bb 5f85 0aba
00000300: e968 0a3c c988 acbb 7a49 8639 df0d 2abd
00000310: b5ea 52ba d8a0 64bc 2a2e 8abb 8c2e 6aba
00000320: 1e5b 9ebc 1377 9bbb bbc6 94ba 36bf cab9
00000330: 4a91 88bc ca88 97bc ffec 88ba 3a83 10ba
00000340: 440e 99bb 0b7b b7bb 82e3 19bc f7ef 87bc
00000350: 1af3 7cb9 5f18 7dbb b2f3 f6bc f6e8 88bc
00000360: 2740 753b 53d9 abbb c9fc 33bb d9c1 98bc
00000370: a0cd 67bc 6ae6 b2bc e0e9 d53a 1a26 1fbc
00000380: e8d2 c5bc 3abd 67bc 1540 4dbc 0f42 983c
00000390: 0583 1b3c ceca 21ba 2f1f 273c 5506 40bc
000003a0: 564d a8b8 49d2 89bc 1782 5cbb 7153 75ba
000003b0: 6496 feb9 b9b4 8db9 8470 f3bc 4612 2bbb
000003c0: 6a7f a33b bf7a 2dba f922 18bc d69a b8bc
000003d0: 77bd 89b8 f7c4 0eba b093 89bb 30e8 87bc
000003e0: af97 83ba a80c 013b af32 f2bc 0f1e 76b9
000003f0: eeab b3bb ab9c d3b9 454e 48ba 1371 983b

action_layers.0.weight f4 [256, 260]
3.900044e-08 4.2366857e-08 5.873067e-09 1.2654398e-07 5.8221232e-09 2.3431866e-08 6.430859e-08 -0.00029156363
1.0875996e-07 3.4271574e-09 -1.5941368e-11 4.8383697e-08 2.3543148e-08 6.276725e-09 2.4631216e-08 7.4689254e-08
-8.306872e-06 1.1079849e-08 9.226962e-08 2.0178257e-08 4.7006796e-07 1.0757838e-07 1.864977e-07 5.560859e-11
2.391812e-10 2.77324e-08 2.9888086e-10 2.1235953e-09 2.0590913e-07 1.5335868e-08 -2.2178503e-08 2.78448e-08
-5.8351176e-08 3.793337e-08 1.621795e-08 9.116752e-08 1.211852e-07 2.0205044e-07 1.19055965e-08 3.6996756e-08
3.9471993e-07 1.407595e-07 1.2136307e-07 -9.678315e-09 -7.4813374e-06 -2.2603204e-07 -1.8979429e-10 7.667542e-08
2.9017643e-08 5.9682186e-08 3.8761513e-10 2.1075871e-07 1.0749779e-08 8.294609e-08 6.889854e-08 1.3299095e-07
-3.3728391e-09 1.0329751e-08 4.2943477e-10 -2.4628757e-09 -3.5015024e-08 9.83619e-09 5.556947e-07 2.6548308e-10
1.252867e-10 -2.8442258e-08 1.5399629e-09 3.440747e-07 1.0857528e-07 1.4661482e-07 1.3298036e-10 -1.7321186e-10
1.6032482e-07 4.7187615e-07 -2.2566501e-10 4.1348077e-08 8.101594e-08 4.324905e-08 3.8831425e-07 1.1782037e-07
9.0624155e-08 2.3488572e-07 2.626397e-10 6.2552026e-08 -2.7945292e-08 -3.045556e-08 2.8108943e-07 1.795096e-08
1.398493e-07 3.11556e-08 1.1388378e-09 -1.04756355e-08 5.8385616e-08 6.586072e-10 8.3886204e-10 4.6547183e-11
4.8595282e-08 5.816134e-10 2.629579e-07 -8.920787e-08 6.547034e-11 1.2659063e-07 -5.2739177e-09 2.6519569e-08
6.273013e-08 7.122949e-09 2.0648804e-07 -1.6006649e-06 2.7396536e-09 -4.4653813e-08 9.5565646e-08 5.905929e-08
1.4872401e-07 2.0095614e-10 2.1251196e-09 8.0467586e-08 2.8072968e-08 5.2221594e-07 -0.00012669731 2.2314246e-07
9.6731085e-08 6.723162e-08 1.0150239e-07 6.3152484e-08 2.1051864e-07 1.2763567e-07 1.03694425e-07 3.1698924e-10
1.771334e-07 1.256791e-07 3.9113868e-08 -7.710124e-09 3.827923e-08 -5.5310334e-08 7.443128e-08 4.691242e-08
1.0599103e-07 -1.2298796e-08 3.2654497e-09 6.9930365e-08 -7.545059e-08 2.1231063e-08 3.721067e-08 1.4303528e-07
-1.5245594e-05 9.143087e-08 3.1767064e-07 -1.2267822e-07 -4.0069303e-08 7.6731277e-10 -2.7450662e-08 -6.213262e-11
4.085702e-08 9.9508114e-08 2.543815e-07 1.7909689e-07 2.1298867e-07 1.1659783e-08 -7.663894e-09 5.6499598e-08
7.9258456e-08 6.4557454e-08 5.5183918e-08 -1.5912739e-10 3.3075182e-07 -5.988032e-08 1.0453157e-10 1.1885634e-09
-1.3830469e-06 2.2225706e-07 2.8051585e-09 2.1586473e-07 1.2108225e-07 1.894208e-07 5.9025922e-08 1.9939366e-09
4.108474e-10 8.153627e-08 2.5157357e-08 1.5303407e-08 1.3939803e-07 1.4848976e-08 -7.798435e-10 -5.710053e-09
2.5731085e-08 9.2384524e-11 -8.595407e-10 -2.6916688e-08 1.731991e-07 6.1362115e-10 -2.1115925e-08 2.95396e-10
3.5452018e-07 1.901092e-07 1.1078751e-07 -2.270924e-08 9.893959e-11 1.2654707e-09 -3.995212e-09 8.716674e-09
-3.6880657e-08 -2.5923772e-09 -1.3115514e-11 -2.5380864e-10 -2.687706e-08 1.276875e-07 2.5143285e-07 4.955926e-10
1.0846633e-08 4.286867e-08 3.057873e-08 1.228828e-08 1.6924463e-10 2.5183184e-08 3.0424445e-08 2.458914e-08
1.8897545e-08 5.779124e-09 5.421133e-08 9.389434e-08 3.7182172e-08 -4.8655544e-08 4.4175227e-08 1.5360099e-08
8.365916e-08 4.9097444e-08 6.433254e-08 -5.0584454e-06 3.303407e-07 9.1574115e-10 1.7784825e-07 2.501999e-07
8.071757e-11 1.1914936e-07 4.3329447e-08 3.3353655e-09 4.037564e-10 2.2653429e-10 7.977545e-08 2.493583e-09
2.7768108e-08 1.2608567e-07 -9.141936e-09 9.355097e-08 4.608809e-11 -6.513584e-11 3.5642687e-09 -8.71648e-08
1.02674695e-08 9.978422e-09 5.662295e-08 -5.228709e-10 1.6671647e-08 2.3294233e-09 -2.261985e-10 1.2997339e-07
00000000: 7081 2733 daf6 3533 0bcc c931 25e0 0734
00000010: f00b c831 3847 c932 051a 8a33 02dd 98b9
00000020: 6c8f e933 3183 6b31 c538 8cad 70ce 4f33
00000030: ee3b ca32 a8aa d731 9e94 d332 da64 a033
00000040: be5d 0bb7 b159 3e32 c325 c633 7554 ad32
00000050: a65d fc34 d705 e733 1940 4834 b591 742e
00000060: c37d 832f 3138 ee32 be4f a42f afee 1131
00000070: df17 5d34 eebb 8332 0b83 beb2 5d2f ef32
00000080: cc9d 7ab3 2eec 2233 a64f 8b32 e0c7 c333
00000090: 221f 0234 34f3 5834 5e89 4c32 5de6 1e33
000000a0: e5e9 d334 ad23 1734 0750 0234 ae45 26b2
000000b0: 3308 fbb6 37b3 72b4 58ae 50af c2a8 a433
000000c0: 7942 f932 a12a 8033 fb17 d52f ea4c 6234
000000d0: 07ae 3832 1820 b233 5ff5 9333 46cc 0e34
000000e0: 9dc7 67b1 ba76 3132 9215 ec2f 5e3f 29b1
000000f0: 6d63 16b3 05fc 2832 0d2b 1535 6cf3 912f
00000100: 12c1 092f 3051 f4b2 a1a6 d330 44b9 b834
00000110: e429 e933 2d6d 1d34 a536 122f ce72 3eaf
00000120: c025 2c34 2a56 fd34 0e1f 78af b196 3133
00000130: fcfa ad33 d5c0 3933 8179 d034 6f04 fd33
00000140: 289d c233 e534 7c34 4063 902f 5754 8633
00000150: 590c f0b2 3ece 02b3 a3e8 9634 9432 9a32
00000160: 7c29 1634 f2cf 0533 4b85 9c30 55f8 33b2
00000170: aac3 7a33 5d09 3530 ab95 6630 78b7 4c2e
00000180: 14b7 5033 68df 1f30 a92c 8d34 8c92 bfb3
00000190: 86f8 8f2e f8ec 0734 df35 b5b1 26cd e332
000001a0: 41b6 8633 1fbe f431 00b7 5d34 6dd6 d6b5
000001b0: 7f44 3c31 63c9 3fb3 c539 cd33 60a8 7d33
000001c0: f2b0 1f34 20f4 5c2f 8009 1231 86cd ac33
000001d0: 1c25 f132 682e 0c35 0dda 04b9 ef98 6f34
000001e0: 7aba cf33 f960 9033 87f9 d933 729e 8733
000001f0: ec0a 6234 3a0c 0934 9dae de33 4544 ae2f
00000200: 0f32 3e34 68f2 0634 27fe 2733 7c75 04b2
00000210: 7568 2433 5b8e 6db3 07d7 9f33 c07c 4933
00000220: 2f9d e333 ad4a 53b2 6666 6031 a02c 9633
00000230: 6707 a2b3 9a5f b632 90d1 1f33 3d95 1934
00000240: 54c7 7fb7 a758 c433 528c aa34 88b9 03b4
00000250: aa18 2cb3 d6ea 5230 a5cc ebb2 8ea1 88ae
00000260: c57a 2f33 2ab1 d533 ed91 8834 c74d 4034
00000270: e1b1 6434 4550 4832 2aaa 03b2 f7a9 7233
00000280: cc34 aa33 d6a2 8a33 5c03 6d33 61f6 2eaf
00000290: 2f92 b134 8e97 80b3 0bde e52e db5a a330
000002a0: 21a1 b9b5 8ea5 6e34 dfc4 4031 72c8 6734
000002b0: d602 0234 9863 4b34 b083 7d33 b405 0931
000002c0: a2dd e12f 0a19 af33 9d19 d832 8c74 8332
000002d0: 70ad 1534 7d1a 7f32 9c5c 56b0 2832 c4b1
000002e0: 4107 dd32 dd27 cb2e cd44 6cb0 6c36 e7b2
000002f0: 9bf8 3934 c0ab 2830 6962 b5b2 4b65 a22f
00000300: e254 be34 d220 4c34 14ea ed33 2612 c3b2
00000310: 0a92 d92e cbec ad30 4246 89b1 56c0 1532
00000320: b666 1eb3 9525 32b1 06bb 66ad 6488 8baf
00000330: 48df e6b2 791a 0934 abfc 8634 3b3a 0830
00000340: ff57 3a32 9a1e 3833 ab55 0333 6d1c 5332
00000350: 2116 3a2f 6852 d832 08ac 0233 1738 d332
00000360: 2454 a232 b691 c631 fdd5 6833 f6a2 c933
00000370: 3bb2 1f33 56f9 50b3 2dbb 3d33 37f1 8332
00000380: 1ca8 b333 36df 5233 3027 8a33 b7bb a9b6
00000390: ae59 b134 8eb7 7b30 8ef6 3e34 3653 8634
000003a0: f47f b12e 0edf ff33 3b19 3a33 5f34 6531
000003b0: a9f7 dd2f bc13 792f 0451 ab33 935b 2b31
000003c0: b786 ee32 2a62 0734 a90e 1db2 31e6 c833
000003d0: 94b2 4a2e 383c 8fae 47ef 7431 5b2f bbb3
000003e0: cf64 3032 906d 2b32 9831 7333 c5b9 0fb0
000003f0: 5735 8f32 a613 2031 38b5 78af d08e 0b34

action_layers.0.bias f4 [256]
-0.0007015677 -0.0003634814 -1.0391961e-19 -0.0078778155 0.06022299 -1.2193633e-12 -4.957155e-08 -9.762824e-07
-0.0002761696 -1.604455e-29 -1.0510157e-34 -4.1212557e-13 -9.084656e-10 -9.430305e-28 -3.162409e-17 -0.0006297667
-5.625592e-17 0.014175569 -6.017005e-08 0.020999476 -0.01732459 0.10945423 -7.398829e-05 -4.487648e-13
-0.00016546976 -3.0930355e-11 -0.0001268647 -1.5331267e-10 -3.3200966e-25 -9.995194e-08 -7.025272e-07 -4.599724e-17
-9.196457e-27 -0.011404515 -1.465371e-17 0.3655698 0.16986565 -5.2633462e-05 -1.5417972e-09 -1.1277181e-10
-0.00076009694 -6.861453e-14 -0.00038413637 -5.2968023e-08 -4.3674807e-11 -2.6464715e-31 -1.4438051e-05 -8.437672e-09
-0.0001488653 0.107759714 -7.9037277e-10 -2.31168e-14 -1.11248106e-07 -5.8882574e-06 -2.2807395e-05 0.13442369
-0.0010856605 -3.3081257e-10 -3.4085886e-05 -3.2772424e-29 -0.00094227144 -1.5922363e-31 -7.315319e-05 -0.0009705986
0.032460693 -5.4514214e-23 -4.431869e-22 -0.022693701 -3.1104071e-18 -5.6409806e-25 -1.1130387e-28 -4.026229e-05
-9.655594e-05 -1.5793103e-11 0.22393422 -1.0105506e-13 -0.000533736 -8.481417e-11 -3.504203e-29 -0.00074264256
-0.011870716 -0.00062142545 -8.36735e-15 -6.6325104e-16 -0.0002920022 1.3793434e-08 -1.6766267e-12 -6.8745747e-09
0.0048619383 0.1450368 -9.761363e-11 -8.290252e-06 -7.4657506e-13 -6.1006667e-05 -5.480526e-05 -3.589978e-09
-6.998952e-22 -1.930335e-32 -0.00079697114 -4.243141e-11 -1.10306105e-11 -3.915128e-14 -6.996836e-17 -3.075951e-05
-2.8815144e-08 -0.0007356816 -2.3040334e-10 0.2232632 -3.95183e-32 -5.311967e-08 -4.6690457e-05 -0.00013104624
-1.8622521e-33 0.13629101 0.055548295 -2.6753091e-11 0.015843268 -1.0250135e-09 -3.1530563e-09 -3.3008747e-16
-1.6123359e-15 -1.3181762e-14 -1.748346e-08 -3.3057384e-28 -1.0575407e-05 -1.0794254e-05 -1.3560078e-05 -7.412585e-15
-2.8024938e-29 -1.8370817e-15 -2.5312048e-07 -4.9930444e-29 -6.670635e-05 -0.001977153 0.23014657 -1.9974877e-12
-4.60058e-08 -1.0016201e-30 -1.1393936e-14 -3.6656524e-15 -5.7272402e-05 -0.016217807 0.056101903 -2.2213458e-06
-0.0023093221 0.052112047 -1.480162e-11 -1.613144e-13 -4.4099834e-05 -6.4776806e-08 0.06088859 -0.00024558246
0.015818821 -1.5126243e-07 -7.825922e-09 -1.6163983e-13 -5.9340185e-34 0.09038623 -2.8285376e-05 -8.063773e-08
-1.5765692e-16 0.15113275 -0.0033471945 -2.1689265e-28 -0.00051093835 -7.157643e-07 -3.204517e-14 -5.519987e-15
-7.5657765e-05 0.0013427567 -0.011844735 -9.144625e-09 -7.269594e-11 -0.0009177361 -0.0010611112 -0.00029709615
-5.6943874e-17 -2.6526023e-17 0.065539025 -0.000122332 -0.0006904528 -0.007416808 -0.0013130388 -3.5336504e-07
-3.0638765e-07 -0.000106835534 -1.7196864e-20 -9.3608765e-09 -1.0887999e-24 -0.0015303538 -3.2178873e-09 -0.0035962842
-0.0011648836 -6.3698877e-12 -2.6349959e-08 -2.3370867e-13 -1.6942157e-22 -2.2991003e-14 -0.01828789 -9.310361e-06
-1.4904562e-11 -3.044747e-11 -0.01456004 -6.3914965e-26 -2.2060602e-23 -0.00028279034 -1.2187256e-11 -1.8075019e-14
0.08624723 -3.272482e-06 -0.0010472173 -0.014011727 0.091981865 -1.3013175e-12 0.09165104 0.020800008
-0.014195564 -1.0101268e-18 -9.598906e-07 -0.0005238977 -3.0960994e-08 -0.0002240094 0.03455997 -4.6946522e-07
-1.3675304e-10 -0.0018457917 -0.038498946 -3.650499e-12 -0.03471969 -0.03179542 0.14359629 -0.0015688968
-0.0002524059 -0.030940356 -2.2804636e-07 -7.529781e-13 -9.5368685e-15 -3.3362833e-16 0.04804049 -1.29500195e-11
-0.0002959772 -5.247983e-14 -0.0033968622 0.0432435 -0.0014597635 -3.0583865e-30 -8.831896e-19 -0.0016853866
-5.844107e-14 -5.16394e-25 -7.3004575e-11 0.13743462 -1.9521067e-24 -0.003508064 -7.746558e-09 -1.224853e-33
00000000: 69e9 37ba a691 beb9 8d5f f59f f411 01bc
00000010: 62ac 763d 319c abab 7fe8 54b3 cf08 83b5
00000020: dbca 90b9 09b6 a28f 36b4 0b87 8e01 e8aa
00000030: 95b7 79b0 dd6d 9592 23d7 11a4 ee16 25ba
00000040: a2b7 81a4 a540 683c d636 81b3 1807 ac3c
00000050: 4cec 8dbc 8a29 e03d 292a 9bb8 d3a1 fcaa
00000060: f381 2db9 7c08 08ae fc06 05b9 ae91 28af
00000070: 0881 cd96 29a5 d6b3 4d95 3cb5 f51f 54a4
00000080: 9427 3694 01da 3abc 1828 87a3 f72b bb3e
00000090: 43f1 2d3e c0c2 5cb8 2be7 d3b0 e3fc f7ae
000000a0: 3e41 47ba 9581 9aa9 e965 c9b9 f57e 63b3
000000b0: 7615 40ae 0dc4 ab8c f53a 72b7 46f5 10b2
000000c0: ba18 1cb9 20b1 dc3d 8a41 59b0 b637 d0a8
000000d0: 4be7 eeb3 bf93 c5b6 8252 bfb7 5da6 093e
000000e0: b94c 8eba bbdd b5af 71f7 0eb8 0a2d 2690
000000f0: c402 77ba 20af 4e8c d269 99b8 c56f 7eba
00000100: 81f5 043d aace 839a edf1 059c 24e8 b9bc
00000110: ee81 65a2 7494 2e97 2c18 0d91 4edf 28b8
00000120: 137e cab8 e8ea 8aad 034f 653e 478e e3a9
00000130: 6bea 0bba 2282 baae 28af 3190 e6ad 42ba
00000140: 647d 42bc 28e7 22ba 97bb 16a8 4a2b 3fa6
00000150: df17 99b9 2af8 6c32 d8f6 ebab 6635 ecb1
00000160: e550 9f3b 8784 143e 97a7 d6ae 5c16 0bb7
00000170: 6724 52ab 69e1 7fb8 b3de 65b8 90b3 76b1
00000180: c587 539c 1b75 c88a d4eb 50ba 859d 3aae
00000190: 740d 42ad 5a52 30a9 0856 a1a4 c603 01b8
000001a0: 2c85 f7b2 c2da 40ba c654 7daf 1c9f 643e
000001b0: d530 4d8b b225 64b3 7fd5 43b8 7569 09b9
000001c0: b9b5 1a89 df8f 0b3e 9c86 633d 9b52 ebad
000001d0: bec9 813c 75e0 8cb0 27ad 58b1 5048 bea5
000001e0: b25c e8a6 2676 6da8 892e 96b2 ac86 d191
000001f0: 076d 31b7 f818 35b7 1780 63b7 8488 05a8
00000200: 731a 0e90 2d60 04a7 9de4 87b4 6c2d 7d90
00000210: b3e4 8bb8 1f93 01bb 8bab 6b3e 8a8f 0cac
00000220: e997 45b3 ac85 a28d 4141 4da8 ad11 84a7
00000230: c637 70b8 35db 84bc 1ccb 653d 6e12 15b6
00000240: ff57 17bb 7173 553d 4932 82ad b69f 35aa
00000250: d6f7 38b8 6d1b 8bb3 5066 793d 85c1 80b9
00000260: 7996 813c b36a 22b4 c572 06b2 82fd 35aa
00000270: 0c31 4588 6a1c b93d 6246 edb7 102b adb3
00000280: 1cc4 35a5 8bc2 1a3e 9b5c 5bbb d878 8991
00000290: 7ef0 05ba f322 40b5 9151 10a9 e5e0 c6a7
000002a0: 74aa 9eb8 70ff af3a 6b10 42bc 7c1a 1db2
000002b0: 2ddc 9fae 3a94 70ba fc14 8bba 92c3 9bb9
000002c0: bb4d 83a4 cda8 f4a3 5339 863d 3f46 00b9
000002d0: 81ff 34ba b208 f3bb 451a acba 1fb6 bdb4
000002e0: 997d a4b4 e40c e0b8 776b a29e 92d1 20b2
000002f0: cf7b a897 2796 c8ba ac21 5db1 a3af 6bbb
00000300: 02af 98ba d91e e0ac 2c58 e2b2 f890 83aa
00000310: 70d1 4c9b a515 cfa8 7cd0 95bc b233 1cb7
00000320: 171a 83ad cee8 05ae 3c8d 6ebc ec3e 9e95
00000330: 685b d599 7a43 94b9 8666 56ad 28ce a2a8
00000340: 63a2 b03d d09c 5bb6 c842 89ba 7191 65bc
00000350: fd60 bc3d e724 b7ab 8ab3 bb3d c764 aa3c
00000360: 8394 68bc 8311 95a1 97d5 80b5 2e56 09ba
00000370: f9f9 04b3 11e4 6ab9 c18e 0d3d cf0a fcb4
00000380: 8f5c 16af 7eee f1ba 12b1 1dbd c670 80ac
00000390: 3c36 0ebd ea3b 02bd e80a 133e 71a3 cdba
000003a0: 5955 84b9 a176 fdbc e8dc 74b4 caf1 53ab
000003b0: 0bcd 2ba8 da52 c0a5 1bc6 443d b4d1 63ad
000003c0: 632d 9bb9 2059 6ca9 e49d 5ebb 1920 313d
000003d0: 8955 bfba 3420 788e f655 82a1 31e8 dcba
000003e0: fc98 83a9 f3d0 1f97 ec89 a0ae a9bb 0c3e
000003f0: 7509 1798 8ce7 65bb b915 05b2 7c83 cb88

action_layers.1.weight f4 [128, 256]
-1.1391808e-06 -4.9711224e-07 -2.0702452e-22 0.015427787 0.014681579 -8.96397e-16 -3.2791346e-11 -9.593339e-12
-3.490262e-07 1.6701738e-31 6.055251e-36 -1.4682189e-16 -2.4786312e-13 -1.2631096e-29 -3.0344484e-20 -2.266807e-07
-7.7746195e-20 0.0076491386 -2.8188786e-11 0.01094773 -0.011170781 0.028934894 -6.056511e-08 -1.828786e-15
-2.3893526e-07 7.5949034e-13 -1.9852185e-07 -7.882916e-14 3.3099826e-28 -2.394806e-10 -1.1926146e-09 1.0617281e-18
-1.8516934e-28 -0.020968856 3.8609136e-21 0.08695436 0.032804403 -7.689942e-08 -1.7434205e-13 -3.1273657e-13
-2.1800458e-06 -8.299145e-17 -6.9009343e-07 -3.5577544e-11 -4.1724596e-13 2.2769269e-33 -2.4808996e-08 -7.921403e-12
-1.8476324e-07 0.031555064 -5.3213857e-13 -5.7296734e-16 -5.7039963e-11 -1.9923774e-09 -1.7576879e-08 0.029103694
-0.0010457465 1.7340896e-11 -5.7332528e-08 1.0965233e-30 1.2438771e-07 -3.1476807e-33 -8.863479e-08 -1.8532552e-06
0.017151844 -3.3929812e-25 9.041201e-22 -0.02146651 -2.3538771e-21 3.7914659e-28 1.4657182e-30 -6.5305436e-08
-1.1622217e-07 7.358717e-15 0.047665715 -3.0906835e-16 -8.8732713e-07 2.7418824e-16 9.1087045e-30 -1.1907891e-06
-0.006925168 -1.0039095e-06 3.6798622e-20 -7.911365e-19 -4.2608545e-07 6.844802e-08 -1.6817624e-14 1.00147685e-11
0.020943835 0.026190039 2.3476039e-12 -7.841017e-09 7.149171e-13 -5.2591645e-08 -8.250203e-08 -1.613976e-12
-3.0313702e-24 5.159679e-36 -1.3306288e-06 4.365735e-11 -6.1691053e-15 -4.9859072e-17 1.5307189e-21 -3.3073565e-08
7.1022975e-12 -6.5390935e-07 -5.1394436e-14 0.047364555 4.0116015e-33 -3.180596e-11 -9.7003245e-08 0.00721129
5.4462335e-35 0.03274269 0.026139474 -1.2786342e-14 0.01874957 -1.02465914e-13 4.2060747e-10 -5.34863e-20
3.583384e-19 -8.338833e-18 1.006793e-08 -5.9642383e-30 -1.1829892e-08 -7.9390166e-09 -1.6485211e-08 -8.44085e-19
-5.1530527e-31 -2.4158422e-18 -2.952623e-10 -1.0415737e-30 3.627306e-08 -5.1129978e-06 0.049445514 -7.5338546e-16
-1.2443128e-11 -1.5051044e-32 -4.360986e-18 -6.3649443e-18 -1.1246781e-07 -0.022936756 0.018777298 1.0500188e-10
0.00010047651 0.017090794 -7.307343e-14 -5.140502e-14 -5.79703e-08 -1.51996e-11 0.024669657 -3.2901397e-07
0.011221582 1.5655952e-07 -2.205588e-11 -2.5076392e-16 -3.8575087e-35 0.02510789 -5.5819783e-08 -9.586999e-11
-3.4219082e-20 0.09626268 3.8669237e-05 -2.413449e-30 -2.4485298e-06 -5.598154e-10 -9.805601e-19 1.056166e-19
-1.154035e-07 0.011059361 -0.018907605 -5.3639204e-11 -5.801385e-14 -1.578586e-06 3.5815342e-06 -5.0449916e-07
-3.4853378e-20 1.3146501e-20 0.020534176 -2.2368084e-07 -4.8508307e-05 -0.024955224 -3.6087558e-06 -1.8878608e-10
-2.4248464e-10 -1.6061557e-07 -6.422246e-23 -1.8841139e-11 -4.1187144e-27 -1.7290463e-06 -4.718585e-13 0.013857292
-3.4741784e-06 -3.8768037e-15 -1.932977e-11 1.3483884e-17 2.7781103e-24 -2.3027994e-17 -0.017151257 -1.1861824e-08
-3.348059e-15 -6.1135423e-13 -0.027327567 -6.712143e-27 -1.2112188e-24 -3.5509902e-07 -2.187132e-14 -1.8778315e-17
0.0381635 -4.4390744e-09 -2.8158302e-06 -0.014007037 0.022143038 -4.0712226e-16 0.016677747 0.022910984
-0.046225656 -4.8442225e-21 -4.474815e-10 -8.8197123e-07 -2.616335e-11 -6.7845343e-07 0.015736293 -4.9545806e-10
-2.2036304e-14 -2.4295764e-06 -0.024479048 -1.4474803e-15 -0.029549703 -0.013104931 0.05272019 -4.809589e-06
-2.3152481e-07 -0.023013944 -1.9202848e-10 -1.06175044e-16 -1.7122339e-18 -1.1532992e-18 0.015160657 -1.5699166e-14
-4.0973066e-07 -2.6155389e-15 2.169056e-05 0.017400362 -2.4490764e-06 6.0060757e-30 -1.895683e-21 -2.7672986e-05
-4.688957e-17 -1.0275245e-26 -2.94199e-14 0.044565372 -1.3506375e-25 -4.3167325e-05 -6.1691013e-12 -2.5706228e-35
00000000: f4e5 98b5 4b71 05b5 fc46 7a9b d4c4 7c3c
00000010: 018b 703c 362f 81a6 c637 10ae 8fc4 28ad
00000020: cc61 bbb4 0bcd 580c ecc7 0005 2c46 29a5
00000030: d788 8baa 3318 808f 3b4c 0f9f 8465 73b4
00000040: b192 b79f a0a5 fa3b 81f3 f7ad 1c5e 333c
00000050: a705 37bc df08 ed3c 0510 82b3 26c7 03a7
00000060: 0347 80b4 0cc7 552b 4529 55b4 eb81 b1a9
00000070: 8acb d111 e6a7 83af 65e9 a3b0 f4ae 9c21
00000080: e3ba 6a91 e1c6 abbc 77dc 911d 2115 b23d
00000090: e95d 063d e723 a5b3 ad4a 44aa 170e b0aa
000000a0: e74c 12b6 815d bfa4 dc3e 39b5 c178 1cae
000000b0: 7be3 eaaa e128 3d09 8f1b d5b2 d45a 0bad
000000c0: 5563 46b4 e23f 013d a0c8 15ab 8725 25a6
000000d0: 4add 7aae 46ea 08b1 f7fb 96b2 df6a ee3c
000000e0: 6e11 89ba 3a88 982d c83d 76b3 cceb b10d
000000f0: 6f8f 0534 e2bf 8289 7e57 beb3 5dbd f8b5
00000100: 0682 8c3c ef03 d296 74a0 881c 89da afbc
00000110: 9bda 319d 0d50 f011 8dd3 ed0d 0b3e 8cb3
00000120: d095 f9b3 1890 0428 203d 433d 702a b2a5
00000130: a830 6eb5 0b0f 9e25 19bf 380f 34d3 9fb5
00000140: 85ec e2bb 11be 86b5 cec6 2d1f 9580 69a1
00000150: bdc0 e4b4 b2fd 9233 cd7a 97a8 822e 302d
00000160: 6892 ab3c 7e8c d63c ac32 252c 28b5 06b2
00000170: 353b 492b 20e1 61b3 f82b b1b3 9d25 e3ab
00000180: 798a 6a98 ee77 db04 0f98 b2b5 ce01 402e
00000190: f443 dea7 34ef 65a4 d250 e71c c50c 0eb3
000001a0: cfe3 f92c 4f88 2fb5 c075 67a9 5601 423d
000001b0: aaa2 a609 54e2 0bae 1950 d0b3 af4c ec3b
000001c0: 25c9 9006 331d 063d 7322 d63c 9856 66a8
000001d0: b398 993c 94bb e6a9 3d3b e72f f894 7c9f
000001e0: 9186 d320 07d3 19a3 39f7 2c32 31f0 f18e
000001f0: 6a3c 4bb2 2a64 08b2 5d9b 8db2 4221 79a1
00000200: e339 278d f841 32a2 7952 a2af 4701 a98d
00000210: a7ca 1b33 5190 abb6 6187 4a3d 0926 59a6
00000220: dee6 5aad 8a4c 9c8a 59e4 a0a2 33d3 eaa2
00000230: d585 f1b3 dde5 bbbc d9d2 993c cee6 e62e
00000240: eab6 d238 fe01 8c3c f78b a4a9 f481 67a9
00000250: 05fb 78b3 75b2 85ad 0518 ca3c 56a3 b0b4
00000260: bada 373c c11a 2834 6d01 c2ad 398e 90a5
00000270: b019 4d86 10af cd3c 80be 6fb3 02d2 d2ae
00000280: 5598 219f 5e25 c53d c730 2238 60cd 438e
00000290: 6c51 24b6 82e1 19b0 83b4 90a1 5161 f91f
000002a0: bfd3 f7b3 5232 353c 1fe4 9abc 60e8 6bae
000002b0: b5a2 82a9 cddf d3b5 4a5a 7036 eb6c 07b5
000002c0: 2697 249f 9454 781e 4a37 a83c ec2c 70b4
000002d0: 6675 4bb8 e66e ccbc f42d 72b6 8f92 4faf
000002e0: ae4e 85af ac75 2cb4 c747 9b9a 79ba a5ad
000002f0: ba28 a393 9411 e8b5 fdd0 04ab b209 633c
00000300: ee25 69b6 34ad 8ba7 c606 aaad d8bb 7823
00000310: 25f2 5618 5065 d4a3 cb80 8cbc dbc8 4bb2
00000320: ca40 71a7 b714 2cab 10de dfbc 9cf2 0494
00000330: 526d bb97 70a4 beb4 d5ff c4a8 0b33 ada3
00000340: 5551 1c3d 8386 98b1 98f7 3cb6 c57d 65bc
00000350: 5165 b53c a4b0 eaa5 c59f 883c d1af bb3c
00000360: 1d57 3dbd 7202 b79d 6c01 f6af 9ac0 6cb5
00000370: a022 e6ad f71e 36b5 66e9 803c c330 08b0
00000380: 427c c6a8 ce0b 23b6 4988 c8bc 999a d0a6
00000390: 3812 f2bc 11b6 56bc 20f1 573d 0e62 a1b6
000003a0: 0e99 78b4 bd87 bcbc 3623 53af afd2 f4a4
000003b0: 5eae fca1 6932 aaa1 6864 783c d067 8da8
000003c0: f4f8 dbb4 2d78 3ca7 1ff4 b537 348b 8e3c
000003d0: d05a 24b6 a8a2 f30e d83b 0f9d 4923 e8b7
000003e0: 6f3d 58a4 af85 4b94 d67e 04a9 2e8a 363d
000003f0: 6933 2796 900e 35b8 530e d9ac 81ad 0886

action_layers.1.bias f4 [128]
0.1387493 0.112380795 -2.781998e-29 -8.0626055e-18 0.11179546 0.17845395 -2.7981374e-08 -5.351052e-05
0.14173092 0.17062823 -3.8436465e-08 0.16417453 -1.22870984e-08 -2.2899647e-07 0.12961383 -7.128126e-06
-1.3747514e-10 0.10659709 -7.082023e-12 0.15086944 0.11795287 -6.7903993e-25 0.10770159 0.14604181
-3.445042e-06 -6.6404315e-24 -2.915778e-17 0.09943856 0.16132222 -3.5636866e-15 -9.6247625e-08 0.13734774
0.134917 0.15555985 0.17355439 -2.1176217e-16 -9.80989e-05 -0.0009267048 -3.482049e-27 0.15431014
-6.6841e-15 -7.153178e-06 0.11267454 0.121807 -6.998444e-11 0.17460416 0.09539057 -5.0427208e-23
0.09153552 0.10488566 0.12453353 -1.6244261e-19 0.14664844 0.14161494 -1.2411306e-07 7.018017e-11
-2.2312406e-06 -1.2896596e-05 0.14551976 0.1119223 0.1818024 -1.3002897e-11 -5.959854e-07 -6.4817766e-07
0.15944429 -1.3459896e-11 -1.9568533e-11 -1.216776e-12 -5.4133995e-08 -2.1507245e-07 -2.1534797e-23 -1.2685978e-06
-1.1081406e-06 0.09872001 -1.0134926e-27 0.11939672 0.13098112 -4.6252438e-07 0.12665293 -4.242826e-06
0.114886686 0.1233726 0.095760904 0.1209916 -9.47173e-14 -2.7731837e-20 0.08972459 0.1142868
-3.133979e-14 0.1651395 -8.372273e-05 0.091847 -4.011614e-15 -3.798328e-05 -1.8582283e-16 0.12283994
-6.4627595e-11 -1.9937834e-14 -1.1251606e-06 0.10311187 0.13165118 0.11087946 -4.5338165e-08 0.13486989
-3.0978668e-30 -0.00028794238 0.1317511 -1.0535493e-15 -7.541261e-22 0.14218502 0.13614629 0.11046907
-2.9883502e-08 0.09817269 0.10340643 0.13694191 0.1043247 -9.38998e-17 -3.0848274e-10 -1.2431453e-14
0.11914868 0.10785701 -4.280926e-08 -2.6944035e-08 -5.344524e-14 -1.3597772e-06 0.11405925 -2.4149529e-08
00000000: 4c14 0e3e e727 e63d 6610 0d90 94ba 14a3
00000010: 05f5 e43d a2bc 363e b15b f0b2 7c70 60b8
00000020: e921 113e 2bb9 2e3e 5715 25b3 5e1d 283e
00000030: 3b17 53b2 12e2 75b4 7db9 043e 232e efb6
00000040: d027 17af 934f da3d 312d f9ac 857d 1a3e
00000050: 4691 f13d 1627 5297 a792 dc3d fc8b 153e
00000060: 5f31 67b6 d371 0099 6e77 06a4 72a6 cb3d
00000070: a731 253e 3565 80a7 b1b0 ceb3 e3a4 0c3e
00000080: af27 0a3e 154b 1f3e 3eb8 313e 2925 74a5
00000090: 72ba cdb8 1bee 72ba 2cf0 8993 7a03 1e3e
000000a0: f1d1 f0a7 5505 f0b6 e9c1 e63d f375 f93d
000000b0: bde5 99ae 6fcb 323e 225c c33d dcd9 739a
000000c0: fa76 bb3d 4bce d63d 6f0b ff3d 44c7 3fa0
000000d0: 022b 163e 8203 113e f043 05b4 ec53 9a2e
000000e0: 6cbc 15b6 755e 58b7 2203 153e 8537 e53d
000000f0: 692a 3a3e d8bf 64ad cefb 1fb5 6efe 2db5
00000100: 5d45 233e fcc9 6cad 6b20 acad fa3e abab
00000110: f580 68b3 aaee 66b4 9345 d099 b044 aab5
00000120: 6cbb 94b5 b72d ca3d 2598 a092 4486 f43d
00000130: ea1f 063e de50 f8b4 4eb1 013e 995d 8eb6
00000140: b649 eb3d c6aa fc3d 4b1e c43d 72ca f73d
00000150: ce48 d5a9 bcf5 029f 87c1 b73d 330f ea3d
00000160: 5124 0da9 541a 293e 4c94 afb8 481a bc3d
00000170: 9c88 90a7 3d50 1fb8 383d 56a5 8293 fb3d
00000180: 1a1e 8eae 8495 b3a8 3904 97b5 512c d33d
00000190: 91cf 063e c514 e33d d7b9 42b3 551b 0a3e
000001a0: 2d54 7b8e f9f6 96b9 c3e9 063e 1cd5 97a6
000001b0: aeeb 639c f398 113e ef69 0b3e 9c3d e23d
000001c0: 4259 00b3 c30e c93d c0c6 d33d 803a 0c3e
000001d0: 30a8 d53d a984 d8a4 1697 a9af f5f1 5fa8
000001e0: 3904 f43d 23e4 dc3d 47dd 37b3 8f72 e7b2
000001f0: 2bb2 70a9 9781 b6b5 e597 e93d 6071 cfb2

fc.weight f4 [1, 128]
0.2663881 0.21854758 9.083986e-30 -8.6203997e-19 0.21748006 0.33737734 9.490576e-09 -1.3078557e-05
0.271486 0.32322302 2.1277113e-08 0.3116527 -1.9413143e-08 3.8609687e-06 0.24983904 1.2417389e-05
-8.40287e-11 0.20797642 -2.2552312e-12 0.28800198 0.22874881 1.7338508e-24 0.21001102 0.27967837
-1.5649563e-06 -6.080862e-24 -3.7139943e-17 0.19478928 0.30672905 6.801919e-16 -3.294238e-08 0.26377586
0.25952694 0.29663965 0.32810512 2.0965131e-16 0.00018578737 0.0015874045 -2.46179e-27 0.2941525
-4.310548e-15 -4.492955e-05 0.21910478 0.23577051 2.9114336e-11 0.33049372 0.18729676 1.4159374e-22
0.18011737 0.20482455 0.24073108 -5.180324e-20 0.280428 0.27115804 2.282465e-06 9.8103387e-11
-0.00015621918 -8.498e-05 0.27821112 0.2177221 0.3439153 -9.063078e-11 9.074219e-07 -2.2880572e-06
0.3033909 -2.593449e-10 1.8979452e-11 7.392914e-12 -5.065109e-07 4.13137e-06 -1.7666242e-23 4.1969806e-06
4.555063e-06 0.19346717 -4.162112e-28 0.2313303 0.25230384 3.0325157e-07 0.24439499 7.0614874e-06
0.22314039 0.23853818 0.1879774 0.2341721 -6.380691e-14 1.2052968e-19 0.17673823 0.22207294
4.9218147e-14 0.31299037 -0.00054087356 0.18069752 -3.455227e-15 3.6556063e-05 -1.449652e-16 0.23750876
-1.9654299e-11 2.2400542e-14 -4.4861284e-07 0.20157054 0.25350478 0.2158084 5.7254912e-08 0.2592676
8.969474e-31 -0.00025215923 0.2536977 8.5795724e-16 4.7312474e-22 0.2723502 0.26142365 0.2150676
1.1526043e-06 0.19244798 0.20210816 0.26299304 0.20379661 -7.9823995e-17 4.715344e-10 8.017875e-15
0.23090096 0.21027811 -2.2620048e-07 3.280359e-08 -1.0651624e-13 1.2921824e-05 0.2215929 -7.457162e-08
00000000: 0564 883e f0ca 5f3e c13e 380f e66d 7ea1
00000010: 18b3 5e3e b9bc ac3e ff0b 2332 f96b 5bb7
00000020: 3700 8b3e 7d7d a53e dec4 b632 f190 9f3e
00000030: f4c1 a6b2 788d 8136 ced5 7f3e 4854 5037
00000040: f4c7 b8ae c5f7 543e a2b2 1eac ff74 933e
00000050: 213d 6a3e 7426 0618 210d 573e 0132 8f3e
00000060: 7d0b d2b5 f13d eb98 1b47 2ba4 d776 473e
00000070: 970b 9d3e 4e0d 4426 887c 0db3 a10d 873e
00000080: b7e0 843e 27e1 973e 65fd a73e 25b6 7125
00000090: ebcf 4239 7510 d03a 080b 4393 289b 963e
000000a0: ca4d 9ba7 bd72 3cb8 015d 603e d36d 713e
000000b0: d40b 002e 7936 a93e b9ca 3f3e 242d 2b1b
000000c0: b070 383e 87bd 513e 3582 763e 46a2 749f
000000d0: 4294 8f3e 3ad5 8a3e 732c 1936 4cbb d72e
000000e0: c4ce 23b9 4a37 b2b8 b071 8e3e 8bf2 5e3e
000000f0: ab15 b03e 984c c7ae 8f95 7335 868c 19b6
00000100: 0d56 9b3e 8d93 8eaf edf1 a62d ba0e 022d
00000110: 2af7 07b5 33a0 8a36 7fdb aa99 cad3 8c36
00000120: b1d7 9836 421c 463e 10e7 0392 dae1 6c3e
00000130: f82d 813e 94ce a234 ae42 7a3e b7f1 ec36
00000140: ea7e 643e 5a43 743e 267d 403e d0ca 6f3e
00000150: 2eae 8fa9 dc4b 0e20 defa 343e 1767 633e
00000160: a9a8 5d29 4640 a03e 69c9 0dba c508 393e
00000170: b0f9 78a7 c653 1938 2d22 27a5 7f35 733e
00000180: 8ce1 acad 22c4 c928 e1d8 f0b4 8268 4e3e
00000190: 61cb 813e e1fc 5c3e 71e8 7533 b9be 843e
000001a0: bd89 910d 3d34 84b9 aae4 813e 124a 7726
000001b0: 41fe 0e1c 7c71 8b3e 52d9 853e ae3a 5c3e
000001c0: 2fb3 9a35 1511 453e 71f5 4e3e 06a7 863e
000001d0: 0fb0 503e c50f b8a4 499d 0130 ec6f 1028
000001e0: 4d71 6c3e 2553 573e 84e1 72b4 eee3 0c33
000001f0: 6fda efa9 d0ca 5837 40e9 623e 2f24 a0b3
