project2-continous_control/checkpoint/critic_target.pth (torch_old, 435694 bytes, 7 tensors)

state_layers.0.weight f4 [256, 33]
000000 08 94 b1 3a ca 4a d0 bb e6 7b 61 bc fa 28 d6 39
       0.0013548145 -0.006356572 -0.01376245 0.0004084779
000010 a9 6c 80 3a aa a1 0d bb ab 6b 5e 3a ba 18 0c bb
       0.0009798008 -0.0021611252 0.00084846717 -0.0021377043
000020 02 ae 9c bb 9c 61 d7 bb ee 0e 46 bc 38 ee 17 38
       -0.0047814855 -0.0065729152 -0.01208852 3.6223064e-05
000030 86 36 7a bb 07 30 d3 3c f0 dc a0 3c c3 c4 e1 3c
       -0.003817947 0.025779737 0.019636601 0.027559644
000040 1a 6b 2c bb dd 60 38 bb 2f db 08 3c 62 2d c0 3b
       -0.0026308955 -0.0028133907 0.008353039 0.005864785
000050 ad d5 c8 bb d8 69 08 3a 4c e0 8d 3b f1 bb 49 bc
       -0.0061289878 0.000520376 0.004329717 -0.012312875
000060 2c 8a 77 3c 94 b0 5d bc d4 ab a8 bc c1 a7 bc bb
       0.015108626 -0.013530869 -0.020589747 -0.0057573025
000070 1d 52 c8 bc 9b a6 00 80 c1 a7 bc 3b 6d 0b 00 80
       -0.024453217 -5.9767e-41 0.0057573025 -4.099e-42
000080 9c 1e db bc b7 3f 1d 3d 0b b1 05 bc 1f e0 ad 3c
       -0.026747994 0.03839084 -0.008159886 0.021225033
000090 54 d3 8e bc aa 77 08 3c 1c 1e 54 3c ef 90 36 3c
       -0.017434753 0.008329311 0.012946632 0.011142953
0000a0 47 a6 86 bb 9e 71 93 3b 1a 3a 27 bc df d2 42 bc
       -0.0041091773 0.004499628 -0.010206724 -0.011891096
0000b0 06 34 44 3c 3b 72 f4 3b a6 d2 95 bd 9c 0d c9 3b
       0.011975294 0.0074599064 -0.073155686 0.0061356556
0000c0 68 e7 5d bb 7e c6 c4 bb 6c ee cd 3b 5b 74 19 3b
       -0.0033859853 -0.0060051074 0.0062845256 0.00234153
0000d0 6c 40 9a bb 47 f4 d0 39 47 d2 b5 bb 1d 37 b8 3b
       -0.0047073867 0.00039854852 -0.0055487487 0.0056218044
0000e0 5b e4 21 bd 45 48 6b 3c fd 0d cf bb 69 ce c8 3c
       -0.039524417 0.014360492 -0.006318806 0.024512487
0000f0 dc c1 6a 3c 02 80 bb bc 6b 4a 00 00 dc c1 6a bc
       0.014328446 -0.022888187 2.6696e-41 -0.014328446
000100 b6 00 00 00 56 4a a3 bd 8d 7e 8b ba 50 39 cb 3b
       2.55e-43 -0.07973163 -0.0010642573 0.0062019005
000110 8d d9 f0 3a b6 16 b7 bb 34 7e 52 ba a2 e4 76 b9
       0.0018375382 -0.005587424 -0.000802967 -0.0002354556
000120 cd f9 d4 3a 96 04 80 ba ff 20 af 3a 53 16 43 3a
       0.0016248763 -0.0009766992 0.0013361274 0.0007441986
000130 46 54 d9 3a 51 05 33 3b b7 cb 80 3a 22 df 91 39
       0.0016580902 0.0027316401 0.0009826337 0.00027822802
000140 cd fc cb 3b cf 13 19 ba d6 48 3b 3b 94 38 2a ba
       0.0062252046 -0.00058394385 0.002857735 -0.0006493416
000150 7c ce c9 ba 78 f7 fe b9 18 10 0b 3b 85 49 ad bb
       -0.001539662 -0.00048631034 0.002121931 -0.005288305
000160 46 04 dd ba b4 d2 89 3a c7 58 2b ba 4b 77 0e 3b
       -0.0016862235 0.0010515065 -0.0006536361 0.0021738585
000170 5f 5c ce 3a 74 ed a9 3b ce 3f 25 ba 87 24 00 00
       0.0015744081 0.0051857773 -0.0006303758 1.3104e-41
000180 74 ed a9 bb be 23 00 00 27 cc 68 39 5f c7 37 3c
       -0.0051857773 1.2822e-41 0.00022201297 0.011216967
000190 b8 6a 80 3c 3a fa 9c 3d 96 bc c0 b9 d8 1c 67 b9
       0.015675887 0.076649144 -0.000367616 -0.00022040622
0001a0 fb 98 66 bc b0 48 48 3c d4 aa a6 ba 96 d1 05 bc
       -0.014074559 0.012224361 -0.0012715706 -0.008167645
0001b0 61 c5 db 3b 46 bd 49 b9 89 7b 71 ba 11 de ca 3b
       0.006706879 -0.00019239364 -0.00092118286 0.006191023
0001c0 ca 5d 20 3c 60 b1 1f bc 88 e5 35 bd 5e 22 de bb
       0.009787986 -0.009746879 -0.04440835 -0.006778999
0001d0 9b 49 da b9 ee 5b db bb e3 34 0b 3c c1 10 19 ba
       -0.0004163504 -0.0066943085 0.008496496 -0.00058389833
0001e0 b5 3a 99 bb f7 15 b0 3b f8 96 5e 3b 50 4a fa bb
       -0.004676188 0.005373712 0.0033964496 -0.0076382533
0001f0 75 6b 58 bc 24 2b c4 bc 4e 89 cc 3c 7b e3 91 3b
       -0.0132092135 -0.023946352 0.024967816 0.0044521666
000200 ee 18 00 00 4e 89 cc bc 76 16 00 80 99 b2 46 3d
       8.943e-42 -0.024967816 -8.057e-42 0.048510168
000210 38 6f e9 b9 7b b7 e1 3a 33 9a 45 3a d1 aa 72 b9
       -0.00044524088 0.0017220819 0.0007537931 -0.00023142553
000220 56 61 22 39 f4 2a 38 b9 b7 5f 80 38 7e a4 68 38
       0.00015485784 -0.00017563609 6.121344e-05 5.5466306e-05
000230 a8 44 08 b9 3d 83 02 b8 d0 27 07 35 03 d9 e9 39
       -0.00012995547 -3.111664e-05 5.0349354e-07 0.0004460291
000240 90 4f ec b9 a8 d1 23 ba a7 b8 39 3b 34 c7 3e 39
       -0.00045072706 -0.0006249198 0.002833882 0.00018194021
000250 d7 53 69 b8 c9 89 27 39 a5 e4 a7 38 e2 26 53 39
       -5.562961e-05 0.0001597769 8.005769e-05 0.00020137013
000260 99 26 34 b9 6a 98 a8 b9 c1 a0 54 b9 ad 93 0d ba
       -0.00017180516 -0.00032157014 -0.00020277781 -0.00054007286
000270 f5 b8 4c 3a 8d 07 8f 38 f2 2a f3 b8 03 2d 0b 3a
       0.0007809543 6.820178e-05 -0.00011595142 0.00053091365
000280 50 f9 97 39 bd 08 00 80 03 2d 0b ba 1b 1d 00 80
       0.00028986717 -3.135e-42 -0.00053091365 -1.0441e-41
000290 83 e3 32 38 87 d3 97 3c 6f 07 d4 3b d0 d5 ec bc
       4.2650394e-05 0.018533481 0.0064706127 -0.028910547
0002a0 78 f4 1e 3b ef 5e ff 3b 2a 46 45 3b be 2b c7 39
       0.0024254601 0.0077932994 0.0030101635 0.00037988828
0002b0 9b 9b 9c 3b b0 cb 88 bc b7 85 1e bb 97 05 2f bc
       0.004779292 -0.016698688 -0.0024188587 -0.010682485
0002c0 5a 1c d4 3b 13 31 3a 3c 3e 1d 3e bd 71 66 5d 3c
       0.0064731063 0.011364239 -0.046414606 0.0135131935
0002d0 28 2b 63 3d 61 a3 bb 3b 87 c0 47 bc da 26 1f 3b
       0.05546108 0.0057262634 -0.012191898 0.0024284632
0002e0 48 48 67 ba fd 54 96 3b 29 44 4e 3c 3d f6 f3 3c
       -0.00088227214 0.004587768 0.012589493 0.029780501
0002f0 40 b4 ec 3a c2 ba bd bb d8 f8 16 3c 15 39 17 3d
       0.001805909 -0.0057900855 0.009214602 0.036919672
000300 d2 e8 b4 3c 5a 4a c2 bc 8d 00 00 80 d2 e8 b4 bc
       0.022083674 -0.023717094 -1.98e-43 -0.022083674
000310 09 06 00 80 f2 78 c2 3d b1 25 7d bd c8 90 c6 3c
       -2.165e-42 0.09495725 -0.061803523 0.024238959
000320 d4 ae 78 bc e4 88 99 bc 5a 73 92 bc ee 01 a4 3b
       -0.015178401 -0.018742032 -0.01787727 0.005005113
000330 92 33 5a bb 23 e1 ce bb 93 77 b6 bb 3e f4 64 bb
       -0.0033294898 -0.0063134595 -0.0055684536 -0.0034935619
000340 06 66 36 bc f7 d1 1e 3c 2c 09 72 3b 69 58 2f bc
       -0.011132723 0.009693614 0.0036931736 -0.010702231
000350 6c 2c 2f 3c a2 08 65 3c 0c ac ff bb 57 50 2e bc
       0.010691743 0.013979109 -0.007802492 -0.010639272
000360 a9 8a da ba f8 9a 14 3b a7 43 0a bc e6 bd 85 3c
       -0.0016673404 0.0022675376 -0.008438981 0.016325902
000370 84 27 fd 3b b0 ea 71 3c 74 fe 16 3a 29 19 8f 3c
       0.007725658 0.0147654265 0.00057599624 0.017468052
000380 91 da 35 3d 08 ab fd b6 57 59 48 bc 0e 0b 00 00
       0.044397894 -7.559898e-06 -0.0122283315 3.966e-42
000390 08 ab fd 36 02 08 00 00 f0 3b a1 bd a5 dc b4 3c
       7.559898e-06 2.873e-42 -0.0787276 0.022077868
0003a0 0b 22 96 bd 8d 18 ba 3c 18 19 92 3c f3 c0 c7 3a
       -0.07330712 0.022716785 0.017834231 0.0015239998
0003b0 06 f2 3d 3c 90 1b 61 bb 06 63 db bb d8 d0 12 3b
       0.011593347 -0.0034348704 -0.006695154 0.0022402313
0003c0 68 0d 58 bc 21 72 47 3c 92 47 1c bc 74 d7 ae 3c
       -0.01318679 0.012173207 -0.009538548 0.02134297
0003d0 8d a2 b0 3c 59 3d 3f bd a5 5b ea 3b 28 02 50 b9
       0.021561885 -0.046689365 0.007152038 -0.00019837229
0003e0 e1 58 63 bb 60 9b 9c bb 6e 78 98 3b a9 1f 8b 3c
       -0.0034690427 -0.0047792643 0.004653028 0.01698287
0003f0 2f 58 d7 3b a5 45 57 bb 25 17 f7 3c 72 f3 0a bd
       0.0065717916 -0.0032847908 0.030162403 -0.033923574

state_layers.0.bias f4 [256]
000000 bf a7 bc 3b f0 c1 6a bc 73 ed a9 bb 4e 89 cc bc
       0.0057573016 -0.014328465 -0.005185777 -0.024967816
000010 04 2d 0b ba df e8 b4 bc 1f d0 fd 36 a6 a8 43 3d
       -0.0005309137 -0.022083698 7.564216e-06 0.047768258
000020 07 ea cb b8 c6 94 66 ba 39 5e 4f ba 8b 5b 34 bd
       -9.723385e-05 -0.00087959727 -0.00079104636 -0.044032615
000030 e3 8f a9 bd 05 20 b6 bb 0a a7 5d b9 36 f7 1f bc
       -0.08279397 -0.0055580162 -0.0002113843 -0.0097635295
000040 75 8d 20 3c cd 0e bb bb bc ad 1a bc 2e 55 1e bd
       0.009799351 -0.0057085515 -0.009440836 -0.038655452
000050 ea 28 f2 3b 1b 4f 1e 3d ea 6f 3d 3b 6e 4d 17 b9
       0.0073901312 0.03864966 0.0028905817 -0.00014429327
000060 df 2a 15 ba 50 af f4 bc 68 29 7e b9 8f 2c cc bc
       -0.0005690287 -0.029868752 -0.00024238753 -0.024923591
000070 45 85 50 3c 9e a2 38 bb c3 ee fd bc 4f fe d7 bb
       0.012727086 -0.00281731 -0.03099764 -0.0065915952
000080 10 a9 a8 bb 68 77 f7 bb 65 a2 58 bb e7 b5 02 bd
       -0.005147107 -0.007552076 -0.003305578 -0.031911757
000090 7a 66 4b bc 08 73 8b bb b8 2c 7e 3b a0 f1 14 bc
       -0.012414569 -0.004255656 0.0038783979 -0.009090811
0000a0 70 ff 13 3c 2c 8d 90 bc 01 63 31 bc 70 e0 c7 bc
       0.009033069 -0.017645441 -0.010826827 -0.024399012
0000b0 e6 cd 27 3d 11 0f bb bb 4f c2 03 ba f2 cc aa 3c
       0.040967844 -0.005708583 -0.00050262077 0.020849679
0000c0 5c 4a ee bc 78 b8 23 38 a6 82 0b ba 9e 88 aa bb
       -0.029088192 3.903403e-05 -0.00053218973 -0.0052042743
0000d0 a8 8f 82 bb 46 85 c6 bc bd d2 4d bb fe 46 0d 3c
       -0.0039844103 -0.024233472 -0.0031406127 0.008622883
0000e0 d7 7f 6a bc c3 f4 39 bc 02 f6 ee ba 1e bc b2 ba
       -0.014312706 -0.01134986 -0.0018231275 -0.0013636386
0000f0 67 57 34 bc c6 a5 37 3c f0 c5 2e 3c 33 c0 06 bb
       -0.0110071665 0.011208957 0.010667309 -0.0020561337
000100 b9 3a cd b8 e3 48 ba bc 0a 45 1e bd 66 0f 67 3b
       -9.7861e-05 -0.022739833 -0.03864006 0.003525698
000110 6a a7 76 ba 2d 0d b2 3a 5a f3 03 ba 85 a7 21 ba
       -0.0009409102 0.0013584249 -0.00050335156 -0.0006166625
000120 7d f9 4f 3c e3 fa 6a 3a 48 46 9d b9 82 a1 fd bb
       0.01269376 0.00089637766 -0.00029997737 -0.0077402005
000130 c7 db da bc b2 8e 17 bc b0 4d ca ba 38 4b 14 bc
       -0.026716126 -0.00925033 -0.001543453 -0.009051137
000140 91 c3 2c bb e8 fe d1 bb 01 f2 83 ba 94 d2 ae bc
       -0.0026361684 -0.006408561 -0.001006663 -0.021340646
000150 88 8c 48 bc a5 88 f1 bb e8 4e 20 3b 2a 28 41 bc
       -0.0122405365 -0.0073710256 0.0024461094 -0.011789361
000160 a5 2c ca bb 43 68 5f bd a6 27 c7 b9 f3 af 1d bc
       -0.006169873 -0.05454279 -0.00037985778 -0.009624469
000170 2f 31 95 bc 6f 23 d8 ba 02 7f 25 bb 59 ed 34 b9
       -0.01821193 -0.0016490052 -0.0025252705 -0.00017254557
000180 76 c7 ff bb 07 3f 6b ba e4 ab c8 3a 39 e9 6a ba
       -0.00780576 -0.00089739304 0.0015310016 -0.00089611445
000190 e1 96 93 ba 68 c2 3c bc 96 43 ef 3a 37 ed f1 bc
       -0.0011260175 -0.011520959 0.0018254395 -0.029532058
0001a0 a4 67 cf bb c7 00 9e ba c9 b1 ac 3b 2b 2d a7 3c
       -0.0063294936 -0.0012054675 0.005270217 0.02040728
0001b0 f9 2a aa b9 f1 da e2 ba d7 78 15 bd 0b e0 60 bc
       -0.00032456944 -0.0017307681 -0.036492195 -0.013725291
0001c0 ce 31 85 3b e0 bf 92 b9 b4 61 01 bb 73 50 da bb
       0.004064775 -0.00027990248 -0.0019742073 -0.0066624223
0001d0 42 b0 65 bb 7a 5c 58 3d 27 ff 50 3d c5 3f 4a bb
       -0.0035047685 0.052822568 0.051024582 -0.0030860764
0001e0 6c 4c 8e 3c 1f 39 6b bd d1 29 52 bb f4 79 28 bc
       0.017370425 -0.05742752 -0.0032068382 -0.010282982
0001f0 35 b6 71 3b c9 6e 73 3c 86 8e d5 bb 1d 76 25 ba
       0.0036882285 0.014857956 -0.0065172343 -0.0006311851
000200 33 b0 a5 bb 38 7f 13 bc 66 f5 e1 bb 5c 81 f1 bc
       -0.005056405 -0.009002499 -0.006895709 -0.029480629
000210 74 de 52 bc c8 8b 39 bc 85 1d d8 ba f3 6f 8e bc
       -0.01287042 -0.01132483 -0.001648829 -0.017387366
000220 4e 90 01 3c 26 92 5a bd c3 b5 ff bc 1a 7e 8a 3b
       0.00790794 -0.053362034 -0.0312146 0.0042264583
000230 d3 28 40 bc 05 f2 49 bb f7 1a 48 bd 60 5f 35 3b
       -0.011728483 -0.003081442 -0.04885384 0.0027675256
000240 80 d9 8f 3c 72 7f 23 bc f7 bb 83 3c f1 10 dd b9
       0.017559767 -0.009979116 0.01608084 -0.00042165027
000250 20 a1 f1 bb 3d 02 c7 ba 58 a9 75 bd 38 00 8f ba
       -0.007373944 -0.0015183162 -0.059975952 -0.0010910099
000260 19 00 17 bc 18 47 71 3b ce 2b f2 bc e7 57 a0 bc
       -0.009216332 0.0036816057 -0.029561903 -0.019573165
000270 b6 c9 75 bb a4 65 fa bb d7 23 c0 bb fd 0a 9a 3b
       -0.0037504262 -0.007641511 -0.0058636474 0.004701017
000280 f6 53 dd 3b e5 48 a3 bc 59 1a 13 bd 0b 3e 54 ba
       0.0067543937 -0.01993222 -0.0359138 -0.00080964033
000290 ae 83 c6 bb e6 c3 0a bd 17 ae d3 ba 25 c4 17 bb
       -0.006058178 -0.03387823 -0.0016149905 -0.0023157683
0002a0 a8 68 9a 3c 10 2f 8b bc db 55 c5 ba c1 46 12 3a
       0.018848732 -0.016990215 -0.0015055494 0.0005580001
0002b0 1f 11 0e 3c a3 9e 84 3b 78 b6 32 bd 8b 63 b3 bc
       0.008671074 0.0040472313 -0.043631047 -0.021898052
0002c0 de 76 c1 b9 fc e1 e5 bc ba b6 e9 bb 7d 76 59 bb
       -0.00036900392 -0.02806186 -0.0071323784 -0.0033182197
0002d0 fe 51 b1 bb 69 2b f3 ba 2f 3d 5e b9 c4 7d e8 bb
       -0.0054113856 -0.0018552366 -0.00021194362 -0.0070950706
0002e0 37 df 24 bd c4 46 75 b9 98 65 1d bb 1f 78 f0 bb
       -0.040251937 -0.00023391383 -0.0024016853 -0.0073385383
0002f0 34 8b 8b 3b 16 83 36 bb 6a 6e 94 bb aa 30 13 ba
       0.0042585377 -0.002784913 -0.004529764 -0.00056148565
000300 b9 d9 0a 3c 69 ad a9 bb 99 ce dc 39 80 0a 29 bd
       0.008474761 -0.005178143 0.00042115597 -0.04126978
000310 ec 26 89 ba 1e fb 64 bc 8c cb 70 bb bb 90 9c ba
       -0.001046387 -0.013975887 -0.0036742417 -0.0011944989
000320 31 34 9f bc 7b a9 9b bb 06 e0 c0 ba 9f 6b 1d ba
       -0.019434066 -0.0047504283 -0.0014715202 -0.00060051115
000330 51 9b 8b bc f9 80 96 bc 07 5f 80 ba af 6e 5a ba
       -0.017041834 -0.018372046 -0.0009793945 -0.0008332533
000340 15 11 78 ba 08 e8 ba bb ae f8 1b bc 3f eb 87 bc
       -0.00094629946 -0.00570393 -0.009519739 -0.016591666
000350 a4 b6 c5 b9 f1 02 2e bb ea 7a f2 bc 7d 53 88 bc
       -0.00037710846 -0.0026552046 -0.029599626 -0.016641373
000360 6f 07 58 3b 1d 12 a9 bb f7 e6 32 bb c7 38 98 bc
       0.0032963415 -0.00515963 -0.002729831 -0.018581761
000370 3f a2 67 bc 0d 4b af bc 60 7c d3 3a ab 0b 1e bc
       -0.014137804 -0.021398092 0.0016135089 -0.009646337
000380 27 29 c5 bc 44 3a 6b bc 8e a7 4e bc 67 16 98 3c
       -0.024067475 -0.014357153 -0.01261319 0.01856537
000390 85 f8 1b 3c e1 6b 48 ba ab 9b 27 3c 5d d3 3b bc
       0.009519701 -0.000764547 0.010229985 -0.011463967
0003a0 77 85 02 b9 74 28 8a bc cb 69 5e bb fe d7 a0 ba
       -0.00012447486 -0.016864993 -0.003393757 -0.0012271402
0003b0 d4 94 0f ba c4 4b 92 b9 bb a3 f5 bc ed 4b 46 bb
       -0.0005477194 -0.0002790374 -0.0299853 -0.0030257658
0003c0 be d9 a5 3b 88 f4 48 ba c1 40 17 bc 56 d4 b7 bc
       0.0050613573 -0.00076658325 -0.009231747 -0.022440117
0003d0 ad 88 e6 b8 27 e4 2b ba 8f 1e 8c ba ce 61 86 bc
       -0.000109927125 -0.00065571297 -0.001069026 -0.016404059
0003e0 c9 6d 9f ba 1d 7e fe 3a 1a 52 f2 bc 1f 67 ca b9
       -0.0012163456 0.0019416247 -0.029580165 -0.00038605274
0003f0 54 b5 b7 bb dc 2f 01 ba 1b 93 41 ba 0c 03 9a 3b
       -0.005606333 -0.0004928091 -0.0007384286 0.0047000702

action_layers.0.weight f4 [256, 260]
000000 17 27 f2 33 5f ed 38 34 49 6d 43 b0 b7 f8 ca 32
       1.12761136e-07 1.722269e-07 -7.109589e-10 2.3628997e-08
000010 c1 d9 03 af f1 41 e7 32 42 a9 9a 33 fc d9 ba b9
       -1.1991742e-10 2.6921926e-08 7.2019716e-08 -0.00035639096
000020 c7 4f 6a 34 c3 f7 36 b0 73 b5 14 b0 fb c8 a6 33
       2.1821971e-07 -6.6563305e-10 -5.409994e-10 7.7665355e-08
000030 69 54 b2 33 46 e8 c3 33 ab 14 8f 33 aa 51 d3 31
       8.304125e-08 9.1226454e-08 6.662716e-08 6.1501924e-09
000040 68 ac 85 b7 79 8b a4 31 8e 68 9c 33 a0 26 9f 33
       -1.5935118e-05 4.7888844e-09 7.2833345e-08 7.41104e-08
000050 f7 74 a6 34 bd 3b 3b 34 7d 3c be 34 f2 2e 94 ae
       3.1005013e-07 1.7437465e-07 3.543427e-07 -6.7386e-11
000060 78 ba 08 b0 d5 dc 0d 33 e9 df 6f af 97 8b 09 32
       -4.97415e-10 3.3029966e-08 -2.1816472e-10 8.006189e-09
000070 b8 c1 dc 34 b5 5b 0b 30 fb 2e d0 32 21 85 0c 31
       4.1119142e-07 5.069823e-10 2.4235751e-08 2.0448356e-09
000080 88 27 9c 33 2b 63 e1 32 22 db 3a 30 cc 59 1f 34
       7.271507e-08 2.6238544e-08 6.797781e-10 1.4840697e-07
000090 69 7a 2c b1 53 07 a7 34 60 46 2d 33 9c ab 8c b0
       -2.5098876e-09 3.1111503e-07 4.0343707e-08 -1.0235115e-09
0000a0 91 68 0f 35 7c e9 41 34 dd ad 17 34 9a 63 f2 32
       5.3423815e-07 1.8059467e-07 1.4126222e-07 2.8217801e-08
0000b0 94 3e 8a b7 b9 86 b8 b5 7c 40 89 af 93 51 0a b2
       -1.6480022e-05 -1.3748278e-06 -2.4965974e-10 -8.051205e-09
0000c0 97 42 70 32 2b 58 4e 34 ba dd 95 af eb 93 2e b4
       1.3984979e-08 1.921732e-07 -2.7260488e-10 -1.6258825e-07
0000d0 63 6a 09 32 67 94 38 34 ac 6c 09 32 82 4e 28 34
       7.998639e-09 1.7190324e-07 7.999159e-09 1.567478e-07
0000e0 52 d2 f5 32 02 c6 0e 30 c5 51 5c b0 a6 d6 ac af
       2.8617396e-08 5.1940685e-10 -8.0151735e-10 -3.1439135e-10
0000f0 6c 0a 71 32 4b 59 9d 33 c3 52 55 35 7a 17 63 b0
       1.4030416e-08 7.3271245e-08 7.946912e-07 -8.261548e-10
000100 ca e5 80 ae 1f 2d 21 b1 16 1d 35 33 86 5d df b4
       -5.861585e-11 -2.3454232e-09 4.21688e-08 -4.1605034e-07
000110 01 3a 30 34 ae ba 4c 34 71 75 58 af d0 ef e1 af
       1.6412379e-07 1.9066894e-07 -1.9686809e-10 -4.1097659e-10
000120 00 96 95 34 27 f9 23 35 ea 0c b4 af b3 16 c3 33
       2.7862552e-07 6.1084796e-07 -3.2750985e-10 9.084524e-08
000130 46 3f 15 34 2a 5a 8f 32 aa 90 13 35 35 4d a1 34
       1.3899725e-07 1.6688393e-08 5.497228e-07 3.0044762e-07
000140 62 de 2b 32 3c 11 ed b1 65 77 1d b0 ae b8 b3 32
       1.0004074e-08 -6.899567e-09 -5.7285937e-10 2.0922325e-08
000150 a9 fa 7f 33 a1 eb 9d b1 12 53 e6 34 c1 3f c2 30
       5.9599788e-08 -4.5960893e-09 4.290128e-07 1.4133478e-09
000160 d0 cc 89 33 c8 ad e1 33 08 3a 12 af 78 5a ee 30
       6.416815e-08 1.05089896e-07 -1.329924e-10 1.7342492e-09
000170 48 96 35 34 c0 6d 37 b0 f7 e9 82 30 99 28 25 af
       1.691161e-07 -6.6730976e-10 9.525242e-10 -1.5021086e-10
000180 3a c8 3f 34 75 e9 c3 af 4f 14 e8 34 66 cc 3a 32
       1.7861103e-07 -3.5636175e-10 4.3228144e-07 1.08731e-08
000190 90 11 d8 ae 69 45 8b 34 d2 1f 6f 33 0e 30 76 33
       -9.8256625e-11 2.594127e-07 5.5675464e-08 5.7320044e-08
0001a0 6f 75 24 33 64 71 54 af 8d 86 c0 34 bd e0 a0 b6
       3.829103e-08 -1.9321572e-10 3.5860685e-07 -4.7945346e-06
0001b0 82 be 84 ae 7c 9b 7d b0 40 d9 f4 32 0d 29 fd 33
       -6.036506e-11 -9.226182e-10 2.8504132e-08 1.1788698e-07
0001c0 3e 81 5e 34 ad fb 48 af 92 8c b7 af 27 a4 5b 34
       2.0722379e-07 -1.8279307e-10 -3.3387387e-10 2.0455683e-07
0001d0 b9 71 fa 32 4f db 05 35 8f f0 39 b9 bd 8e cb 34
       2.9155546e-08 4.9865497e-07 -0.0001773259 3.7915552e-07
0001e0 c5 bd 51 34 d1 3e 13 34 71 50 3e 34 41 9a d6 33
       1.953368e-07 1.3713294e-07 1.7724393e-07 9.99321e-08
0001f0 cd 89 bf 34 b2 4e 53 34 f6 f7 67 34 0d db c2 af
       3.5676786e-07 1.9679536e-07 2.1603759e-07 -3.544404e-10
000200 0a 3b 98 34 82 d8 1b 33 4f 22 04 34 64 c4 06 33
       2.8355163e-07 3.6285662e-08 1.230594e-07 3.1377922e-08
000210 ca 5d 63 33 a8 1a b5 31 6a d7 5e 33 1e 6f 34 b0
       5.2937857e-08 5.2708238e-09 5.188432e-08 -6.5641526e-10
000220 58 59 67 34 fe d7 87 33 a3 0a 04 32 19 d7 e0 33
       2.1546055e-07 6.325716e-08 7.68583e-09 1.0469939e-07
000230 de 17 fa 31 62 a0 17 33 9b d1 16 33 88 7a 2c 34
       7.278671e-09 3.5303295e-08 3.511523e-08 1.6063325e-07
000240 1a 10 ef b7 bf 4a a9 33 e5 df 05 b5 08 16 b1 32
       -2.8498518e-05 7.883272e-08 -4.987217e-07 2.061553e-08
000250 2f 29 d3 32 fc 48 0e b0 16 2e 0b 33 f0 e7 0f b0
       2.4582361e-08 -5.1763016e-10 3.2405374e-08 -5.23527e-10
000260 f8 a5 09 34 ae 20 06 34 e4 b0 c6 34 99 31 b0 33
       1.2819498e-07 1.2491611e-07 3.700908e-07 8.2046604e-08
000270 d3 0a cc 34 27 94 95 32 8a 8c a9 31 f7 3b 6e 33
       3.8005837e-07 1.7413255e-08 4.934525e-09 5.546823e-08
000280 c3 13 df 33 81 fe 61 33 79 89 ba 32 6a 91 e1 af
       1.0387841e-07 5.2618365e-08 2.1715765e-08 -4.1030584e-10
000290 84 ae f1 34 58 b1 e0 32 cf 76 08 b0 a7 e7 6e b0
       4.5016725e-07 2.6157679e-08 -4.964535e-10 -8.6913093e-10
0002a0 bc 66 a7 b6 17 db e9 34 0c 0f 8a af 5a 1d c9 34
       -4.9889477e-06 4.355904e-07 -2.5112745e-10 3.7460524e-07
0002b0 3d dc 5e 34 a8 8b c3 34 43 08 1a 33 83 91 a5 31
       2.0755483e-07 3.6423194e-07 3.5863433e-08 4.818675e-09
0002c0 a5 75 76 af 22 f4 96 33 e0 49 1c 33 84 80 ee 30
       -2.2415365e-10 7.029327e-08 3.638877e-08 1.7353305e-09
0002d0 f9 e7 3f 34 00 8b 07 2d ae eb 90 2f 12 ff 93 31
       1.7872652e-07 7.704726e-12 2.6360908e-10 4.307261e-09
0002e0 4a 68 80 33 c6 a3 01 af 0d 6a 69 b0 62 cd 49 b2
       5.9794345e-08 -1.1790666e-10 -8.4915613e-10 -1.17464385e-08
0002f0 5d 97 b3 34 2e d2 6d b0 83 f1 4a 30 e3 b5 86 af
       3.345148e-07 -8.651878e-10 7.383038e-10 -2.4503696e-10
000300 6d 10 f4 34 d7 74 b5 34 6d a5 80 34 05 d8 ee 32
       4.5460493e-07 3.379889e-07 2.396222e-07 2.7805081e-08
000310 99 7f 2b b0 a8 95 96 33 04 65 84 33 80 ce 2d ab
       -6.2390765e-10 7.0121416e-08 6.1651036e-08 -6.1748523e-13
000320 7c 31 a3 32 c3 71 bd b0 78 d2 5e b0 ce 4f 93 af
       1.89982e-08 -1.3783893e-09 -8.1062224e-10 -2.679585e-10
000330 8c de 13 33 78 0a 1f 2f ed d3 ec 34 1a 6e cb af
       3.442851e-08 1.4464685e-10 4.4112622e-07 -3.7003717e-10
000340 5d 0d 40 b0 ea 53 5f 32 e2 29 2c 32 da 1a 09 33
       -6.9868183e-10 1.2999388e-08 1.0021241e-08 3.192222e-08
000350 bb 2f 58 af 1a 24 e6 b0 e9 16 c6 32 4b f2 13 34
       -1.9662043e-10 -1.6744963e-09 2.3060652e-08 1.3778588e-07
000360 4b 3e 9e 32 c4 ff 1b 2f 2b 80 ba 32 1d 15 20 34
       1.8421948e-08 1.4188034e-10 2.1711534e-08 1.4908842e-07
000370 b6 af ce 33 c1 98 de 31 03 d2 d1 33 56 0b 56 33
       9.624584e-08 6.4784165e-09 9.770522e-08 4.9836068e-08
000380 9a ab a4 32 a5 c4 cb 33 b4 79 11 31 d4 b8 46 b7
       1.9170148e-08 9.4886936e-08 2.1169457e-09 -1.1844753e-05
000390 6c b1 05 34 f7 61 00 b0 e8 45 b5 34 89 0b fd 34
       1.2451136e-07 -4.6705345e-10 3.376474e-07 4.7133315e-07
0003a0 cd b0 ca ae fa 95 31 34 d3 f3 ed 32 64 bf e8 af
       -9.2173026e-11 1.6538971e-07 2.770131e-08 -4.2336545e-10
0003b0 0d 0c 05 b0 81 16 46 af 88 95 82 33 d7 48 db b0
       -4.8402243e-10 -1.801599e-10 6.080796e-08 -1.595505e-09
0003c0 40 fe ce 33 92 37 40 34 02 27 d6 b1 85 0c 0a 34
       9.63887e-08 1.790161e-07 -6.2326544e-09 1.2856806e-07
0003d0 a6 d4 8f ae f3 81 f5 af 23 0c 00 ae 2c c6 0a 32
       -6.540661e-11 -4.4657575e-10 -2.911461e-11 8.077716e-09
0003e0 74 5c b3 33 f5 f6 91 33 6a 05 eb 32 eb 7e 85 af
       8.352154e-08 6.79701e-08 2.7360063e-08 -2.428274e-10
0003f0 9f 63 40 b0 5f 37 aa ae c0 dd 93 33 db 99 91 34
       -6.9990763e-10 -7.740541e-11 6.885557e-08 2.71203e-07

action_layers.0.bias f4 [256]
000000 28 84 59 ba af 70 de b9 c1 7a 0a aa ba 74 00 bc
       -0.0008297586 -0.00042427095 -1.2299451e-13 -0.00784033
000010 be 8a 76 3d b6 8d 7a ad 8e 1e e8 b3 45 d8 e4 b7
       0.06019091 -1.4242321e-11 -1.08089e-07 -2.7280426e-05
000020 82 10 b9 b9 c3 c7 3a 9c c1 87 88 9e 6e 7b 25 ad
       -0.0003529825 -6.1800424e-22 -1.4455707e-20 -9.406571e-12
000030 97 25 8d b2 eb a5 2f a2 ea 40 d7 a8 ce 75 4c ba
       -1.6431654e-08 -2.3804759e-18 -2.3897947e-14 -0.00077995367
000040 c8 28 84 a9 a6 4f 67 3c 55 e8 2b b4 95 be ac 3c
       -5.869052e-14 0.014118111 -1.6010138e-07 0.02108697
000050 c0 90 8c bc d0 2b e0 3d d3 bd 10 b9 2f c1 b7 ae
       -0.017158866 0.109458566 -0.00013803625 -8.356193e-11
000060 db 34 50 b9 a0 16 e2 ac f0 d9 2d b9 dc 89 58 b0
       -0.00019856116 -6.425818e-12 -0.00016579754 -7.877625e-10
000070 20 c0 df a3 33 cf 84 b4 10 38 ac b5 94 10 86 a3
       -2.4259077e-17 -2.4737673e-07 -1.2831315e-06 -1.453533e-17
000080 18 53 93 9c 74 d8 39 bc f7 37 f9 aa 84 29 bb 3e
       -9.749123e-22 -0.01134311 -4.427012e-13 0.3655511
000090 b0 ee 2d 3e a4 89 8f b8 11 57 c6 b3 63 e9 2d b0
       0.16985583 -6.844409e-05 -9.235931e-08 -6.3268696e-10
0000a0 80 c9 69 ba 74 bf 42 b2 29 c5 ec b9 ba 21 36 b4
       -0.00089182705 -1.1335818e-08 -0.00045160323 -1.696234e-07
0000b0 90 e6 34 b5 6c 2f 31 a1 69 a8 a8 b7 31 03 78 b4
       -6.739074e-07 -6.0032695e-19 -2.0105583e-05 -2.3097961e-07
0000c0 50 cf 45 b9 4d 95 dc 3d 4b 35 5e b1 64 cf ac b3
       -0.00018864614 0.10770664 -3.2335545e-09 -8.047098e-08
0000d0 47 fa 81 b5 be 39 d6 b7 9a 6a 14 b8 36 a1 09 3e
       -9.684089e-07 -2.5537676e-05 -3.538523e-05 0.13440403
0000e0 a6 4b 31 ba 96 29 b2 b0 60 47 3b b8 57 27 4a a8
       -0.00067632867 -1.2963024e-09 -4.4650747e-05 -1.1221783e-14
0000f0 62 6c 84 ba 7e 0f e8 9f a1 af c8 b8 ab be 8c ba
       -0.0010103101 -9.828145e-20 -9.5694566e-05 -0.0010737976
000100 a7 36 04 3d 62 8c ca a7 49 17 a1 a7 c9 29 b9 bc
       0.032278683 -5.6218466e-15 -4.4711723e-15 -0.022602933
000110 64 4e 07 a8 d0 81 4b a5 f1 2a 69 a9 9c aa 86 b8
       -7.511004e-15 -1.7651425e-16 -5.177364e-14 -6.4213964e-05
000120 fd a3 01 b9 ff c8 ae b2 41 4b 65 3e 37 04 ba ae
       -0.00012363489 -2.0347668e-08 0.22391988 -8.4590494e-11
000130 c9 00 4c ba aa a1 0c b2 93 78 87 9f ff 2a 63 ba
       -0.00077820994 -8.185831e-09 -5.73742e-20 -0.000866577
000140 29 54 43 bc a3 ab 48 ba 46 5f 0b ac 63 98 ad aa
       -0.011921921 -0.00076549704 -1.9805975e-12 -3.0836713e-13
000150 10 36 c1 b9 28 18 c8 2d 14 c1 d0 b4 87 fe 5b b3
       -0.00036852108 2.2748095e-11 -3.8883502e-07 -5.1221402e-08
000160 1b 9c 9c 3b db 82 14 3e 10 0e 12 af 31 b7 bf b7
       0.0047793514 0.14503042 -1.3283619e-10 -2.285428e-05
000170 19 83 2e b1 09 7a af b9 51 fc bd b8 8e 62 73 b2
       -2.5394853e-09 -0.00033469524 -9.05922e-05 -1.416687e-08
000180 46 be 78 a5 25 de 52 a1 9a e0 6c ba 3e 1d e5 ab
       -2.1575038e-16 -7.1444773e-19 -0.0009036154 -1.6279545e-12
000190 1f 2a b4 ae 6b ca c2 ac b2 d8 81 a9 f3 c6 58 b8
       -8.1929345e-11 -5.5362845e-12 -5.7663415e-14 -5.16837e-05
0001a0 51 02 1b b4 2c ea 66 ba b9 fe fa b0 5d 9b 64 3e
       -1.4436343e-07 -0.0008808698 -1.8262291e-09 0.22324891
0001b0 6d 24 3e a0 64 78 3e b4 70 81 90 b8 ff 20 40 38
       -1.6105678e-19 -1.7738927e-07 -6.890565e-05 4.5807097e-05
0001c0 ef 8f ec a0 30 91 0b 3e a9 89 63 3d ea 36 3c b0
       -4.0075202e-19 0.13629603 0.055551205 -6.847204e-10
0001d0 8c 8e 81 3c 62 ae 53 b5 41 11 d1 b0 3d 76 ee a9
       0.015815042 -7.8857386e-07 -1.5211655e-09 -1.0589834e-13
0001e0 dd 8c 32 ac c4 06 25 ab f4 39 ac b0 6a 75 b5 a3
       -2.5373516e-12 -5.8629165e-13 -1.2531118e-09 -1.9673786e-17
0001f0 38 3e 4a b8 5a 96 9b b8 0f cc af b7 01 97 b3 ac
       -4.82185e-05 -7.418981e-05 -2.0956648e-05 -5.104251e-12
000200 a8 72 09 a5 e8 ff e9 ac f2 c9 05 b5 04 0f b4 a2
       -1.1921703e-16 -6.6506696e-12 -4.984023e-07 -4.8804996e-18
000210 9a e1 f9 b9 ff 65 0f bb ae a7 6b 3e e3 7e d9 ad
       -0.00047661067 -0.0021880863 0.23013183 -2.4726393e-11
000220 c0 cc 30 b5 77 b0 22 a1 36 cb f0 ab b2 97 b6 aa
       -6.586306e-07 -5.5121284e-19 -1.7109428e-12 -3.2434954e-13
000230 12 2b 98 b8 ab 92 85 bc 2c d6 65 3d 0b 11 0e b9
       -7.255947e-05 -0.016305288 0.056112453 -0.00013548524
000240 43 1a 26 bb 7e ca 55 3d ab 70 8d af 98 02 9c a9
       -0.0025345243 0.052195065 -2.5727806e-10 -6.9282416e-14
000250 70 9d 83 b8 ca e0 39 b5 eb 56 79 3d 7c e2 aa b9
       -6.275892e-05 -6.924498e-07 0.060873907 -0.0003259367
000260 fd 47 80 3c 1a cb dd b2 77 a8 34 b8 cf f0 6d ad
       0.015659327 -2.5820146e-08 -4.307224e-05 -1.35253605e-11
000270 15 f6 13 9f b3 f9 b8 3d 29 44 3e b8 5e b6 81 b4
       -3.1332015e-20 0.09032001 -4.536301e-05 -2.4160812e-07
000280 c6 1d d3 a9 0a b6 1a 3e cf a4 68 bb 32 72 05 a2
       -9.375447e-14 0.15108505 -0.0035498624 -1.8085316e-18
000290 cf 76 4d ba a4 bb bb b5 96 9a 42 ac ae 9b 66 ab
       -0.0007837833 -1.3987196e-06 -2.765487e-12 -8.1928464e-13
0002a0 e7 ae c6 b8 8b 8c c1 3a 01 74 46 bc 60 c9 2f b8
       -9.473954e-05 0.0014766617 -0.012112618 -4.1910796e-05
0002b0 72 d5 25 b0 13 c4 8f ba 8e 15 a2 ba e1 e5 ca b9
       -6.0329974e-10 -0.0010968469 -0.0012366043 -0.00038699716
0002c0 8f 57 71 aa d1 99 01 ab a4 4b 86 3d 7d 96 35 b9
       -2.1435478e-13 -4.604347e-13 0.06557396 -0.00017317566
0002d0 66 3c 43 b9 2b 9e f9 bb 54 58 f3 ba 7f dc 81 b5
       -0.0001861915 -0.007617732 -0.0018565753 -9.675422e-07
0002e0 1e eb 1a b5 18 f3 33 b9 f8 ef 00 ae d3 16 eb b2
       -5.771161e-07 -0.0001716133 -2.9316966e-11 -2.736798e-08
0002f0 c1 0d fa a3 81 f1 fb ba 7e bf 2a b6 93 76 72 bb
       -2.711088e-17 -0.0019221754 -2.5443437e-06 -0.0036996945
000300 a2 1e bd ba 58 6e 85 ae 71 ff 8b b3 24 73 40 b0
       -0.0014428685 -6.067741e-11 -6.5191564e-08 -7.001282e-10
000310 16 51 69 9d 29 52 98 ab 63 3e 98 bc 8e ec 64 b7
       -3.0879214e-21 -1.0823054e-12 -0.018584436 -1.3644936e-05
000320 43 75 47 af 7b e0 3c b0 f1 54 6c bc 37 d6 8e 9e
       -1.8140604e-10 -6.871301e-10 -0.0144245485 -1.5123432e-20
000330 49 2b 39 9f 9a b8 3b ba bc 0d 11 b0 fc 82 47 ac
       -3.921108e-20 -0.00071609917 -5.277021e-10 -2.8352312e-12
000340 cf 98 b0 3d ed d5 a4 b6 8b 02 c0 ba f4 c7 68 bc
       0.08622896 -4.912485e-06 -0.0014649195 -0.014207829
000350 1d 72 bc 3d 61 c1 9b ad a8 d0 bb 3d 61 a2 a9 3c
       0.09201453 -1.7707337e-11 0.091706574 0.020707311
000360 e5 9d 6a bc b3 f2 56 a8 1e 96 43 b6 40 70 24 ba
       -0.014319872 -1.1932013e-14 -2.9144644e-06 -0.000627283
000370 63 c4 b9 b3 14 cf cd b9 0d d6 0d 3d 53 40 8e b5
       -8.650456e-08 -0.00039254932 0.034627963 -1.0598545e-06
000380 32 e9 4d b1 16 b7 04 bb b3 07 1d bd 41 66 23 ae
       -2.9963982e-09 -0.002025073 -0.03833742 -3.715273e-11
000390 10 ca 0d bd 4e 57 03 bd 06 f6 12 3e 93 33 0a bb
       -0.03461653 -0.032065682 0.14351663 -0.002108787
0003a0 3d 57 18 ba 27 30 fd bc 52 d8 ed b4 d2 2b 55 af
       -0.00058113394 -0.03090675 -4.4302084e-07 -1.9387805e-10
0003b0 b8 91 0f ab 46 78 1a aa 68 d2 44 3d 67 47 99 b1
       -5.100603e-13 -1.3719676e-13 0.04805222 -4.4610036e-09
0003c0 e6 71 c9 b9 7a 93 1c ab 16 0d 6e bb c7 fa 30 3d
       -0.00038422568 -5.5627e-13 -0.0036323718 0.04320791
0003d0 f1 65 f0 ba b6 63 df 9d 2f 5f 9b a7 83 a1 b7 ba
       -0.0018340928 -5.9130707e-21 -4.312434e-15 -0.0014009926
0003e0 84 34 06 ac 0f 9d 86 ac 54 1b 64 b0 ea c1 0c 3e
       -1.9071697e-12 -3.825946e-12 -8.298475e-10 0.13745847
0003f0 ad a6 4b ae ad 3d 54 bb 5b 48 e2 b2 15 14 e0 a4
       -4.6304894e-11 -0.0032385394 -2.6342766e-08 -9.7178535e-17

action_layers.1.weight f4 [128, 256]
000000 25 60 9e b5 1a ec 14 b5 5e 92 0e a5 b3 00 7b 3c
       -1.1799899e-06 -5.547787e-07 -1.2366128e-16 0.015319991
000010 5a ea 72 3c 39 ff c7 a8 60 15 1b af a7 23 72 35
       0.014826382 -2.2204123e-14 -1.4104762e-10 9.0203906e-07
000020 97 52 04 b5 78 6a 62 97 0c 20 96 99 dd 17 6b a8
       -4.9294016e-07 -7.315892e-25 -1.552258e-23 -1.3050295e-14
000030 16 38 01 ae 71 ba 5e 9d 5d 27 1b a4 40 00 7d b5
       -2.938102e-11 -2.9477843e-21 -3.364361e-17 -9.425021e-07
000040 66 87 bf a4 6d 5d 02 3c 48 9f 51 af 91 17 34 3c
       -8.306242e-17 0.007956845 -1.9065027e-10 0.010991947
000050 5a 6c 38 bc 86 2f ed 3c bf 60 13 b4 5d 9b 06 aa
       -0.011256302 0.028953325 -1.3725638e-07 -1.1955493e-13
000060 e6 68 87 b4 34 a8 0e ab 94 ae 81 b4 51 4e 97 ab
       -2.5222033e-07 -5.0681963e-13 -2.4155145e-07 -1.0750932e-12
000070 c4 0e 1d 9f b2 f2 b4 af e8 68 e8 b0 9d 09 b0 a1
       -3.3258257e-20 -3.2914255e-10 -1.6910038e-09 -1.1928769e-18
000080 ad 8f ad 97 bd 63 ae bc 5c 85 41 a6 86 12 b2 3d
       -1.1216132e-24 -0.021287793 -6.714106e-16 0.08694939
000090 38 5a 06 3d ea fb c3 b3 6b a4 0a 30 5b 2d 94 ab
       0.032800883 -9.126218e-08 5.043776e-10 -1.0528621e-12
0000a0 03 71 06 b5 71 11 12 ac 1e e5 19 b5 bc d5 7b af
       -5.0083344e-07 -2.075753e-12 -5.733035e-07 -2.2904251e-10
0000b0 32 4a b5 b1 17 87 78 9c 7a 58 0b b3 5e 68 60 b0
       -5.2762283e-09 -8.2230916e-22 -3.244393e-08 -8.163904e-10
0000c0 b6 7d 88 b4 99 2e 01 3d 42 31 8e ac 56 04 07 b1
       -2.542344e-07 0.03153858 -4.0413515e-12 -1.964755e-09
0000d0 be 7a d7 b0 d6 0d 07 b4 1d cf 42 b3 97 a9 ee 3c
       -1.5678194e-09 -1.2577888e-07 -4.5357513e-08 0.029133601
0000e0 47 6d db b7 76 86 f3 2d 59 ff 85 b3 bb 87 09 a4
       -2.615772e-05 2.7685614e-11 -6.2397426e-08 -2.9822108e-17
0000f0 69 ff aa 35 0b fb 11 9b 09 cd 0c b4 da 1c cf b5
       1.2740321e-06 -1.2075235e-22 -1.3113107e-07 -1.5431099e-06
000100 07 a7 8d 3c 22 27 16 a3 83 ce db a3 59 a6 af bc
       0.017291559 -8.139803e-18 -2.3831489e-17 -0.021441625
000110 f8 ad 45 a3 89 24 91 a0 a5 34 5e a6 b0 82 c0 b3
       -1.0716231e-17 -2.4588132e-19 -7.709307e-16 -8.9644686e-08
000120 9b 9d 2b b4 c8 d1 6b 2e 9e 38 43 3d d5 8b 04 ab
       -1.5982953e-07 5.3619137e-11 0.047661416 -4.7089876e-13
000130 6a 11 b2 34 c0 cd 13 ae c7 7a a3 9a 34 ae aa b5
       3.3167754e-07 -3.3606673e-11 -6.761358e-23 -1.2716687e-06
000140 b5 89 e7 bb ab c7 93 b5 f4 e1 54 a7 f1 92 26 a6
       -0.0070659765 -1.1010465e-06 -2.95434e-15 -5.779196e-16
000150 e8 04 06 b5 10 dc 65 30 6e ad 2f 31 e8 89 97 ae
       -4.992603e-07 8.362244e-10 2.5564435e-09 -6.891182e-11
000160 c9 cf ac 3c 9f 86 d6 3c 30 c3 04 ac e6 0e 1e b3
       0.021095173 0.02618724 -1.886668e-12 -3.680079e-08
000170 8c 4d e1 ae c5 43 07 b7 e7 24 0e b4 6c a4 a1 ad
       -1.02455905e-10 -8.062406e-06 -1.3238206e-07 -1.8376599e-11
000180 be 44 af a0 f1 d9 75 9c 68 92 aa b5 3e 28 38 2b
       -2.9691643e-19 -8.1345383e-22 -1.2708597e-06 6.542578e-13
000190 f3 cb ed a9 eb d1 0b a8 87 63 d1 a4 a3 15 8e b3
       -1.0560294e-13 -7.761569e-15 -9.080791e-17 -6.616326e-08
0001a0 a3 7e 61 b0 a8 b8 d0 b5 4a 26 2f ac bc fc 41 3d
       -8.2034485e-10 -1.555095e-06 -2.489025e-12 0.047360167
0001b0 45 3e 65 9b c9 a2 81 af 5b 7b be b3 23 bd f1 3b
       -1.8962556e-22 -2.358063e-10 -8.870003e-08 0.007377283
0001c0 fc c7 09 9c 01 3e 06 3d 92 c3 d5 3c a5 47 97 ab
       -4.558797e-22 0.032773975 0.026094232 -1.0749081e-12
0001d0 ad 2d 9a 3c 66 4e d7 b2 fa 96 60 ae 79 6a 2e a5
       0.018820608 -2.5064946e-08 -5.1065797e-11 -1.5128169e-16
0001e0 0b 0b 8a a7 c9 d1 64 a6 33 a9 4d 30 98 5a df 9e
       -3.8314667e-15 -7.93877e-16 7.481901e-10 -2.3648512e-20
0001f0 98 07 bc 34 a5 9b ef b4 6c d5 fa b2 ac 4a 0d a8
       3.5023254e-07 -4.4630465e-07 -2.9200883e-08 -7.843264e-15
000200 2f c5 30 a0 ea da 2a a8 fe 2c 32 b0 22 aa dc 9d
       -1.4973022e-19 -9.484365e-15 -6.481996e-10 -5.840943e-21
000210 f3 b5 1e b6 da e3 70 b6 c7 82 4a 3d a1 b7 13 a9
       -2.3649743e-06 -3.5895414e-06 0.049441125 -3.279983e-14
000220 63 dd c1 30 00 cf 49 9c 25 d3 2b a7 19 8e fd a5
       1.410552e-09 -6.677286e-22 -2.3845479e-15 -4.3984793e-16
000230 6e ca cb b3 67 60 bb bc e1 2c 9a 3c fc f3 06 37
       -9.489746e-08 -0.022873117 0.018820228 8.043829e-06
000240 df 19 ad 39 66 26 8c 3c ef 59 f7 aa f0 2d 72 a6
       0.00033016407 0.017108154 -4.3938418e-13 -8.4022873e-16
000250 73 ec bb b3 75 c1 b1 30 d9 45 ca 3c 7a 6d fd b4
       -8.750876e-08 1.2933429e-09 0.02469151 -4.7204577e-07
000260 29 8f 36 3c a0 8a c4 30 f1 c6 3d b6 d6 ef c7 a8
       0.0111425305 1.4300277e-09 -2.8278994e-06 -2.219745e-14
000270 fd 7a 2d 9a a5 9e cd 3c 45 b7 8e b3 00 92 c4 af
       -3.587491e-23 0.025100062 -6.645727e-08 -3.5755932e-10
000280 fb 93 1a a5 da 3b c5 3d 62 cb b3 38 ba 9a 2d 9d
       -1.3407508e-16 0.096305564 8.573268e-05 -2.2976351e-21
000290 1b 4e 3b 36 95 97 fe b0 97 51 8e a7 20 7f ab a6
       2.7910635e-06 -1.8524015e-09 -3.9501377e-15 -1.1899966e-15
0002a0 da 86 05 b4 bb 3d 3b 3c df 2e 9d bc 5d 29 fe 35
       -1.2435649e-07 0.011428292 -0.019187389 1.8936513e-06
0002b0 0c 47 80 ab 44 e1 58 b6 e1 a3 c4 39 9c 2e 0d b5
       -9.114666e-13 -3.231763e-06 0.00037506133 -5.259442e-07
0002c0 2c 3e ae a5 ca 4d 3c a6 86 2b a9 3c fb 33 83 b4
       -3.0226318e-16 -6.5331027e-16 0.020650636 -2.4438472e-07
0002d0 05 11 8d 37 a7 4e cc bc 83 c3 d4 b8 e0 e1 ab b0
       1.6816435e-05 -0.024939848 -0.00010145365 -1.2506085e-09
0002e0 48 67 4f b0 92 f7 73 b4 e9 54 1f 2b 47 b9 0f ae
       -7.5452933e-10 -2.2721204e-07 5.6605984e-13 -3.2678995e-11
0002f0 79 5b 2e 9f 0e 2b 62 36 61 55 98 34 f2 c7 63 3c
       -3.6921598e-20 3.3701685e-06 2.8374328e-07 0.013902651
000300 06 13 87 37 c4 72 b7 a9 10 6a b3 ae 3f 1e 59 ac
       1.6102113e-05 -8.146741e-14 -8.158818e-11 -3.0854345e-12
000310 91 aa d9 9a b5 6a df a6 c9 60 8c bc 4e 33 a2 b2
       -9.002466e-23 -1.5502656e-15 -0.017135995 -1.8882613e-08
000320 f5 e2 8d aa 79 3e c7 ac 6e d6 e0 bc 5e 15 a6 99
       -2.5204115e-13 -5.662856e-12 -0.027445998 -1.7172628e-23
000330 07 53 69 9a a5 ff c8 b7 ec b5 09 ae 7f dc 8b a7
       -4.825034e-23 -2.3960902e-05 -3.1311773e-11 -3.8819312e-15
000340 35 80 1c 3d 91 bd ee b1 ca 05 cd 36 d6 a1 67 bc
       0.038208205 -6.948263e-09 6.11015e-06 -0.014137706
000350 ef 28 b5 3c 27 29 d7 a8 c4 79 88 3c db 4b bc 3c
       0.022114245 -2.3887642e-14 0.016659625 0.02298539
000360 07 af 3d bd d4 19 9a a3 a6 a1 85 b1 e0 18 78 b5
       -0.046309497 -1.6707652e-17 -3.8891868e-09 -9.24234e-07
000370 9b 17 04 af b2 ca 28 36 bd 40 80 3c 51 3f c8 b0
       -1.2013716e-10 2.5151935e-06 0.01565587 -1.4569911e-09
000380 b5 d2 2e 2f c5 b0 4f b6 26 36 c9 bc 5b da 63 a9
       1.5900066e-10 -3.0948297e-06 -0.024561953 -5.059352e-14
000390 18 d6 f2 bc 99 26 5b bc 0c fc 57 3d a0 f6 a9 36
       -0.029643103 -0.013375902 0.052730605 5.0653034e-06
0003a0 86 b7 8a b7 6a 39 bd bc ad 6b 20 b0 37 a7 d6 aa
       -1.6536342e-05 -0.023098666 -5.836068e-10 -3.8130065e-13
0003b0 ec cc 4c a6 eb ff 53 a5 5e 12 79 3c 9d b9 c0 ad
       -7.105444e-16 -1.8388041e-16 0.015202133 -2.1910302e-11
0003c0 0f cd 13 b5 63 1d c7 27 d4 ca b8 38 2b b6 8f 3c
       -5.5060167e-07 5.5265457e-15 8.8115834e-05 0.01754292
0003d0 eb 94 69 b8 68 8d fb 98 52 03 df a2 25 60 aa b6
       -5.569022e-05 -6.5024763e-24 -6.0447787e-18 -5.0775875e-06
0003e0 0a 4e 34 a7 00 90 85 29 f0 5d a2 ab 1f b3 36 3d
       -2.5022323e-15 5.9313665e-14 -1.1536865e-12 0.044604417
0003f0 93 83 f1 ab 37 5e 49 b9 a1 bf 22 ae 62 05 b6 9f
       -1.7160599e-12 -0.00019203952 -3.7004736e-11 -7.7088903e-20

action_layers.1.bias f4 [128]
000000 21 16 0e 3e 35 2b e6 3d 96 1e 23 a3 92 f6 59 b2
       0.13875629 0.1123871 -8.8427245e-18 -1.2687126e-08
000010 4d f8 e4 3d b5 be 36 3e 0f d0 cf b7 11 9d 5f b9
       0.11180172 0.17846186 -2.4773208e-05 -0.00021325449
000020 ca 23 11 3e 3d bb 2e 3e 4e e0 d5 b3 63 1f 28 3e
       0.14173809 0.17063613 -9.959386e-08 0.16418223
000030 9c e3 f3 b6 56 19 16 b6 42 bb 04 3e b7 bb 3e b8
       -7.2684616e-06 -2.236649e-06 0.12962058 -4.5474353e-05
000040 d5 0c 00 b2 c2 52 da 3d 01 65 58 b5 77 7f 1a 3e
       -7.453498e-09 0.10660316 -8.061325e-07 0.15087686
000050 a6 94 f1 3d 62 c5 91 b0 dd 95 dc 3d de 8d 15 3e
       0.117959306 -1.0606238e-09 0.10770772 0.146049
000060 94 d0 4c b5 2b 95 bd a2 55 9c 38 ad 7e a9 cb 3d
       -7.6299443e-07 -5.138649e-18 -1.0493902e-11 0.099444374
000070 a4 33 25 3e e3 a1 f7 ac f2 6f 4b b7 bb a6 0c 3e
       0.1613298 -7.0381353e-12 -1.2125807e-05 0.13735478
000080 79 29 0a 3e 07 4d 1f 3e 52 ba 31 3e ac 8d 43 a9
       0.13492383 0.15556727 0.17356232 -4.342158e-14
000090 2a 7e 81 b8 15 2c 8a b8 41 b5 23 a6 6f 05 1e 3e
       -6.174699e-05 -6.588564e-05 -5.679763e-16 0.1543176
0000a0 68 6e cf a8 e1 da f4 b6 35 c5 e6 3d 5f 79 f9 3d
       -2.3029498e-14 -7.2972475e-06 0.11268083 0.12181353
0000b0 02 9c b9 ad 83 cd 32 3e 1c 5f c3 3d e5 e1 91 a4
       -2.1101346e-11 0.17461209 0.09539625 -6.3266406e-17
0000c0 ea 79 bb 3d 75 d1 d6 3d e4 0e ff 3d 9e 12 15 b3
       0.09154113 0.104891695 0.12454012 -3.4708698e-08
0000d0 ec 2c 16 3e 69 05 11 3e 72 7e 84 b7 2f c1 f6 af
       0.14665574 0.1416222 -1.5794507e-05 -4.4884405e-10
0000e0 2d 6f 07 b8 4d 5c 43 b9 0b 05 15 3e cb 3a e5 3d
       -3.229005e-05 -0.00018631034 0.14552705 0.111928545
0000f0 7d 2c 3a 3e ee e5 65 b8 d7 11 54 b5 a1 62 de b5
       0.18181033 -5.4811993e-05 -7.9002115e-07 -1.6568994e-06
000100 5c 47 23 3e 04 d3 6a b3 ee fc 93 b4 df 80 00 ad
       0.1594519 -5.4674288e-08 -2.7564914e-07 -7.304573e-12
000110 a5 83 6c b7 6b eb 5e b6 4f 77 9f aa ca 70 45 b9
       -1.4097347e-05 -3.321761e-06 -2.832686e-13 -0.00018829401
000120 ad 8a 04 b7 c4 30 ca 3d ad 4b 90 ab a9 89 f4 3d
       -7.900101e-06 0.098725826 -1.025282e-12 0.11940319
000130 b8 21 06 3e e1 7b 60 b4 10 b3 01 3e fa ae b5 b7
       0.130988 -2.0906693e-07 0.12665963 -2.1658361e-05
000140 08 4d eb 3d 3c ae fc 3d 4b 21 c4 3d de cd f7 3d
       0.11489302 0.1233792 0.09576663 0.12099813
000150 44 a4 8f ae 44 e8 85 9f 6e c4 b7 3d 83 12 ea 3d
       -6.5320666e-11 -5.671194e-20 0.08973013 0.11429312
000160 54 bf 37 a7 63 1c 29 3e 82 0b c6 b8 39 1d bc 3d
       -2.550007e-15 0.16514735 -9.443519e-05 0.09185261
000170 48 6e 7c b0 15 38 a3 b9 fa f2 c1 a4 f7 96 fb 3d
       -9.1833785e-10 -0.00031131567 -8.4112026e-17 0.12284654
000180 9e 59 cc af 94 30 48 ad 2f 20 e4 b6 75 2f d3 3d
       -3.717106e-10 -1.137947e-11 -6.798676e-06 0.10311786
000190 5d d1 06 3e 07 18 e3 3d d8 6d ed b3 25 1d 0a 3e
       0.13165803 0.11088567 -1.1056153e-07 0.1348768
0001a0 1a e5 74 ae d0 d9 04 b8 90 eb 06 3e de 08 b6 b2
       -5.568266e-11 -3.1674106e-05 0.13175797 -2.1191621e-08
0001b0 50 ac ac a6 d3 9a 11 3e c5 6b 0b 3e e4 40 e2 3d
       -1.1981603e-15 0.14219217 0.1361533 0.11047533
0001c0 d9 8e c9 b5 cc 11 c9 3d df c9 d3 3d 50 3c 0c 3e
       -1.5017241e-06 0.098178476 0.10341238 0.13694882
0001d0 5a ab d5 3d 03 ba a7 ad 20 4e c4 b0 ac cc e8 a7
       0.10433073 -1.9068308e-11 -1.4283081e-09 -6.461484e-15
0001e0 a0 07 f4 3d 5f e7 dc 3d cc a5 80 b7 7b 1c 03 b7
       0.11915517 0.10786318 -1.5335994e-05 -7.81484e-06
0001f0 2b 69 81 af d5 c5 4e b5 34 9b e9 3d 83 70 b0 b3
       -2.353969e-10 -7.7028864e-07 0.11406556 -8.2161044e-08

fc.weight f4 [1, 128]
000000 20 65 88 3e 30 cd 5f 3e 87 82 4a 23 75 c0 98 31
       0.26639652 0.21855617 1.0978082e-17 4.445662e-09
000010 5a b5 5e 3e d2 bd ac 3e 62 3d 64 b7 9b d7 33 b8
       0.21748868 0.3373857 -1.3604151e-05 -4.2877724e-05
000020 47 01 8b 3e 8e 7e a5 3e ad d0 68 34 fe 91 9f 3e
       0.27149412 0.32323116 2.16826e-07 0.3116607
000030 d0 d6 be b6 f9 61 04 37 fa d7 7f 3e 66 97 fe 37
       -5.6874487e-06 7.890624e-06 0.24984732 3.034966e-05
000040 9d 6f 8d b1 0b fa 54 3e b7 3c 20 b4 0d 76 93 3e
       -4.116329e-09 0.20798509 -1.4923249e-07 0.28801003
000050 5b 3f 6a 3e b9 57 9b af 6b 0f 57 3e 0e 33 8f 3e
       0.2287573 -2.8256666e-10 0.21001975 0.2796864
000060 f3 7f 93 33 3c ff 09 23 d9 27 a5 ad 2b 79 47 3e
       6.868495e-08 7.480833e-18 -1.8776024e-11 0.19479816
000070 a6 0c 9d 3e 02 b2 04 ad 81 8c 84 b7 b1 0e 87 3e
       0.30673712 -7.542857e-12 -1.5801053e-05 0.26378396
000080 d4 e1 84 3e 38 e2 97 3e 76 fe a7 3e 7a 7f 86 a9
       0.25953543 0.2966478 0.32811326 -5.972909e-14
000090 c6 19 38 37 f2 69 99 38 89 e5 b5 a5 39 9c 96 3e
       1.09732555e-05 7.3153424e-05 -3.1554034e-16 0.29416063
0000a0 2a 65 0f a8 f9 f9 85 b7 42 5f 60 3e 09 70 71 3e
       -7.960031e-15 -1.5971238e-05 0.21911338 0.23577894
0000b0 59 f3 9d 2c 86 37 a9 3e 10 cd 3f 3e 46 59 de a4
       4.4892254e-12 0.33050174 0.18730569 -9.642839e-17
0000c0 0f 73 38 3e d0 bf 51 3e 6a 84 76 3e c7 6b e8 32
       0.18012641 0.20483327 0.2407395 2.7057366e-08
0000d0 5b 95 8f 3e 49 d6 8a 3e fc 9d 09 38 7e d9 ad 2e
       0.28043637 0.27116612 3.281048e-05 7.9057635e-11
0000e0 24 07 94 b9 e0 a7 26 b9 c3 72 8e 3e ca f4 5e 3e
       -0.0002823408 -0.00015893532 0.2782193 0.21773067
0000f0 c1 16 b0 3e 14 20 c9 b6 d4 2c 4f 35 eb fc 6e b6
       0.3439236 -5.994001e-06 7.717874e-07 -3.5611981e-06
000100 22 57 9b 3e ab c8 08 b4 60 d9 2a 32 36 ca 58 ad
       0.30339915 -1.273899e-07 9.944728e-09 -1.2323078e-11
000110 ef 32 3f 37 30 fa 50 37 9f dc 38 2a 05 2d 10 b9
       1.1396346e-05 1.2456017e-05 1.6419026e-13 -0.00013749681
000120 10 31 06 36 8f 1e 46 3e 47 17 14 aa 11 e4 6c 3e
       1.9996114e-06 0.19347595 -1.3153117e-13 0.23133875
000130 0f 2f 81 3e 7e 89 cb 33 e0 44 7a 3e 98 7b 1b 38
       0.25231215 9.477934e-08 0.24440336 3.7069985e-05
000140 23 81 64 3e 91 45 74 3e 7a 7f 40 3e 09 cd 6f 3e
       0.22314887 0.23854662 0.18798628 0.23418058
000150 23 82 79 2e cb f1 af 1f 3e fd 34 3e 57 69 63 3e
       5.673163e-11 7.4515396e-20 0.17674729 0.22208153
000160 3e 27 4e 27 57 41 a0 3e 9e b1 08 ba 23 0b 39 3e
       2.8609516e-15 0.3129985 -0.00052144553 0.18070655
000170 b2 0b a8 30 48 7f a3 b8 63 ba f9 23 b3 37 73 3e
       1.2226933e-09 -7.796154e-05 2.7075572e-17 0.23751716
000180 e3 17 19 b0 39 17 eb 2d c0 20 d2 b6 cc 6a 4e 3e
       -5.569502e-10 2.672672e-11 -6.2623003e-06 0.20157927
000190 7b cc 81 3e 23 ff 5c 3e d6 d0 b2 32 d2 bf 84 3e
       0.2535132 0.21581702 2.0816895e-08 0.25927597
0001a0 31 93 e1 ac f1 44 d2 b7 c9 e5 81 3e 7f 00 98 b2
       -6.411226e-12 -2.5066054e-05 0.25370625 -1.7695355e-08
0001b0 bf 6f 14 27 8c 72 8b 3e 65 da 85 3e f2 3c 5c 3e
       2.0599704e-15 0.2723583 0.26143184 0.21507624
0001c0 a4 15 88 36 64 13 45 3e b9 f7 4e 3e 21 a8 86 3e
       4.055635e-06 0.19245678 0.20211686 0.26300147
0001d0 59 b2 50 3e c1 5c 33 ae 77 5f b2 b0 70 fc 11 a6
       0.20380534 -4.078227e-11 -1.2978337e-09 -5.06491e-16
0001e0 81 73 6c 3e 70 55 57 3e 69 d8 aa b7 b1 8d 14 37
       0.23090936 0.21028686 -2.0366353e-05 8.8544775e-06
0001f0 bf 57 cb af e8 26 9c 37 7e eb 62 3e 57 a9 f7 b2
       -3.6987832e-10 1.8614766e-05 0.22160146 -2.8831591e-08
