project2-continous_control/checkpoint/critic_target.pth (torch_old, 435694 bytes, 7 tensors)

state_layers.0.weight f4 [256, 33]
000000 0c c4 fa bb fb c5 f3 3b 80 8e ba bc 08 16 24 bb
       -0.007652765 0.0074393726 -0.022773027 -0.0025037546
000010 8d 8c 84 ba f1 11 26 ba 1d 99 49 bb d5 6e 8f bb
       -0.0010112688 -0.0006335071 -0.0030761429 -0.004377226
000020 d1 44 c6 b9 1d 52 b0 ba f2 e4 ee ba af b3 45 bc
       -0.00037816775 -0.0013452206 -0.001822619 -0.012066766
000030 e2 66 e0 3b 1a cf fa 3a ef 23 14 bc 3d 40 c9 3c
       0.006848202 0.0019135207 -0.00904177 0.024566764
000040 cb b4 02 3b 7c c9 b8 3a 68 a8 f3 3b eb 98 0a 3a
       0.0019944187 0.0014098133 0.007435847 0.0005287069
000050 bf 23 88 bb 02 ef 7f 3c 82 f2 94 3c 7b 15 da 3c
       -0.004154652 0.015620949 0.018182043 0.02662157
000060 a4 45 70 bc 71 f6 28 3c 70 a3 18 3b e5 13 ad 3b
       -0.014665041 0.010312662 0.0023290776 0.0052819126
000070 43 85 3d bc 9b a6 00 80 e5 13 ad bb a3 30 00 00
       -0.011567417 -5.9767e-41 -0.0052819126 1.7448e-41
000080 39 44 d0 3b eb 80 8f 3c b8 5d ec 3c 88 41 48 bc
       0.006355789 0.017517528 0.028853282 -0.012222655
000090 d1 aa 03 bc f4 0c c9 3b 2c d0 f5 3b 6e 0c 03 bc
       -0.008036331 0.0061355773 0.0075016227 -0.007998569
0000a0 0d d8 19 bb e3 82 12 bc 84 88 b7 ba 12 54 54 3c
       -0.0023474724 -0.008942339 -0.0014002477 0.012959497
0000b0 63 9f cf 3a 8d b5 53 3c 73 d5 ba bc ce 57 86 3b
       0.0015840348 0.012921703 -0.022806859 0.0040998226
0000c0 33 f4 4c bd 0f ec 7d ba 1c ac 45 bb 25 44 a4 3b
       -0.050037574 -0.00096863596 -0.00301624 0.0050130063
0000d0 52 db 87 3c 6f 5d 4c bc 3a f0 ec 3b 14 64 5d bd
       0.016584072 -0.012473448 0.0072307857 -0.05405052
0000e0 72 b4 b2 bc a6 ac 0d bc d1 e8 0a bd fb 56 e5 bc
       -0.021814559 -0.00864712 -0.033913437 -0.027995577
0000f0 1b 96 87 bc 8e c4 88 3d 6b 4a 00 00 1b 96 87 3c
       -0.016551068 0.06678115 2.6696e-41 0.016551068
000100 8f 2b 00 80 17 7a 7d 3d 5e a2 6c 3d 80 6b 98 bb
       -1.5626e-41 0.061884012 0.057772033 -0.004651487
000110 11 9e 2f bc 37 6a 42 ba 81 b2 83 3b 31 36 74 3c
       -0.010718838 -0.000741634 0.004019082 0.014905498
000120 52 38 49 bc 60 e1 29 bc fc e6 1b 3c d2 02 9c ba
       -0.012281494 -0.010368675 0.00951552 -0.0011902696
000130 ca 47 b3 3b 21 03 1f 3c 9a 03 15 3c 8c e1 cb bc
       0.0054712044 0.009705336 0.009095097 -0.024887823
000140 70 b2 03 bc f9 95 b8 3b 0b 34 47 3c cc 58 eb bb
       -0.008038148 0.0056331125 0.012158404 -0.0071822163
000150 38 ec 88 3c 29 b0 79 3c 4e 31 8b 3b 5e a0 27 bb
       0.0167142 0.015239754 0.004247821 -0.0025577764
000160 dd 89 4c bb ce 88 86 bb 69 91 e0 ba fb 25 1f 3b
       -0.0031210103 -0.004105664 -0.0017133179 0.0024284113
000170 03 d6 53 3c 80 c0 e0 bc ab 1c 7a 3b 2a 2b 00 80
       0.012929442 -0.027435541 0.003816406 -1.5484e-41
000180 80 c0 e0 3c 3f 7b 00 00 2f 91 42 3e 29 96 58 bc
       0.027435541 4.4212e-41 0.19000696 -0.013219395
000190 fd ef a6 3c 5d 35 1e bc b3 d4 64 bc 4b 6c 64 bb
       0.020378107 -0.0096562775 -0.013966727 -0.0034854587
0001a0 38 d4 72 bb 63 ff f0 ba 87 53 d9 bb af b3 82 3a
       -0.0037052762 -0.0018386658 -0.0066322717 0.0009971763
0001b0 6b 1f cf b9 15 31 0e 3b aa 56 f4 bb 49 ad 68 3a
       -0.00039505525 0.0021696736 -0.00745662 0.0008875919
0001c0 1d fd 2f 3c b0 6b 54 bc 23 43 8e 3c 27 74 f7 3b
       0.010741499 -0.012965128 0.017365998 0.0075516882
0001d0 d7 7a 6f 3c fe bc 70 3a a3 a7 98 bb 13 ba 12 3a
       0.01461669 0.00091834355 -0.0046586557 0.0005597185
0001e0 50 09 c1 38 ab 59 13 bb aa a0 12 3c 22 0d 36 3d
       9.204692e-05 -0.0022483866 0.008949438 0.04444612
0001f0 c9 02 0e 3c 34 10 01 bc 70 1f bc 3c 61 f1 50 3b
       0.008667656 -0.007877398 0.02296421 0.0031882154
000200 57 13 00 80 70 1f bc bc b3 00 00 80 2f bb a1 3b
       -6.938e-42 -0.02296421 -2.51e-43 0.004935644
000210 94 0f 1a b9 57 18 74 3b 61 35 40 3a 6c 26 bf ba
       -0.00014692388 0.0037245953 0.0007332173 -0.0014583594
000220 35 2a 20 b9 ed 5b 55 38 4e 0d d3 b8 8f 2d 9c 39
       -0.00015274512 5.086877e-05 -0.00010063742 0.00029788582
000230 9d ba aa 37 95 03 92 38 1a f6 93 38 9c e0 2a 3a
       2.0352478e-05 6.96249e-05 7.055346e-05 0.0006518455
000240 ac 3d 6c 39 74 58 8a b8 ff c0 91 3b f6 f4 7f 39
       0.00022529688 -6.5968285e-05 0.0044480558 0.0002440995
000250 04 a2 28 38 d4 1c 17 b7 50 59 c7 38 78 a9 4b b9
       4.020521e-05 -9.007013e-06 9.505695e-05 -0.0001942272
000260 0c 5e 6e ba 76 d6 65 b7 6a ed 57 3a 45 a9 bc b9
       -0.00090929936 -1.3699397e-05 0.00082369766 -0.0003598427
000270 12 1d 87 3a e5 65 05 bb 0e e8 23 39 13 f4 d1 3a
       0.0010308346 -0.0020354923 0.00015631338 0.0016018174
000280 09 5d 39 3a 0b a5 00 00 13 f4 d1 ba 1b 1d 00 80
       0.0007071053 5.9206e-41 -0.0016018174 -1.0441e-41
000290 46 d5 20 38 ad 42 87 ba 64 05 13 3b c1 67 9b 3a
       3.83456e-05 -0.0010319554 0.0022433633 0.0011856483
0002a0 cc 84 02 ba 4d b3 98 b8 ab d1 9a 38 0d 35 b3 b8
       -0.0004978895 -7.281322e-05 7.382346e-05 -8.5452666e-05
0002b0 6a 76 22 b9 59 e2 7e 37 2b 56 40 37 13 22 04 b9
       -0.00015493637 1.519228e-05 1.1464154e-05 -0.00012601195
0002c0 ef 86 53 39 8e 84 22 b9 bd 03 d2 b9 b8 54 1f 3b
       0.00020172795 -0.00015498904 -0.00040057107 0.002431197
0002d0 1d c4 13 3a 83 b5 58 38 f5 cc cd b8 4a f3 b1 b8
       0.0005636828 5.166746e-05 -9.813338e-05 -8.485334e-05
0002e0 80 1c bf 32 72 56 32 38 f2 a2 8e b9 39 db 47 b9
       2.2248287e-08 4.2519016e-05 -0.00027205754 -0.00019059786
0002f0 c8 80 52 38 dd 08 f8 b9 94 03 2f b9 b0 2d d4 3a
       5.018784e-05 -0.0004730885 -0.00016690633 0.0016187932
000300 de 31 28 3a d1 2f 8a b9 43 10 00 00 de 31 28 ba
       0.0006416122 -0.00026357037 5.834e-42 -0.0006416122
000310 03 21 00 80 04 eb ac b7 68 5b 07 bb 06 16 80 3d
       -1.1842e-41 -2.0613435e-05 -0.0020653848 0.06254201
000320 16 5f 8b 3d 3c e3 9b bc 00 28 7c 3b 0a 19 a0 ba
       0.068052456 -0.019029252 0.003847599 -0.0012214493
000330 94 63 37 3c 87 2f a2 3c 01 df 85 bc 6e 84 8c 3a
       0.011193175 0.019798053 -0.016341688 0.001072062
000340 87 26 c0 3b 03 5c 60 bc 31 25 e8 3b 2c 78 85 bd
       0.005863968 -0.013693812 0.0070845117 -0.065170616
000350 4c e4 24 bd 00 0c 2a bd db f7 1a bc 0c a3 fc bb
       -0.040256783 -0.04151535 -0.009458507 -0.0077098664
000360 b3 3d 58 bc f2 84 23 bc 70 bd c4 3b 65 a9 e3 3a
       -0.013198304 -0.009980427 0.006004028 0.0017369209
000370 9e be 54 bb d9 45 35 bc 72 40 c8 ba c0 1a 69 bc
       -0.003246225 -0.011064016 -0.0015277995 -0.014227569
000380 aa e3 80 3d 19 4a a7 3c 5d c7 05 bb eb 88 00 00
       0.062934235 0.020421075 -0.002041302 4.9117e-41
000390 19 4a a7 bc d3 a5 00 80 72 64 d3 3d 58 1e 81 bc
       -0.020421075 -5.9487e-41 0.10321893 -0.01576154
0003a0 bf d5 35 3c ae b5 58 bc 0c 45 fd bb 5e fc 80 bb
       0.011098324 -0.01322691 -0.0077291783 -0.0039363345
0003b0 93 05 e3 ba db a7 4c ba 88 00 05 3b af dd e3 b9
       -0.0017320387 -0.0007806995 0.0020294506 -0.0004346198
0003c0 b1 3b 84 ba 32 c2 a1 bb 40 a9 55 3c 8c 34 1b bc
       -0.001008859 -0.00493648 0.013040841 -0.009472977
0003d0 76 ea c1 3b 2c 27 ca 3b 20 b6 06 3c 37 5b b6 3a
       0.0059178425 0.0061692204 0.008222133 0.0013912682
0003e0 da 18 42 bb 5c a4 25 3b 1e 7d ae 3b 89 70 1f 3b
       -0.0029616863 0.0025274968 0.0053249737 0.002432855
0003f0 41 81 78 bc d1 ef 7c 3a c9 88 00 3c b1 6a 5c bc
       -0.015167535 0.00096487725 0.007845112 -0.013453172

state_layers.0.bias f4 [256]
000000 db 13 ad bb 15 96 87 3c 73 c0 e0 3c 6c 1f bc bc
       -0.005281908 0.016551057 0.027435517 -0.022964202
000010 18 f4 d1 ba db 31 28 ba 0f 4a a7 bc 3d 20 df ba
       -0.001601818 -0.00064161205 -0.020421056 -0.0017023158
000020 be 35 6d bd 4c a9 dd bc a9 f3 19 bb 9c 1b 04 bd
       -0.05791258 -0.027058266 -0.002349118 -0.032252893
000030 e2 7a 84 bc d6 5b 2f bd 6f 40 41 bc d3 16 c7 3c
       -0.016171876 -0.04281219 -0.011795147 0.024302876
000040 6b 84 cf 3b 0a 10 85 3b fd e0 b8 ba d6 01 86 bc
       0.006332924 0.00406075 -0.0014105138 -0.016358297
000050 59 35 20 3d 78 96 a7 bc 4c 9f 61 3d 48 36 fc 3b
       0.039113376 -0.020457491 0.055083558 0.0076969005
000060 e8 c5 2c 3c 39 81 67 bc b8 04 6f bb 94 88 0c bc
       0.010545231 -0.01412993 -0.0036471318 -0.008577485
000070 57 73 4b 3c 75 fa 38 bd c7 bb 00 bc a1 43 fd bc
       0.012417636 -0.04516073 -0.00785727 -0.030916037
000080 3e e1 81 ba 82 72 9b 3c b7 24 d3 ba 44 9c e4 bc
       -0.0009909046 0.0189755 -0.0016108964 -0.027906545
000090 36 fc 1a 3b ef 05 38 3c 5f 78 9e 3c b3 18 d9 bb
       0.0023648865 0.011231883 0.019344507 -0.006625259
0000a0 b5 6a a5 bb 7f e7 44 bc ef 3e 6c bb ce 28 0d bd
       -0.005048121 -0.012018084 -0.0036048254 -0.034462743
0000b0 b9 00 07 3e 88 12 8a 3c 53 01 38 3c e4 b1 2b bc
       0.1318387 0.01685454 0.0112307845 -0.010479424
0000c0 ec b4 79 b7 6b 24 b6 ba 95 0b 7d ba dc 77 74 3d
       -1.4883681e-05 -0.0013896351 -0.000965291 0.05968462
0000d0 26 d9 15 3b cc 67 44 bb 71 c9 0c bc 8e 63 65 3d
       0.0022865026 -0.0029969094 -0.008592949 0.056003146
0000e0 3c d3 81 bd eb 63 8d bb 15 55 8b 3b 9a 61 d1 bb
       -0.06339118 -0.0043148897 0.004252086 -0.006389809
0000f0 eb f5 c8 bb 04 a5 30 3a cf 3e 0d 3d a9 d3 fd bc
       -0.0061328313 0.00067384564 0.034483727 -0.030984716
000100 14 2e 1d 3c 1f 8e 23 bc 9e ef 81 3b 19 8e c0 bb
       0.009593505 -0.009982615 0.003965332 -0.0058763144
000110 63 28 e1 3c e1 f7 36 bc 41 01 1a 3b bc dd 84 bd
       0.027485078 -0.011167497 0.0023499283 -0.06487605
000120 f2 0d dd bc f6 6c a9 ba c3 a9 ab ba 2f 51 9d 3b
       -0.026984189 -0.001292615 -0.0013096858 0.0048009376
000130 26 77 f4 bb 79 fe d9 bb b8 57 57 bc c9 59 20 bc
       -0.0074604927 -0.00665265 -0.013143472 -0.009787031
000140 83 d9 ce 3b f8 8e 96 bc 0a fb 00 bb ed 1b 82 ba
       0.0063125505 -0.01837872 -0.001968088 -0.0009926535
000150 ac c2 86 bc 96 dd 05 3b cb 14 16 3d 0e 29 1c bd
       -0.016450249 0.0020426265 0.036640923 -0.03812509
000160 21 de e5 bb f8 1d dc bb 0b a0 98 ba 11 bd fd bb
       -0.007015005 -0.0067174397 -0.0011644376 -0.0077434857
000170 c0 45 7b bb c9 3b c5 bb d5 f5 a2 b9 cb 20 b6 ba
       -0.0038341135 -0.00601909 -0.00031082207 -0.0013895271
000180 d3 e0 39 ba 5f cc 30 bd 97 32 5c bc 0c 6d 1d bb
       -0.00070906914 -0.043163653 -0.013439796 -0.0024021296
000190 0c 8e ad bb 3f 1c 88 3b 95 2a fa 3a 04 3c ee bc
       -0.0052964743 0.004153758 0.0019086177 -0.029081352
0001a0 e8 94 b1 bc bd 6b e4 bc a8 55 1d 3a d3 92 39 3c
       -0.02167745 -0.027883405 0.00060018385 0.0113265095
0001b0 73 e7 26 3c aa 65 16 bc 8b 33 81 ba 11 31 9d bd
       0.010187018 -0.009179512 -0.000985728 -0.07675374
0001c0 c4 6f a1 bc 93 99 d1 bc a3 fe 4f 3c ea 3c 8b bc
       -0.019706614 -0.025585925 0.0126949875 -0.01699682
0001d0 d5 d1 eb b9 f6 1a 02 bc 6b b6 7e 3d 48 89 23 bb
       -0.0004497903 -0.007940998 0.062185686 -0.0024953652
0001e0 62 ea 0e bb 75 bd 0f bd 4e 6d 42 3c 8b de 9e 3b
       -0.0021807184 -0.03509279 0.011866881 0.0048483065
0001f0 fd de 20 bc bf 71 a5 b9 4c 6e 03 39 50 b8 62 bc
       -0.00981879 -0.00031556 0.00012534222 -0.013837889
000200 21 4a 03 bc 59 17 57 bb b4 f3 93 bb ac d7 8c ba
       -0.008013279 -0.0032820313 -0.0045151357 -0.0010745428
000210 43 db 08 3c 47 07 43 3b 2a aa b6 bc d1 71 2c ba
       0.008353057 0.0029758976 -0.022297937 -0.0006578239
000220 86 9f e3 3b eb 77 13 bd a5 79 5c 3b 41 97 97 3c
       0.006946507 -0.036003035 0.0033641842 0.01850474
000230 c4 54 75 bd fd e2 92 bb 4d 16 3f bc 24 44 cb 3b
       -0.059895292 -0.0044826255 -0.011663032 0.0062031914
000240 b6 de 81 bb 90 a1 5a bc f8 a5 e7 3b a5 82 2c bc
       -0.003963317 -0.013344184 0.0070693456 -0.010529195
000250 f1 80 44 bc ac 42 12 3b 11 1b ac bc 53 bc 8f bc
       -0.011993633 0.0022317572 -0.021009 -0.017545855
000260 4b cf 87 bb 89 26 90 3b 81 f7 4e bc ad 9e e0 ba
       -0.0041445843 0.004399125 -0.012632252 -0.0017137133
000270 a5 0c 1a 3d fa 9d 8c bb 8f f2 85 bc 43 a4 0c bc
       0.037609715 -0.004291293 -0.016351013 -0.008584085
000280 74 71 50 3c fa a7 19 bb b1 43 9f bc 69 e0 c2 bc
       0.012722362 -0.002344607 -0.019441457 -0.023788648
000290 e0 d1 38 bc ba 9b 75 bc a1 1f 22 3a 82 d8 3d ba
       -0.011280507 -0.014990741 0.00061845226 -0.000724204
0002a0 42 99 a8 3c ff 44 97 ba 1d c8 cc 3b 5a 03 03 3c
       0.020580892 -0.0011540948 0.0062494413 0.007996405
0002b0 d5 27 72 b9 47 26 f1 b9 c3 54 dc bc 1e b5 2e bc
       -0.00023093757 -0.0004599562 -0.026895886 -0.010663299
0002c0 22 9c eb b9 d1 72 bc bb f4 60 19 bc 09 72 18 bc
       -0.0004493902 -0.005750992 -0.009361494 -0.009304532
0002d0 c6 77 46 bb 69 53 23 bd 41 5a f3 b9 da 01 57 3c
       -0.0030283793 -0.039874468 -0.00046415816 0.013123
0002e0 2e b1 01 bd 73 2f 00 bc 83 63 54 3b 3e 78 84 bd
       -0.031663112 -0.007823813 0.0032407946 -0.06468247
0002f0 7b 56 02 3c be 50 65 3d 6c 9a 49 bc 14 56 84 bc
       0.007955189 0.055985205 -0.012304883 -0.016154326
000300 97 4d 06 3b 24 35 15 ba 0b b1 b6 b9 6b 3f 4b bd
       0.0020493024 -0.00056918175 -0.00034845652 -0.049621027
000310 e0 07 a3 ba 25 a5 99 bc ac e3 9c bc 55 40 fb bb
       -0.001243826 -0.018755505 -0.019151531 -0.007667581
000320 eb a9 05 ba 95 26 de 3c 11 49 38 bb 03 b1 43 bb
       -0.0005098867 0.027118007 -0.0028119723 -0.0029860146
000330 a8 fa dc b9 2c 38 fd bb 1e 13 a0 3c 31 c9 56 ba
       -0.00042148423 -0.0077276435 0.019540366 -0.0008193432
000340 47 79 5f bd 37 9e 82 ba f7 e2 ed 3a 67 27 32 bc
       -0.05455902 -0.0009965365 0.0018149306 -0.010873652
000350 85 d6 94 bc e1 2a 73 bc 2d 76 d5 3c f1 1d cd bc
       -0.018168697 -0.014841766 0.026057327 -0.025038691
000360 df 19 91 bb 30 d0 4a bc c1 cd 02 b9 69 90 47 bc
       -0.004428133 -0.012378737 -0.00012474415 -0.012180426
000370 3a 2c 4a bc 5c 35 5c bd 91 73 49 bc ad e3 49 ba
       -0.012339646 -0.053761825 -0.01229562 -0.0007701468
000380 27 54 94 bb f8 be 23 bd 8a 48 3f bc 9c e2 cc 3b
       -0.0045266333 -0.039977044 -0.0116750095 0.0062526
000390 21 8b 0d 3b b4 0a 20 ba 5a c2 e3 3c 94 7a a2 ba
       0.002159782 -0.00061051105 0.027802635 -0.001239615
0003a0 a1 ae 8a bb 98 1d 16 bd 61 cf 2f bb 68 0c bb ba
       -0.004232243 -0.036649317 -0.0026826488 -0.0014270665
0003b0 0c 07 7c bc 15 38 73 3b 73 f2 03 bd 60 c8 6d ba
       -0.0153825395 0.0037112285 -0.03221364 -0.0009070691
0003c0 dc 77 e7 bb 36 f4 1e bd b1 8d 58 bd f0 40 c2 3b
       -0.007063849 -0.038807116 -0.052869502 0.0059281513
0003d0 bc 8f 95 b9 a2 c0 6a bc f8 8e e0 b9 91 fd a8 bb
       -0.00028526585 -0.014328154 -0.0004283113 -0.0051571806
0003e0 29 4d 17 bb c3 e3 22 3c cc a2 16 bd dd 79 03 bd
       -0.0023086763 0.009941998 -0.03677635 -0.03209864
0003f0 5a 2c e5 bb 10 7a a6 3c b5 d6 8f b8 31 86 64 b9
       -0.0069938125 0.020321876 -6.858764e-05 -0.00021793765

action_layers.0.weight f4 [256, 260]
000000 6d 55 6f a2 47 c8 a5 a5 5b d7 70 23 18 2e 06 23
       -3.2435764e-18 -2.875865e-16 1.3056029e-17 7.273915e-18
000010 bc 4c 1d 1f c1 f7 7b 20 a0 e6 c9 22 c5 ee 42 22
       3.3309516e-20 2.1342502e-19 5.4725343e-18 2.6418306e-18
000020 b6 2c dd a3 f3 f1 fa a2 97 4e 11 1f 3a 7a 9a a3
       -2.3979804e-17 -6.801881e-18 3.0769952e-20 -1.6748478e-17
000030 0d 1b 82 21 ce 76 96 a2 42 8a ba 20 78 d0 d2 a6
       8.816303e-19 -4.078337e-18 3.1601117e-19 -1.4628183e-15
000040 31 65 5b a2 3d 1e da a4 40 f4 50 1f 4f ad 04 a3
       -2.9733605e-18 -9.4593655e-17 4.4247752e-20 -7.192434e-18
000050 f0 98 49 a5 40 bf a2 a4 c4 61 b2 23 ac 4d b1 a4
       -1.7485788e-16 -7.058029e-17 1.9340204e-17 -7.6893095e-17
000060 40 63 c2 a2 7b 38 2b 23 c8 4c 2d a2 96 96 99 21
       -5.268889e-18 9.281889e-18 -2.348652e-18 1.0407543e-18
000070 34 fa 23 a4 79 a7 6e a4 ab bd 12 a2 09 70 1f a3
       -3.555692e-17 -5.1749878e-17 -1.98871e-18 -8.643132e-18
000080 aa af 8d a1 4a 56 33 a5 ed 75 6f 1f 32 e9 6a a3
       -9.60103e-19 -1.5555011e-16 5.0707765e-20 -1.27345464e-17
000090 82 dd 9e 22 8a 48 68 a4 e1 00 53 a4 19 f9 97 a1
       4.3060516e-18 -5.0368424e-17 -4.5754076e-17 -1.0298094e-18
0000a0 cf 54 0a 22 0b aa 72 22 44 d6 a6 9e 31 8b d7 23
       1.8747385e-18 3.2887136e-18 -1.7664552e-20 2.3369297e-17
0000b0 6d 5a ea a7 ba 48 d0 a3 76 43 1d a3 4e bd 11 a4
       -6.5046087e-15 -2.2582206e-17 -8.5252725e-18 -3.160221e-17
0000c0 b8 4d 80 22 33 e5 1b 23 ad 25 92 1e 74 28 aa a5
       3.4776757e-18 8.451102e-18 1.5473934e-20 -2.951771e-16
0000d0 94 51 be a4 6f bb 89 a4 de 04 f1 1f 5a 79 80 a4
       -8.2537564e-17 -5.9731804e-17 1.0207552e-19 -5.571673e-17
0000e0 6e 3e f0 a0 d2 8e 04 23 07 65 28 22 18 19 0d 23
       -4.0698894e-19 7.185978e-18 2.282173e-18 7.648939e-18
0000f0 5c b1 eb 21 24 82 37 22 0e 1e 12 a5 3c 3e f7 a2
       1.5971166e-18 2.487002e-18 -1.2673664e-16 -6.7015377e-18
000100 5a de c0 23 89 f0 5a 22 bf 4c 39 24 44 45 ff a2
       2.0910851e-17 2.9671847e-18 4.0180487e-17 -6.9191226e-18
000110 3e a5 a6 23 1d fb 94 a2 49 e5 32 a4 3c 56 9c 9d
       1.8067739e-17 -4.0381357e-18 -3.879181e-17 -4.138202e-21
000120 0e df 16 a3 45 5a 06 a5 6e f0 b5 1f 6c ca 6f a4
       -8.17875e-18 -1.1653232e-16 7.705424e-20 -5.1996322e-17
000130 89 61 09 a3 93 40 ac a4 d3 f6 0c 23 c7 46 34 a2
       -7.447439e-18 -7.47025e-17 7.641682e-18 -2.4432018e-18
000140 98 89 91 a4 d1 2a 78 a3 e8 fe d5 a3 fe fb 10 1f
       -6.311682e-17 -1.3453174e-17 -2.3201463e-17 3.070163e-20
000150 4f 1e 1f a4 5e ea 6c 21 b9 ef f5 a3 1c a9 5b 22
       -3.45033e-17 8.0270093e-19 -2.666448e-17 2.976956e-18
000160 55 81 af 20 32 3c 24 23 6b fc 40 1f 74 a2 83 a4
       2.9731738e-19 8.903205e-18 4.0866377e-20 -5.70874e-17
000170 f2 0a c6 a2 3e 3c 63 a4 dd 71 26 21 e2 03 c9 21
       -5.3679596e-18 -4.9273806e-17 5.6393684e-19 1.3621318e-18
000180 9a b0 2a 1f a6 33 4c a3 51 2e 1b a2 ff 67 36 23
       3.6144982e-20 -1.1069799e-17 -2.1030937e-18 9.888262e-18
000190 3b c9 a6 a3 1f bb 65 20 04 3f bc a4 f7 2e 14 a3
       -1.808298e-17 1.9458968e-19 -8.1638756e-17 -8.033041e-18
0001a0 81 39 36 a3 63 2d 04 23 34 a1 4c 23 27 11 a1 a4
       -9.878417e-18 7.165345e-18 1.1092998e-17 -6.985168e-17
0001b0 c7 6e 04 a5 08 56 a3 a1 0d 3d 2e 20 8c c8 98 a2
       -1.1486708e-16 -1.1068082e-18 1.4758573e-19 -4.141202e-18
0001c0 a3 85 3b 23 ec f3 d5 a4 93 a6 b7 23 ce db 8c a4
       1.0165589e-17 -9.2787245e-17 1.9911447e-17 -6.1087685e-17
0001d0 e4 b6 8d 20 d2 e4 1c a5 7a 3a 87 a5 63 7c 69 a4
       2.4007356e-19 -1.360837e-16 -2.3458392e-16 -5.062918e-17
0001e0 c3 bb da a4 43 c6 0d a3 83 b6 9c 24 64 99 4d 23
       -9.486051e-17 -7.685609e-18 6.79634e-17 1.1145554e-17
0001f0 94 e6 48 23 1c bc 8a 20 93 ab c8 22 10 cc 81 a0
       1.08908485e-17 2.350259e-19 5.439177e-18 -2.1988487e-19
000200 82 f7 a4 21 69 be 8a 20 04 b3 6a a1 6f 70 82 1e
       1.1178587e-18 2.3504112e-19 -7.951921e-19 1.3810787e-20
000210 13 69 ae 23 27 2d 59 a2 08 bd 3d 22 6d 08 d3 a2
       1.8909618e-17 -2.9432887e-18 2.5714349e-18 -5.7200586e-18
000220 9d f0 fb a3 ab 9b 21 a4 08 9c 10 a3 fb 5c eb a5
       -2.7315378e-17 -3.5043166e-17 -7.8392965e-18 -4.0829008e-16
000230 e3 ca f8 22 ae d6 c6 1f ff 46 71 a5 c2 19 ed a2
       6.743535e-18 8.421142e-20 -2.0927472e-16 -6.426625e-18
000240 b5 b7 bc a2 67 c9 16 a3 77 03 99 22 97 32 c9 a2
       -5.115201e-18 -8.174165e-18 4.14744e-18 -5.4534723e-18
000250 fb 70 d7 a1 ac 44 a4 a3 87 be 61 a2 84 e8 1d 22
       -1.4598872e-18 -1.781e-17 -3.059405e-18 2.140056e-18
000260 7c ac c7 22 12 bd 95 a5 7c ee 80 22 56 2e 05 1f
       5.4121683e-18 -2.59755e-16 3.4946975e-18 2.8202174e-20
000270 a8 29 f5 a1 4d d7 6e a5 6c 82 8a a4 ff 1d 06 22
       -1.6612872e-18 -2.0716156e-16 -6.00689e-17 1.8176266e-18
000280 7d 55 7c 22 eb 1d 43 20 4f da 55 a3 5f e6 86 a4
       3.4197626e-18 1.6527041e-19 -1.1592982e-17 -5.85035e-17
000290 c3 44 7c 22 de 4a c2 21 df 82 98 23 6e e2 ab 9e
       3.418877e-18 1.3165769e-18 1.6535299e-17 -1.8198978e-20
0002a0 74 c4 5f a4 d6 8a d3 1f 06 12 64 a4 6c d9 bb a5
       -4.852182e-17 8.959166e-20 -4.9454886e-17 -3.258666e-16
0002b0 d4 56 32 9f 23 73 3b 9f 12 1d ab a2 30 81 bf a3
       -3.776479e-20 -3.969403e-20 -4.6380422e-18 -2.0762975e-17
0002c0 eb 00 60 1e 94 0e 4d a2 02 1b 5c a4 90 0b fe 21
       1.1858651e-20 -2.7790398e-18 -4.7727772e-17 1.721477e-18
0002d0 7a f0 b8 a3 f9 4a d5 a2 9f 8d 0a 20 88 e0 8b a5
       -2.0051166e-17 -5.7813146e-18 1.1735913e-19 -2.4264805e-16
0002e0 9c b0 1e a4 39 82 8a 23 53 ca 73 24 aa ae 16 21
       -3.4410383e-17 1.5017141e-17 5.28636e-17 5.1053143e-19
0002f0 23 7f 72 a5 8c 78 6f a4 c5 bb be a2 26 6d b1 23
       -2.103323e-16 -5.192697e-17 -5.169841e-18 1.9236605e-17
000300 c7 00 be 23 bc 05 ea 1e bb fc 6c 20 fb e9 e6 21
       2.060017e-17 2.4778085e-20 2.0073599e-19 1.564734e-18
000310 85 17 a6 1e 66 2e 94 22 97 1b 06 a3 e6 aa 76 a3
       1.7585661e-20 4.0164607e-18 -7.269997e-18 -1.3371876e-17
000320 71 55 a0 9e ad 31 0b a5 ff b6 62 20 72 33 85 1f
       -1.6975997e-20 -1.2073159e-16 1.9203493e-19 5.64128e-20
000330 13 38 fd 20 81 8b 88 22 33 8d b4 a6 dc ba 21 a3
       4.2896974e-19 3.701058e-18 -1.2528281e-15 -8.7673965e-18
000340 dd fb 33 22 72 ca 91 1f f9 61 54 a5 a2 68 8d a3
       2.4392359e-18 6.1744806e-20 -1.8421263e-16 -1.5331564e-17
000350 24 c6 8c 22 3e e9 57 a4 4c 32 83 a4 c3 51 81 22
       3.8156866e-18 -4.6818257e-17 -5.68974e-17 3.505209e-18
000360 81 82 d0 a1 04 06 7a 22 c2 d4 1c 1f 4e 79 3d a2
       -1.4129172e-18 3.3884503e-18 3.3210274e-20 -2.5678494e-18
000370 36 1b 02 23 33 87 07 a4 7b 3c 50 a3 e6 2b 44 1e
       7.053076e-18 -2.9387977e-17 -1.128851e-17 1.03852316e-20
000380 08 db 3a a3 27 1b 20 a0 0c 0b 2a 22 a1 a7 18 24
       -1.0129462e-17 -1.3561511e-19 2.3045144e-18 3.3101733e-17
000390 47 01 4a a2 73 d2 75 1d 70 e2 a6 a5 fd ab 11 20
       -2.7376781e-18 3.253428e-21 -2.894985e-16 1.2338884e-19
0003a0 52 05 39 20 de eb 1e a3 c7 06 82 a3 63 9d a3 22
       1.567187e-19 -8.615144e-18 -1.4097499e-17 4.434788e-18
0003b0 90 60 c1 a3 75 87 0a a5 af bc b8 a2 76 b5 6a 20
       -2.0965998e-17 -1.2015487e-16 -5.0073076e-18 1.9880611e-19
0003c0 28 b2 1d a0 e1 5d ca 22 12 3b 8f 22 15 3a 8f a2
       -1.3357364e-19 5.4851608e-18 3.882277e-18 -3.8821724e-18
0003d0 a6 7c 21 20 18 4f 87 a1 9b 79 af 20 0d f5 51 a3
       1.3678473e-19 -9.168892e-19 2.9726625e-19 -1.1381804e-17
0003e0 bd ab b2 1f 72 01 14 a4 2d 3a 64 a1 4b a4 e2 22
       7.567005e-20 -3.209361e-17 -7.73264e-19 6.1431375e-18
0003f0 0d e5 03 22 cb 0f 26 a6 36 84 9c 1e f0 15 b1 1e
       1.787507e-18 -5.7614223e-16 1.6571824e-20 1.8749677e-20

action_layers.0.bias f4 [256]
000000 ce 75 d0 a7 88 fb d4 a2 2e df 7e 9f cb 29 ec 3a
       -5.785932e-15 -5.7729034e-18 -5.3971202e-20 0.0018017826
000010 b6 94 05 3d 31 38 23 ba 8e 21 0d b0 a9 7c 08 a6
       0.032612525 -0.000622633 -5.1343185e-10 -4.7353425e-16
000020 a0 98 d7 b8 7c 97 19 af ae 40 0f ad a9 3c be b0
       -0.000102804275 -1.3969087e-10 -8.142971e-12 -1.384156e-09
000030 67 7f f0 b0 ab cb db aa 51 9f b8 aa 4b 99 8d b8
       -1.7498508e-09 -3.9043538e-13 -3.2795514e-13 -6.751957e-05
000040 be 05 49 ae 75 b1 b3 ba cd 03 15 b8 e7 32 43 a8
       -4.570721e-11 -0.0013709503 -3.5527908e-05 -1.0835712e-14
000050 55 83 dc bc 51 31 5d b7 9e 52 77 ad 88 ce 3b ba
       -0.026918093 -1.3184109e-05 -1.4058669e-11 -0.00071642594
000060 6d 3c c3 b5 1e 0e 13 b5 72 72 c5 b5 fc 49 e0 a1
       -1.4546218e-06 -5.478231e-07 -1.4710952e-06 -1.5198414e-18
000070 1f cd 34 a5 7e c9 0d b5 41 d1 13 a6 d2 c0 e6 b8
       -1.5682009e-16 -5.2819803e-07 -5.128446e-16 -0.0001100317
000080 a5 6e 4c b0 fa 2c a3 bb 2c 68 ad b9 87 be 0a 3f
       -7.4372003e-10 -0.004979727 -0.00033074745 0.5419697
000090 09 30 1a ae cb 3b 9f b4 2f ae ce b3 8e 22 33 9f
       -3.505821e-11 -2.9659563e-07 -9.624306e-08 -3.7933307e-20
0000a0 d1 60 94 ae c4 36 09 ad e3 2c 71 b3 66 bc 73 b4
       -6.747459e-11 -7.799709e-12 -5.615301e-08 -2.2699678e-07
0000b0 61 6d f3 a7 8e 97 51 b7 03 45 7d ad 52 d7 06 b0
       -6.7564638e-15 -1.2492657e-05 -1.4396709e-11 -4.9054905e-10
0000c0 c2 f7 f6 ab 18 13 8a a2 f0 02 8c a1 14 c9 df a3
       -1.7548118e-12 -3.742519e-18 -9.487547e-19 -2.4262868e-17
0000d0 4d b8 ac b3 99 fd ee af 25 1c 08 b7 f2 70 6d 3d
       -8.042898e-08 -4.347214e-10 -8.112785e-06 0.05796904
0000e0 98 0f b4 b0 16 35 bd ac c5 85 1b a3 7d 5f 83 b9
       -1.3101156e-09 -5.377597e-12 -8.430894e-18 -0.0002505741
0000f0 cd 6d db a8 ce 59 d5 b7 ea 33 f7 bc 51 1c 65 b1
       -2.4361503e-14 -2.5433397e-05 -0.030176122 -3.3339982e-09
000100 dc c1 55 3d e9 b2 06 9f c3 a1 47 ba 94 1f f3 bc
       0.05218683 -2.8523595e-20 -0.0007615352 -0.029678144
000110 fc 81 5d b5 56 99 f0 b6 62 06 f5 a7 94 70 88 aa
       -8.251807e-07 -7.170408e-06 -6.800808e-15 -2.423657e-13
000120 26 30 c7 aa a7 36 c8 a6 7e 13 83 3e d9 de ed b3
       -3.538291e-13 -1.3892601e-15 0.2560081 -1.1076708e-07
000130 bb ec 3a ac d0 b8 b2 b9 e4 e1 a1 b5 e6 86 97 b2
       -2.6563602e-12 -0.00034088502 -1.2061178e-06 -1.7640058e-08
000140 cf 1b a7 ba 36 63 1c ba 46 f2 56 b8 31 9a e1 3b
       -0.0012749376 -0.00059657113 -5.124721e-05 0.006884836
000150 4e b1 5c b3 1c c8 e0 a8 08 a5 b9 b0 27 b8 be ae
       -5.1384e-08 -2.495578e-14 -1.3507426e-09 -8.672912e-11
000160 44 cf 8d bb 98 ca 20 ba 9f f1 a3 ba 3c d8 0a af
       -0.0043276865 -0.00061337044 -0.0012507922 -1.2627849e-10
000170 42 7f 8c b6 e2 b6 db a9 5c c4 fa 9d 94 84 d6 b2
       -4.18714e-06 -9.757279e-14 -6.637748e-21 -2.4973168e-08
000180 18 f8 43 a4 59 bf 62 a9 dd dd 1c ba dd 31 c1 b3
       -4.2494028e-17 -5.034805e-14 -0.0005983988 -8.996333e-08
000190 95 ee 09 b1 31 a0 81 a5 8a 01 42 b7 1d 6d 94 b6
       -2.0071742e-09 -2.2486483e-16 -1.1563659e-05 -4.423446e-06
0001a0 d7 51 18 ac ba e0 ce bc 81 82 74 ad 35 1d 81 3e
       -2.164593e-12 -0.025253642 -1.3898772e-11 0.25217596
0001b0 74 c9 a4 ba eb cf ca ba 03 eb a2 b8 2c 89 f2 b7
       -0.0012572245 -0.0015473341 -7.768536e-05 -2.8912524e-05
0001c0 07 10 a3 ad 50 82 bb b5 7d 14 9f 3d c5 40 e7 b8
       -1.8538072e-11 -1.3970512e-06 0.0776758 -0.000110270026
0001d0 f6 60 04 b7 fe a9 6e 3c 64 04 d0 ba 3c 2b 74 ad
       -7.890389e-06 0.0145668965 -0.0015870449 -1.3879394e-11
0001e0 d9 0c 73 b6 78 95 2d b7 50 96 48 3c e2 c0 86 af
       -3.62173e-06 -1.0346404e-05 0.012242869 -2.451151e-10
0001f0 2f 63 90 ba a3 31 cc ab 9b af 4e a6 66 55 20 b0
       -0.0011015887 -1.4508849e-12 -7.1708597e-16 -5.832902e-10
000200 3d bd 01 bb 3d a5 95 b3 2a e9 00 af 10 cb 2a 3d
       -0.0019796633 -6.96841e-08 -1.1724369e-10 0.04169756
000210 32 ad f9 a7 b6 44 02 9e b4 08 8f 3e da e4 22 b1
       -6.929916e-15 -6.896352e-21 0.27936327 -2.370419e-09
000220 39 64 74 b6 47 e4 ef a4 ee a1 10 3d 5e aa 50 ab
       -3.641717e-06 -1.04036445e-16 0.03531068 -7.4132876e-13
000230 4e d5 52 a6 7b b1 a2 af 97 0f 3e b8 f3 1e 20 ae
       -7.314747e-16 -2.9593736e-10 -4.531405e-05 -3.6407276e-11
000240 c0 28 d4 b8 15 fb d4 a8 8d ba 43 b5 1e 11 1f b9
       -0.00010116538 -2.3645618e-14 -7.291463e-07 -0.00015169798
000250 65 96 f5 b8 cc 4c 06 a7 fd 61 64 b6 5c 94 f9 b2
       -0.000117105235 -1.8637867e-15 -3.4031684e-06 -2.9054881e-08
000260 35 eb 3f af e0 b8 d8 b9 77 06 e6 b5 c0 aa 57 b1
       -1.7454911e-10 -0.00041336473 -1.7138217e-06 -3.1383678e-09
000270 5b 34 4f a8 0a db 50 3e 51 e8 3d ba fd db 0b b5
       -1.1502161e-14 0.20396057 -0.00072443957 -5.210166e-07
000280 67 44 6c b9 7b cc 92 af c4 84 44 b5 2c 99 51 a8
       -0.00022532196 -2.6702537e-10 -7.320889e-07 -1.16350445e-14
000290 a1 ef 31 b9 f5 e5 72 a7 5f c6 36 ae dd 24 81 b2
       -0.00016969304 -3.3708906e-15 -4.1558198e-11 -1.503434e-08
0002a0 a4 8f d2 b5 ac 71 1d ba e7 ca 6f bd 54 5f 21 ba
       -1.5688024e-06 -0.0006006013 -0.058543112 -0.00061558676
0002b0 5b 5b c4 b9 5f bc ce b0 51 1e 12 a6 05 74 a6 b2
       -0.00037452098 -1.5042011e-09 -5.069501e-16 -1.9377703e-08
0002c0 2f f5 2b a3 b0 a5 cb b9 a8 02 2c 3e 96 2e 8e b8
       -9.321848e-18 -0.00038842624 0.16797888 -6.779765e-05
0002d0 4d 01 89 b2 5b 8f 18 bc 94 16 12 b5 a0 fc 4d 9d
       -1.594949e-08 -0.009311522 -5.4422094e-07 -2.7262128e-21
0002e0 91 47 aa b4 ee 49 10 b8 d0 70 c7 b9 ca af cd b7
       -3.171704e-07 -3.4401128e-05 -0.0003804029 -2.4519763e-05
0002f0 8f 5e f6 ad 5a 87 16 b8 24 e7 e2 a6 ef 11 28 a8
       -2.8008955e-11 -3.5888843e-05 -1.5744551e-15 -9.329762e-15
000300 77 05 d1 b1 0b 0f ae b9 81 a0 39 ba 48 ba 29 a6
       -6.083322e-09 -0.00033199074 -0.0007081107 -5.888611e-16
000310 71 bc c4 ab 1e 9e a2 ae 59 06 a5 bc e3 8c 92 b8
       -1.3978941e-12 -7.394994e-11 -0.020144628 -6.988065e-05
000320 3f f6 cf a9 55 a3 a5 bc c0 d5 37 b2 bd 23 56 b4
       -9.2353635e-14 -0.020219484 -1.0700603e-08 -1.9943305e-07
000330 7c bd 4d ba ac aa 01 af f4 3b 45 af 45 7b b3 ad
       -0.0007848365 -1.1793116e-10 -1.7938345e-10 -2.0404687e-11
000340 4e 31 2b 3e ad 70 de b5 5d 1a 1d b5 40 87 89 bc
       0.16718027 -1.6573082e-06 -5.852542e-07 -0.016788125
000350 f1 52 b6 3c 32 f7 b5 b6 84 4d 81 3c 5c 9e 80 b9
       0.022256346 -5.4229977e-06 0.015784033 -0.0002453205
000360 19 0d 7f bd ea f7 cb ba a4 a5 d5 aa 55 06 ef bc
       -0.06226835 -0.0015561555 -3.7951337e-13 -0.029177824
000370 4a a8 79 b1 89 e5 f4 b1 ac 31 59 3d 6e 3e 82 a7
       -3.632993e-09 -7.1274298e-09 0.053025886 -3.6149935e-15
000380 80 9d 0e ad 20 eb 08 a7 44 87 dc b0 9b e6 64 a6
       -8.1067375e-12 -1.9001253e-15 -1.6045552e-09 -7.941592e-16
000390 11 de 1c a4 56 08 a4 bc 20 49 e2 3d 73 26 39 b2
       -3.4015205e-17 -0.020023506 0.11049104 -1.077716e-08
0003a0 5b 86 e0 b8 fa 75 3d bb 9c 4f d9 ba 16 43 57 b7
       -0.00010706178 -0.002890943 -0.0016579512 -1.2830618e-05
0003b0 c6 e8 fc b1 fb 8a 00 a8 7e 72 dc ba 89 b9 8f aa
       -7.3606286e-09 -7.135564e-15 -0.0016818789 -2.5530644e-13
0003c0 03 18 1f b8 9e 55 4c ba a2 bc 37 b6 6e f0 bb b6
       -3.7930917e-05 -0.00077947404 -2.7378924e-06 -5.601024e-06
0003d0 b4 7a f0 af 9a ab 1e b7 b8 16 1b b7 88 1f f9 b7
       -4.3742931e-10 -9.457488e-06 -9.24401e-06 -2.9697796e-05
0003e0 33 0f db ae e2 b9 13 a3 46 48 95 b2 5e 50 ca b2
       -9.961667e-11 -8.008248e-18 -1.7378749e-08 -2.3552442e-08
0003f0 d0 77 04 bb a9 23 05 b1 01 66 bd a8 f6 bc 8e b9
       -0.0020213015 -1.9374318e-09 -2.1027452e-14 -0.00027225137

action_layers.1.weight f4 [128, 256]
000000 5d 0d 99 24 bc b6 03 9e 68 2b d7 9a a3 7b 2f 3c
       6.637581e-17 -6.972871e-21 -8.899204e-23 0.01071063
000010 81 28 9e 3c db cf 8b b5 00 f5 86 2b ce f2 8e a1
       0.019306423 -1.0416801e-06 9.589274e-13 -9.686564e-19
000020 0e 7a 41 b4 9f 53 f2 2c 6e 04 02 aa 53 68 2d ae
       -1.8018929e-07 6.8873375e-12 -1.1547856e-13 -3.9428304e-11
000030 3e f7 02 ac bf d0 9b a6 e3 00 a9 29 90 88 82 b3
       -1.8611358e-12 -1.0811866e-15 7.5052615e-14 -6.078437e-08
000040 2f 05 7d a9 e6 03 82 b9 46 a2 7b b3 76 68 24 27
       -5.618178e-14 -0.00024798437 -5.858808e-08 2.28162e-15
000050 9a dc 05 bd 0d 0e cb b2 64 2d 89 a8 3e ef 0b b6
       -0.032681085 -2.36387e-08 -1.522974e-14 -2.0851871e-06
000060 02 d1 d5 33 b4 ae d2 b1 0e 9e 10 b1 ca 85 14 1e
       9.956604e-08 -6.131666e-09 -2.1044602e-09 7.862722e-21
000070 09 73 f0 a4 d8 72 4e b0 f0 88 e0 a1 47 9f 37 b4
       -1.04278286e-16 -7.5105566e-10 -1.5215077e-18 -1.7101148e-07
000080 6e 04 93 ab 70 59 d1 bc 0c 9d fd b4 e2 f6 ec 3d
       -1.0446208e-12 -0.025555342 -4.723919e-07 0.11570527
000090 2f d9 1b a9 97 af 21 b0 3e 20 34 af 80 59 85 9e
       -3.460529e-14 -5.8820987e-10 -1.638236e-10 -1.4118939e-20
0000a0 6c 3b 7e 2a 80 2d 22 aa ca cb e7 b2 10 fc ab af
       2.2580348e-13 -1.4404276e-13 -2.6984612e-08 -3.128382e-10
0000b0 e7 be 79 27 90 77 98 b3 87 b7 01 ac 06 fb 03 30
       3.465918e-15 -7.0998e-08 -1.843388e-12 4.801425e-10
0000c0 9b 60 da a7 f0 7f 34 a0 8d 03 8f 1f f9 7d 30 9f
       -6.0611895e-15 -1.5288924e-19 6.056873e-20 -3.7373652e-20
0000d0 5c 6c f0 31 80 67 59 ad 15 b9 81 b5 82 d4 9c 3c
       6.9972383e-09 -1.23580035e-11 -9.665115e-07 0.0191443
0000e0 67 e2 58 ad 2e d4 22 a8 9f ed 24 9e 10 e8 23 38
       -1.232845e-11 -9.038816e-15 -8.731227e-21 3.9078353e-05
0000f0 7c c8 63 a6 25 47 f7 33 ac fc 97 bc 7c da 10 ad
       -7.9028153e-16 1.1514775e-07 -0.0185531 -8.233966e-12
000100 52 03 b7 3c 2f 2a 2b 9b 2b b8 71 b5 23 ee 1b bd
       0.02234045 -1.4158419e-22 -9.0047496e-07 -0.0380689
000110 3b 35 bc b0 1d 06 66 b2 7b bd e7 a5 d3 04 94 a6
       -1.3693929e-09 -1.3389152e-08 -4.020051e-16 -1.0270871e-15
000120 ef 81 05 aa 2b df 20 a2 54 53 45 3d 52 0e 85 af
       -1.1857853e-13 -2.1802188e-18 0.04817517 -2.4202734e-10
000130 bc 6d b2 a9 34 32 20 b5 d6 12 27 b1 67 5c 71 ae
       -7.923824e-14 -5.96777e-07 -2.4312405e-09 -5.4879126e-11
000140 b8 4f f6 38 19 aa 20 b9 83 53 ad b3 dc 9e 92 3c
       0.00011745043 -0.00015322155 -8.071131e-08 0.017898016
000150 3f 12 ea ae 6b 26 16 27 5a 50 23 ac cb 80 62 ab
       -1.0644329e-10 2.0837508e-15 -2.3208297e-12 -8.0470065e-13
000160 50 fc 0a 3d 40 a5 80 38 39 6d 08 b6 af ca 97 ab
       0.03393203 6.134296e-05 -2.0329155e-06 -1.0785451e-12
000170 2d 6f 02 b2 c0 01 9d a5 95 cc 5a 9b a7 ad 00 ae
       -7.592274e-09 -2.7236344e-16 -1.8098641e-22 -2.9258065e-11
000180 ef 92 ee 22 fa 71 8b a4 36 d6 90 38 62 10 3d af
       6.46656e-18 -6.0474725e-17 6.906355e-05 -1.719527e-10
000190 db b7 72 ac 6a 65 94 a0 9f c4 9d b2 e2 30 f7 b1
       -3.4492329e-12 -2.5139285e-19 -1.8366618e-08 -7.1942035e-09
0001a0 a6 48 82 29 ff 1d 99 bc 7c 41 e9 a8 45 8d 41 3d
       5.785762e-14 -0.018691061 -2.5896596e-14 0.047253866
0001b0 3d 31 17 38 4d 34 4e b7 cf 1d 4c b4 a8 3d 87 34
       3.6047062e-05 -1.2290734e-05 -1.9009825e-07 2.519057e-07
0001c0 10 69 ee a8 f7 d0 93 b1 68 d0 78 3c f5 df e2 36
       -2.6468872e-14 -4.3020196e-09 0.015186407 6.761397e-06
0001d0 0e fd 74 b2 1b 80 80 3c 14 2e b7 3a 13 81 d2 ac
       -1.4260207e-08 0.015686085 0.0013975524 -5.982889e-12
0001e0 a7 da ad b1 c2 18 9d b2 37 03 6b 3c 1f 49 e0 aa
       -5.0598206e-09 -1.8288464e-08 0.014344028 -3.984113e-13
0001f0 dd f5 b0 39 47 44 ca a8 4f 47 c4 a1 ff 81 d0 2d
       0.00033752518 -2.2456116e-14 -1.3300352e-18 2.3704592e-11
000200 95 69 0e b8 49 6c 1f af 8f 61 5f ac 67 4d 89 3c
       -3.395377e-05 -1.4499436e-10 -3.1744362e-12 0.016760541
000210 b8 96 3c a3 da 91 88 99 01 48 5c 3d 8f 09 a0 ac
       -1.0223416e-17 -1.412098e-23 0.053779606 -4.5485347e-12
000220 2a 35 44 b3 50 95 0a a1 3e 7d 90 3c d8 84 96 29
       -4.568316e-08 -4.695383e-19 0.017637845 6.684383e-14
000230 af 34 8c a2 61 b9 1c ab 0e 28 4a b4 b7 1c 33 2d
       -3.8002857e-18 -5.56796e-13 -1.8827288e-07 1.0181348e-11
000240 ae 04 33 b4 93 48 42 a4 95 8b b2 b0 1a f6 8b b4
       -1.6672377e-07 -4.2128517e-17 -1.2990876e-09 -2.606983e-07
000250 2c f8 5b b4 a5 38 4f a2 ae ad e3 b1 ad 79 13 ae
       -2.0486249e-07 -2.8083719e-18 -6.6263146e-09 -3.3532e-11
000260 16 27 2e ac 0c c6 4e b5 6a b6 31 b1 5f a7 27 ae
       -2.4748584e-12 -7.7029176e-07 -2.586058e-09 -3.812006e-11
000270 21 22 ac a3 71 37 96 3d 3b 07 a8 b5 e6 e0 6d b0
       -1.8662732e-17 0.07334793 -1.251908e-06 -8.65397e-10
000280 28 10 c2 b4 2b 44 90 a7 2b 31 9a 30 bb 2b 6c a4
       -3.614707e-07 -4.0041937e-15 1.1218949e-09 -5.1211384e-17
000290 ca f2 7e b4 32 38 f0 a3 8e c4 94 a9 ab ba eb ad
       -2.374392e-07 -2.6044652e-17 -6.606617e-14 -2.6799304e-11
0002a0 80 0c 4d b1 a3 f9 03 b5 50 0a 9c bd 23 57 8e b9
       -2.9838532e-09 -4.916457e-07 -0.076191545 -0.00027149273
0002b0 56 5d 22 b5 5b 59 eb ab 46 43 72 a3 1a 38 1f ae
       -6.0485525e-07 -1.6722555e-12 -1.3133092e-17 -3.6202243e-11
0002c0 54 80 bf 9e ab 08 48 36 2a 69 b9 3d 9c 36 fd b3
       -2.0275987e-20 2.9807368e-06 0.090532616 -1.1791164e-07
0002d0 bd 02 1c ae be df 0b bd 2d 84 3a b0 83 54 74 98
       -3.5472725e-11 -0.034148924 -6.785424e-10 -3.1578928e-24
0002e0 8b 3d 18 b0 39 bd 7a b3 ea 94 1c b5 15 02 47 b5
       -5.5384736e-10 -5.8379758e-08 -5.8331227e-07 -7.4136307e-07
0002f0 96 6c 9a a9 ab 8b a5 b5 33 25 70 22 c5 78 02 a4
       -6.8578105e-14 -1.2334107e-06 3.2545758e-18 -2.8291552e-17
000300 96 cf 70 ad 1b 6f fc b4 e7 f7 9c 39 26 dd a2 a1
       -1.3688514e-11 -4.7019498e-07 0.0002993934 -1.1036085e-18
000310 7d 3b 22 a7 1d 36 ba a9 90 2b cd bc 01 fb 04 37
       -2.2514265e-15 -8.2694465e-14 -0.025045186 7.9262545e-06
000320 37 01 fa a4 d5 e0 af bc c0 e3 fa af 55 3b dd af
       -1.08422275e-16 -0.021469513 -4.563656e-10 -4.0241824e-10
000330 58 af ba b7 10 8f 93 aa 32 3d a3 aa d0 51 f5 a9
       -2.2254579e-05 -2.6211715e-13 -2.899708e-13 -1.0894378e-13
000340 50 05 38 3d 48 d8 33 b1 9c ca a2 b0 d5 3e 62 bc
       0.04492694 -2.617087e-09 -1.1844636e-09 -0.013808926
000350 57 c4 86 3c b9 82 19 b2 fb fe 31 3c c1 5b dc b9
       0.016451044 -8.935495e-09 0.010864015 -0.00042030032
000360 e7 8e b4 bd 01 15 b7 3a 61 fd d2 a6 35 f6 c0 bc
       -0.08816319 0.0013968052 -1.4640356e-15 -0.0235549
000370 2a b0 3b 30 d0 13 48 ad a9 19 b7 3c c2 50 29 a3
       6.828055e-10 -1.1373083e-11 0.022351103 -9.1786095e-18
000380 44 93 c4 a8 b0 d2 21 25 c8 42 97 2f 37 60 dc a3
       -2.1824238e-14 1.4035908e-16 2.751419e-10 -2.3893196e-17
000390 ee 8e 97 9f da 8b 32 bc 10 6e 0d 3d 4a f4 0c ad
       -6.4187445e-20 -0.010897601 0.034528792 -8.012322e-12
0003a0 3f 7f 57 b4 a5 f3 86 3a b8 51 a2 b6 0b 67 12 b3
       -2.0069727e-07 0.0010296 -4.8374895e-06 -3.408699e-08
0003b0 e3 f3 a4 af 2c cd 87 a3 e3 e9 6b ba f1 3b c1 a5
       -3.0004718e-10 -1.4723623e-17 -0.00089993904 -3.352078e-16
0003c0 88 87 9e b3 fa af 6f 3a b3 b2 ad b1 1f 2d 8a 34
       -7.382101e-08 0.0009143349 -5.0552784e-09 2.5737333e-07
0003d0 b1 7f bd ad 54 be 82 b2 1d 0d 7b b2 95 7d 59 b3
       -2.1543519e-11 -1.5220543e-08 -1.46131045e-08 -5.0638466e-08
0003e0 3c 9f 1c aa f3 b2 03 a1 65 6e 16 ae 43 6b 26 ae
       -1.3910829e-13 -4.4621364e-19 -3.42041e-11 -3.7839298e-11
0003f0 a0 15 9b b8 62 19 af ac b2 5a aa 24 56 27 02 b5
       -7.395004e-05 -4.976617e-12 7.387939e-17 -4.8486015e-07

action_layers.1.bias f4 [128]
000000 a8 dc d3 3d 1e 07 a3 3d 57 7f 25 b7 4a 51 61 9e
       0.10344821 0.07960342 -9.864415e-06 -1.1928211e-20
000010 1e db a1 3d 7b b6 0a 3e d1 64 9d a9 6f 27 5d a3
       0.079031214 0.13546173 -6.9896895e-14 -1.1988784e-17
000020 d0 cd d8 3d 37 5f 04 3e 96 b9 c9 b4 2e 44 fe 3d
       0.105861306 0.12926947 -3.75742e-07 0.12415348
000030 d8 6a bf a4 98 65 a1 b1 42 9f c3 3d 60 9d b3 9c
       -8.3014046e-17 -4.6972666e-09 0.095518604 -1.1885907e-21
000040 bc ff 34 b5 96 35 97 3d 3c 0f 1a b2 5f 6d e8 3d
       -6.742737e-07 0.073832676 -8.967444e-09 0.11348986
000050 03 fc ad 3d f8 09 4f b9 35 86 99 3d 75 8c e0 3d
       0.08495333 -0.00019744772 0.07496301 0.1096429
000060 3b fd d5 a0 65 49 8e 9f 13 37 e6 b9 35 95 87 3d
       -3.6251177e-19 -6.026076e-20 -0.00043910052 0.06620256
000070 93 bf f9 3d 45 d8 2e b3 ed 19 47 a4 8f 56 d1 3d
       0.12194743 -4.0709228e-08 -4.3173206e-17 0.10221588
000080 29 2e cd 3d 4a 70 f0 3d b9 96 06 3e e2 4a 57 a4
       0.1001857 0.117401674 0.13143434 -4.668412e-17
000090 08 7a d5 b8 a1 ab 23 ba cf f1 ab ba e9 29 ee 3d
       -0.000101793616 -0.0006243531 -0.0013118329 0.116290875
0000a0 4c e0 4a b6 b1 ef 09 ab 5b a2 a3 3d e3 50 b5 3d
       -3.0230904e-06 -4.9004816e-13 0.07989951 0.088533185
0000b0 3c b6 bd 9a db a1 07 3e 15 39 7c 3d 94 ae 94 a8
       -7.8462983e-23 0.13245337 0.061577875 -1.6507012e-14
0000c0 85 fb 68 3d 56 91 93 3d ce 69 ba 3d c2 53 a9 b8
       0.056880493 0.07205455 0.09102212 -8.074149e-05
0000d0 fb 4c e1 3d 60 80 d8 3d c7 d3 c2 a4 6c db 0e b1
       0.11001011 0.105713606 -8.4492853e-17 -2.0788447e-09
0000e0 27 a8 e9 ad 5f 95 04 a7 d7 38 df 3d 34 1f a2 3d
       -2.6563708e-11 -1.8399654e-15 0.10899513 0.07916108
0000f0 d2 96 0d 3e d8 af b0 b3 5c e7 c9 ac 5f 50 2a ba
       0.13827065 -8.2276244e-08 -5.7384496e-12 -0.00064969616
000100 4c af f6 3d 46 75 1b b1 16 fd 45 b7 fa ba 4e b3
       0.12045154 -2.262213e-09 -1.1801041e-05 -4.8133167e-08
000110 43 63 a3 b7 6d 33 da aa bb aa 72 b9 bd 73 d6 b2
       -1.9477337e-05 -3.8760263e-13 -0.0002314252 -2.496551e-08
000120 95 6e 25 b4 e1 f2 85 3d c2 7f ee af b4 b3 b0 3d
       -1.5407052e-07 0.06540466 -4.3382725e-10 0.08628026
000130 bd 13 c6 3d 40 8e d6 b9 2b 29 be 3d d6 82 8b a7
       0.096717335 -0.00040923245 0.09285196 -3.8722103e-15
000140 80 01 a8 3d e7 2d b8 3d ab fd 7d 3d 93 ac b3 3d
       0.08203411 0.0899313 0.062009495 0.0877315
000150 a0 e2 61 ac 46 fe a9 ad ec 77 5f 3d 82 d9 a6 3d
       -3.2100225e-12 -1.9325996e-11 0.054557726 0.08146955
000160 33 d8 9c b1 36 87 ff 3d c4 78 1f b7 08 95 6a 3d
       -4.5647766e-09 0.12476961 -9.5052565e-06 0.057271034
000170 b4 64 d2 b8 94 4a bf b4 47 38 73 b2 24 21 b7 3d
       -0.00010032338 -3.5630785e-07 -1.4157258e-08 0.08941868
000180 28 16 7d a1 a7 16 28 ab d1 55 66 ba 3f c0 8f 3d
       -8.574906e-19 -5.9717026e-13 -0.00087865914 0.0701909
000190 8c 44 c7 3d 55 03 a0 3d 23 71 38 b4 b0 f2 cc 3d
       0.09729871 0.078131355 -1.7177494e-07 0.100072265
0001a0 9e 51 2b a3 93 d3 27 b6 2d 75 c7 3d d3 77 5d 9f
       -9.287212e-18 -2.5008092e-06 0.097391464 -4.6897687e-20
0001b0 d8 d1 34 af c0 9f d9 3d 3d 13 cf 3d 33 30 9f 3d
       -1.6445456e-10 0.10626173 0.10111091 0.07772865
0001c0 53 e9 6b b6 7b ad 84 3d a8 62 90 3d 76 96 d0 3d
       -3.5153541e-06 0.06478401 0.07050067 0.10184948
0001d0 77 5e 92 3d 75 a1 98 b2 9d 15 2b b1 67 03 15 b7
       0.07146924 -1.7768551e-08 -2.489606e-09 -8.881884e-06
0001e0 e5 3f b0 3d 26 d4 99 3d 7c 4c ca ab 27 f2 61 b4
       0.08605937 0.07511167 -1.4374192e-12 -2.1042852e-07
0001f0 7b 27 af b9 41 00 b9 b3 ce 56 a6 3d 1c 03 0a af
       -0.00033408016 -8.61478e-08 0.081220254 -1.2552132e-10

fc.weight f4 [1, 128]
000000 5e 41 87 3e ea 55 4f 3e 92 de 0a b8 c9 86 84 1f
       0.2641706 0.20247617 -3.310905e-05 5.612716e-20
000010 71 d2 4d 3e 61 a1 b1 3e b4 f4 70 29 0f 63 a9 22
       0.20099808 0.34693435 5.350295e-14 4.5912424e-18
000020 68 74 8a 3e 21 73 a9 3e 1b be 66 34 b3 ae a2 3e
       0.27041936 0.3309565 2.1489579e-07 0.3177391
000030 39 fc 8d a5 08 99 b4 af 82 7d 79 3e 8a ef fd 1c
       -2.4630514e-16 -3.2850545e-10 0.24364284 1.6804055e-21
000040 a0 a4 4a 35 d8 12 40 3e 49 ca 75 31 aa 90 94 3e
       7.5490425e-07 0.18757188 3.5767178e-09 0.2901662
000050 94 7f 5d 3e 42 47 0e 39 8e 0f 43 3e 93 77 8f 3e
       0.21630698 0.00013568721 0.19048902 0.28020915
000060 e3 83 96 a0 36 1d 6c 1e ea 79 a2 ba 9d ef 2b 3e
       -2.5498264e-19 1.2499777e-20 -0.0012395952 0.16790624
000070 7b c3 9f 3e b2 c1 d7 33 f0 3d 8b 24 d9 9e 85 3e
       0.31203827 1.0046951e-07 6.038657e-17 0.26097754
000080 ca ed 82 3e c0 be 99 3e ef 4f ac 3e 5f 44 2a 25
       0.25572044 0.30028343 0.33654734 1.4768315e-16
000090 1c aa 0a ba cd ad 98 3a f0 19 85 ba 1c 46 98 3e
       -0.00052896305 0.0011648476 -0.0010154825 0.2974099
0000a0 2d 79 da b6 cd 15 f0 2a 56 1e 50 3e fd fa 66 3e
       -6.511013e-06 4.2647691e-13 0.20324072 0.22556682
0000b0 50 82 ed 9a 87 a8 ad 3e 52 be 1f 3e c2 c6 b0 28
       -9.8231434e-23 0.3391764 0.15599945 1.9626123e-14
0000c0 9c 62 13 3e ad 60 3b 3e 5d 93 6d 3e e9 35 90 36
       0.14393085 0.18298598 0.23200746 4.2978104e-06
0000d0 38 f4 8f 3e 55 42 8a 3e 21 41 5a a4 9a d4 58 b1
       0.28116012 0.27003732 -4.732638e-17 -3.1552987e-09
0000e0 74 da f3 ad 86 33 4e 27 c7 9b 8e 3e 6c 2a 4e 3e
       -2.7722914e-11 2.8616174e-15 0.27853224 0.2013337
0000f0 d8 56 b5 3e c9 57 ca 35 f1 e9 1a 2a 0c 77 77 3a
       0.3541782 1.5075722e-06 1.3759112e-13 0.00094400416
000100 98 c8 9d 3e 6a 14 d3 30 8d a1 80 37 24 ef 9c 31
       0.30817103 1.5358073e-09 1.5334017e-05 4.5673847e-09
000110 47 2c 10 37 eb d3 18 2b f5 f5 78 39 f7 35 dd b1
       8.593378e-06 5.4295343e-13 0.00023742749 -6.4380816e-09
000120 3c 12 21 b3 b9 d4 29 3e fa 2c dc ae 48 03 61 3e
       -3.7502318e-08 0.16585054 -1.0012431e-10 0.21973908
000130 07 ab 7c 3e 91 12 54 3a c0 6c 72 3e 25 50 af a7
       0.24674617 0.0008089925 0.23674297 -4.865915e-15
000140 c7 c4 55 3e 7e af 6a 3e 7c e1 20 3e 48 db 64 3e
       0.20875846 0.22918507 0.15711015 0.22349274
000150 58 12 ad ac d0 d8 af ad a5 47 0d 3e 54 46 54 3e
       -4.9189923e-12 -1.999148e-11 0.13796861 0.20729953
000160 74 08 ed b0 4d 7f a3 3e 3a 96 76 36 53 69 14 3e
       -1.7246422e-09 0.3193306 3.67443e-06 0.14493303
000170 8e 2d 9e b8 64 1c 05 35 14 25 a3 32 cf 53 69 3e
       -7.542512e-05 4.9587675e-07 1.8992559e-08 0.22785877
000180 48 55 13 a2 35 60 09 2b 78 5e 85 39 26 75 36 3e
       -1.9967362e-18 4.880569e-13 0.00025438122 0.17818126
000190 65 35 7e 3e fa 70 4b 3e ef 67 1c b4 5c c7 82 3e
       0.24825056 0.19867316 -1.4566443e-07 0.25542724
0001a0 ca be 85 22 a0 b6 34 36 3f 74 7e 3e 13 e5 e1 9e
       3.625173e-18 2.6928392e-06 0.24849032 -2.3917545e-20
0001b0 23 d9 e7 ad 45 fc 8a 3e e6 27 84 3e 42 60 4a 3e
       -2.6358088e-11 0.2714559 0.2581169 0.19763282
0001c0 f5 8f f2 35 96 31 28 3e 6e 46 37 3e 93 22 85 3e
       1.8072302e-06 0.16425166 0.1789796 0.2600294
0001d0 d3 d4 39 3e 26 44 28 b3 4a 8c a5 31 b3 1c d2 37
       0.18147592 -3.917753e-08 4.818081e-09 2.5047315e-05
0001e0 72 6d 60 3e 57 74 43 3e e8 fd 7c 2a 0d 0f 86 34
       0.2191675 0.19087349 2.2470188e-13 2.4970396e-07
0001f0 e9 ae 51 39 89 fd 9c b2 84 9d 53 3e 15 44 d5 2e
       0.00019996952 -1.8276085e-08 0.20665556 9.6982124e-11
